policy_net.pth (torch, 678637 bytes, 8 tensors)

layer1.weight f4 [256, 135]
000000 03 8f 0f 3c ca 87 a8 3c 3b 44 05 bd 6c 52 bb bc
       0.008762124 0.020572562 -0.032535773 -0.02286645
000010 1c 90 6d 3d fb 2f 48 3b d6 33 be bc c2 95 ac 3c
       0.05799876 0.0030546177 -0.023218077 0.021067504
000020 34 07 9f bc 25 8a 4c 3d fb 8a f0 bb 34 c3 d6 bd
       -0.019412614 0.049936432 -0.0073407865 -0.10486451
000030 39 61 19 3d fe a5 42 bd d1 85 43 3d c8 e7 05 3d
       0.037446234 -0.047521584 0.04773504 0.032691747
000040 54 d7 c6 3c b3 19 1a bd 7a 83 46 bd 40 cb 2b 3d
       0.024272598 -0.037622165 -0.04846523 0.04194188
000050 a7 ae 1e bd 8e 66 14 bd e4 2a 01 bd 20 be 99 bd
       -0.03874078 -0.036230616 -0.031535044 -0.075069666
000060 4f e3 35 3d 30 b0 bd 3b 4e ff a3 bd e1 90 be bc
       0.04440623 0.0057888255 -0.0800768 -0.023262443
000070 e7 5a 8d 3d 50 81 43 bd b5 82 ad bd f2 22 46 3d
       0.06902104 -0.047730744 -0.08472196 0.04837317
000080 fd 94 d5 bc 5b 54 88 bc d3 c2 89 3d 45 46 a4 bd
       -0.02607202 -0.016641786 0.06726613 -0.08021215
000090 36 81 9f bd 07 18 0a bd 29 ae 88 3d e8 7b e4 3b
       -0.07788317 -0.03371432 0.066738434 0.0069727786
0000a0 2e 8c fe bc 8a 65 b7 bc ab 6a f4 bc 94 fd 88 3c
       -0.031072702 -0.022387285 -0.02983602 0.016722478
0000b0 3f 13 b2 bd 71 a8 16 3c 45 da 52 3d eb 6e 6c bd
       -0.08695077 0.009195433 0.05147769 -0.057722967
0000c0 c7 7a 16 bc ed d5 96 bb 57 5c 95 bb b6 1f 2b bd
       -0.009184546 -0.0046031387 -0.004558127 -0.04177829
0000d0 8d 4c 0f bd 50 bd 11 3d ba 32 96 bd c3 a7 98 bd
       -0.034985114 0.035580933 -0.07333894 -0.07453873
0000e0 a0 b5 44 3c 4b 75 af 3d fa c9 ce 3c 26 5f 72 bc
       0.012006193 0.08567294 0.025242794 -0.014793193
0000f0 cb 7e 0c 3d c0 2f a3 bd cd 65 eb 3c 79 a0 a1 bb
       0.034300607 -0.07968092 0.028735066 -0.00493246
000100 2b a0 bd bc 19 95 2d bd 5c fb 2b bd 60 97 84 bc
       -0.023147663 -0.04237852 -0.04198776 -0.016185462
000110 0c 78 01 3d 82 69 5a bd 0d 2a 3c bd 9a cc ae 3d
       0.031608626 -0.053323276 -0.04593854 0.085351184
000120 f5 a6 0c 3d 83 ea 1e bd 04 dc 6e bd 4a 57 d2 bb
       0.03433891 -0.038797867 -0.058315292 -0.006419097
000130 c6 00 99 3d a6 db e5 3c e6 02 91 bb 74 97 35 bd
       0.07470851 0.028058838 -0.0044253943 -0.04433389
000140 cb 43 8b bc 72 5f 17 3c 2f 2d 7e bd 9d 75 93 bd
       -0.0170001 0.0092390645 -0.06205481 -0.07200167
000150 1a 80 91 bd aa 0d 8d 3b 2d 59 9d 3d 2c 97 6f bb
       -0.071045116 0.0043046074 0.076830246 -0.0036558611
000160 40 8d 47 bd 16 55 af 3d 87 34 c4 bc f3 5b 93 3d
       -0.04871869 0.08561151 -0.023950828 0.07195272
000170 39 26 90 3b dd 94 1b 3d 16 91 98 bd e9 77 aa 3d
       0.0043990877 0.037983764 -0.07449548 0.08323652
000180 07 25 af 3c 01 5f 28 bd f2 f4 99 3d a6 a7 a3 bd
       0.02137996 -0.041106228 0.07517423 -0.07990961
000190 b2 5e a4 bd e4 3d 3f bc 84 61 2c bd 2b 89 9a 3d
       -0.08025874 -0.011672471 -0.042085186 0.07545694
0001a0 b4 51 74 3d 3a 22 a6 bd 62 96 a6 3d 64 5a a3 3b
       0.05964823 -0.08111997 0.08134152 0.0049851406
0001b0 f2 c3 a1 bd 7d 5e 1f bd 9e 88 92 bd 54 96 ab ba
       -0.07898702 -0.03890847 -0.07154964 -0.0013091066
0001c0 71 44 70 3d 09 90 67 3d 9c 96 f8 3c a7 10 43 bd
       0.05865902 0.056533847 0.030345254 -0.047623303
0001d0 e5 0c ab 3c 4a c8 f8 3c 98 8b 7c 3d 10 ff 16 3d
       0.020880172 0.030368943 0.061656564 0.03686434
0001e0 d6 81 97 bd 58 18 79 bc f5 c6 83 bd b7 1c 91 bb
       -0.07397811 -0.015203558 -0.064344324 -0.004428472
0001f0 4b fd 83 3c 75 06 bc bc aa d8 72 bb 40 65 76 bd
       0.01611199 -0.022952298 -0.0037055411 -0.060155153
000200 7b 57 b3 3c 93 a1 f6 bd 7c 06 82 bc 85 a2 9a 3d
       0.0218923 -0.120425366 -0.015872233 0.075505294
000210 67 61 70 3d 00 91 cc bd 41 6d 39 3d e0 ce 21 bd
       0.05868664 -0.09988594 0.04527021 -0.039503932
000220 c0 70 a3 3d c7 6b 36 3c e6 50 38 3d 12 4b 44 3d
       0.0798049 0.011134095 0.044999026 0.047923155
000230 63 16 1a 3d 58 53 dd bc 24 49 6b 3d a5 d2 2c bd
       0.037619006 -0.02701728 0.0574428 -0.042193074
000240 ad 92 97 bd 05 0c fb bc da 94 0a 3b da b2 83 3d
       -0.07401023 -0.03064538 0.0021145851 0.064305976
000250 8f 10 82 bd ae dd 97 3d 22 2f 94 3d 16 4e a1 3d
       -0.063508146 0.07415329 0.07235552 0.07876222
000260 5f d2 a9 bc 14 b4 86 3d 15 12 ab bd 32 7a e4 bc
       -0.020730196 0.06577316 -0.08353058 -0.027890299
000270 e4 94 4b bd 3f 92 fb bb 6b 62 86 3d 39 22 8f 3d
       -0.04970254 -0.007677346 0.065617405 0.06988949
000280 26 a7 2c 3c e2 62 a1 3d e5 e4 2c bd 60 fc 83 bd
       0.010537898 0.078801885 -0.04221048 -0.06444621
000290 05 0b 3c 3c 79 f9 4a bd 83 e0 42 bd c0 20 1c bd
       0.011477237 -0.049554322 -0.047577392 -0.03811717
0002a0 e1 d7 79 bd 4c 93 69 3d f2 8a 32 bd e1 57 6e 3d
       -0.060996894 0.05702524 -0.04358954 0.058189277
0002b0 c4 a4 44 bc 11 96 4c bd 94 09 0a bd 4b 75 96 bd
       -0.012002174 -0.049947802 -0.03370054 -0.073465906
0002c0 7a e5 ad 3d 71 3f b7 3b 4a 18 57 bd a4 af 46 3d
       0.08491035 0.0055922796 -0.0525134 0.048507348
0002d0 3b 74 26 3d 1e 74 64 3d 0f 92 3f 3d cc 5b a9 bd
       0.04063819 0.0557748 0.04677015 -0.08269462
0002e0 11 17 e9 3b b5 d4 2f 3d 8b d8 5b bd e3 80 64 3d
       0.0071133454 0.042927463 -0.05367331 0.05578698
0002f0 2a e6 0a 3c 0c f4 98 3d 0a 64 8b 3d 19 8a 3f bd
       0.008477727 0.07468423 0.0680619 -0.04676256
000300 c4 d4 9f 3d d6 d4 a0 bd f4 68 87 bc 67 9f 12 bd
       0.07804254 -0.07853095 -0.016529538 -0.03579655
000310 78 47 33 3d 40 47 55 bd 12 4e 9b bd 3e f5 3a bd
       0.04376933 -0.052069902 -0.0758325 -0.045644037
000320 f8 81 82 bd dc ee 81 3d ee 1a 21 3d 6d 6e ae 3d
       -0.06372446 0.06344387 0.039332323 0.08517156
000330 10 a9 0e ba 6a 10 ab 3d 0e 78 11 bd 0b 5d 84 3c
       -0.00054420624 0.0835274 -0.035514884 0.016157648
000340 ca 35 a7 3c 73 0b 7a bd 0f 38 63 3d 58 3c 08 3d
       0.02041139 -0.061046075 0.055473384 0.033260673
000350 de 3c cd 3c ad d6 87 bd 0d bc d7 3b 66 43 43 3d
       0.025053438 -0.06632743 0.0065836967 0.047671698
000360 4f d5 96 3b 5f 69 77 3d b1 8f bf bc f4 31 c6 bc
       0.004603065 0.060403224 -0.023383947 -0.024193741
000370 d9 f7 07 bd a3 92 a8 3b 4a 43 ec 3b 97 a5 8c 3c
       -0.03319535 0.0051444336 0.00721017 0.017168803
000380 48 1d 9c 3c f7 d5 88 3c c7 8e 5f bd 01 52 81 3d
       0.019056931 0.016703589 -0.054579522 0.06314469
000390 db 28 a3 3d b6 ee 24 bd e3 99 58 3d 16 8f 93 3d
       0.07966777 -0.040266715 0.052881133 0.07205026
0003a0 5c 8c ac 3d 91 7f 5a 3d 0f bb a3 bc 18 93 e5 bc
       0.08425209 0.053344313 -0.019986657 -0.028024241
0003b0 8e d3 88 3d 59 e7 8b 3d 2d 5b 56 3d d1 f7 96 3d
       0.06680976 0.068312354 0.052333046 0.07371486
0003c0 8e 43 fd 3c 11 25 72 3c a1 e8 08 3d e8 8b 8b bd
       0.030916002 0.014779345 0.033424977 -0.068137944
0003d0 ec 39 11 bd b7 62 9a 3d 8e 21 46 3b 84 4a 50 3c
       -0.03545563 0.075383596 0.0030232402 0.012713078
0003e0 cd 07 3e bd 7c e4 15 3d 3b 15 31 bd 98 f4 bd bc
       -0.04639416 0.036594853 -0.043233138 -0.02318792
0003f0 48 54 08 3d 6a 4b a8 bd 8c b0 b4 3c 44 7b a1 bd
       0.033283502 -0.08217509 0.02205684 -0.07884839

layer1.bias f4 [256]
000000 ca 16 94 3c 1a f5 5f bd b4 32 c8 3c 8c 84 46 3d
       0.018077273 -0.054677106 0.02443824 0.04846625
000010 9e d3 28 3b cc 05 c0 3d 27 f3 bc bc 8b 02 75 3d
       0.00257609 0.09376106 -0.023065163 0.05981688
000020 47 7e f0 bc 6b 6e 1d 3d df 6a 86 3d 1b 33 6d 3d
       -0.029357089 0.03843538 0.06563353 0.057910066
000030 b4 58 40 3c ce e3 76 bd 7a 98 59 bd 5b f1 9b 3d
       0.0117398985 -0.060275845 -0.05312393 0.07614394
000040 f3 49 57 bd 3d 5f 2f bd 13 42 59 3d c8 b3 6e bd
       -0.052560758 -0.042815436 0.05304153 -0.05827692
000050 72 ae c1 bc 5e 17 92 3c 53 88 ca bc 02 c1 66 3c
       -0.023642752 0.017833408 -0.024723208 0.014084103
000060 fe 57 97 3d de 80 74 3c 26 0a 68 bc 3b 13 1c 3d
       0.0738983 0.014923302 -0.014162576 0.038104277
000070 3d 85 98 bd ed d9 92 bd d7 0c 29 bd fb 13 9f 3b
       -0.07447288 -0.07170472 -0.04127201 0.004854677
000080 65 d9 0e 3d e6 51 00 3d bc 9e 14 bc b4 77 55 3c
       0.034875292 0.031328104 -0.009071048 0.013029028
000090 42 ec 86 3d 50 6e ad bd 02 4f 9a bd b1 e8 23 bb
       0.06588031 -0.08468306 -0.07534601 -0.002501052
0000a0 8b 2d 91 3d ae 2b 73 bd 25 e7 25 3d 1e 9e 84 bd
       0.07088765 -0.059367828 0.04050364 -0.06475471
0000b0 a5 1a 98 3d 14 d0 75 3d 1f 0a d9 bc fe a0 6d bd
       0.07426957 0.060012892 -0.026494084 -0.058014862
0000c0 34 69 25 3d 6e db cc bc 7b ea 9d bd 0c 17 6a bb
       0.040383533 -0.025006976 -0.07710739 -0.0035719303
0000d0 a4 02 ee 3c 21 96 00 3d d3 c1 fe 3c fd 12 48 3d
       0.029053994 0.031393174 0.031098282 0.048846234
0000e0 eb e7 b1 3b 6a a4 b7 3c a0 0a 92 bd 67 83 97 3d
       0.005429258 0.022417266 -0.07130933 0.0739811
0000f0 fe ce 70 3d d3 6f 71 3d 00 d0 45 3d e2 d7 86 3d
       0.058791153 0.058944535 0.048294067 0.06584145
000100 21 35 42 3d 26 cb 7c 3d 50 0e 1e 3c d4 b2 3f bd
       0.04741395 0.061717175 0.009646967 -0.046801403
000110 5e 32 65 bc 2a 0c 32 bd f5 27 40 3d ae b2 57 3d
       -0.013989059 -0.04346863 0.046913106 0.052660637
000120 96 89 5e 3d 84 9f a1 bd 4b 8d c7 bc c9 7e fd 3c
       0.05433043 -0.07891753 -0.024359366 0.030944245
000130 1b 3e 36 3d a5 6c 9d bd 0e b0 db ba 5b b8 88 3d
       0.044492822 -0.07686738 -0.0016760842 0.06675788
000140 3a 8b a7 3d 57 aa 08 bd 17 c6 c8 3d c1 58 35 3d
       0.08180852 -0.033365574 0.09803408 0.044274095
000150 6d fa b2 3c 76 b1 f7 bb 80 24 24 bd eb 50 31 bd
       0.021847928 -0.007558997 -0.04007387 -0.04329006
000160 1a ab 1b bd 4e cd 82 bd 40 a3 e4 3c 5f 1b ae bd
       -0.038004972 -0.06386815 0.027909875 -0.08501314
000170 b9 1c ac 3d 64 c2 5b 3c 2c 46 6c 3d e5 6e bf 3c
       0.08403916 0.013413046 0.05768411 0.023368308
000180 4c e9 32 bd ef da 2e bd da 53 0a bd 2e a2 3e 3d
       -0.04367952 -0.04268926 -0.033771373 0.046541385
000190 ae 96 4b 3d 89 bb 58 3d 6a da 35 bd 9f a3 8e bd
       0.049704246 0.052913222 -0.04439775 -0.06964802
0001a0 6b 1a b6 bc ef 9d 41 3d 76 f5 3b 3d b9 10 a5 bd
       -0.022229394 0.047269758 0.045888387 -0.0805983
0001b0 e1 d0 f1 3c ba a4 8a bd 87 e2 56 3d 21 29 9d 3d
       0.029518547 -0.067697 0.052462127 0.0767386
0001c0 1f 9b 8f bd d5 2f 24 3d 45 60 56 3d 4e a2 9b bd
       -0.07012009 0.04008468 0.052337904 -0.075993165
0001d0 97 f4 1c 3d 7f 7a 62 3d e1 a0 c0 bd 90 99 69 bd
       0.038319197 0.055292603 -0.09405685 -0.057031214
0001e0 f3 9b 57 3d 82 03 9e 3d a6 a7 f3 ba 40 8c 25 3d
       0.05263896 0.07715513 -0.0018589392 0.040416956
0001f0 2d 9d 0c bd 65 8e 87 3c 83 bd 90 bd 17 a5 a5 bd
       -0.034329582 0.016547391 -0.070673965 -0.08088129
000200 50 b4 50 3d 20 f3 a9 3d 6e d6 b1 3c 88 1a 00 bd
       0.05095321 0.082983255 0.021708693 -0.031275302
000210 2c ea 65 3d 3d 9f 1b 3d 76 e1 97 3d 2c 37 a4 3d
       0.056131527 0.03799366 0.0741605 0.08018336
000220 56 b1 99 3d fb 59 aa bd 19 d2 a1 bd 79 87 90 bd
       0.07504527 -0.08317944 -0.07901401 -0.07057089
000230 7f 91 a0 bd 84 f7 18 bd 91 6d 64 3d 10 f2 18 bb
       -0.07840251 -0.037345424 0.055768553 -0.002333764
000240 f7 ef 78 3c 57 03 68 3d 94 66 00 3c ec 82 1e bd
       0.015193931 0.05664381 0.0078369565 -0.038699076
000250 01 89 44 3c 61 62 39 3d 47 77 f1 3c 10 2f 47 3d
       0.011995555 0.045259837 0.029475821 0.048628867
000260 a8 d8 9f 3d 00 46 e7 bc dd 3e 34 3d bc b2 8e 3d
       0.07804996 -0.02823162 0.044005264 0.069676846
000270 b4 46 88 bd 1f a1 99 3b d3 cc 78 3d a1 33 a1 3c
       -0.066541106 0.0046883966 0.06074221 0.019677939
000280 c5 4c 22 bd 6e 3b 0d 3d bc ca ba bc 24 8b 24 bd
       -0.039623994 0.034480505 -0.02280175 -0.040171757
000290 28 e7 58 3d 3c 6c ac 3d e4 41 2f bd b7 14 9d 3d
       0.052954823 0.084190816 -0.042787448 0.07669967
0002a0 48 52 e5 bc 87 c0 96 3c fb 61 79 3d ff b3 36 3d
       -0.027993336 0.018402351 0.060884457 0.04460525
0002b0 01 4c 19 bd aa 79 f0 bc da 5b a1 bd 30 7f 92 bd
       -0.037426 -0.029354889 -0.078788474 -0.07153165
0002c0 84 ee 9c bd 70 7d 5d bc b9 28 e7 3c 00 29 86 bd
       -0.07662681 -0.013518676 0.02821766 -0.06550789
0002d0 f3 cc 8e bc 91 4f 79 3d 25 6b 22 3d da 53 94 bd
       -0.017431712 0.060866896 0.039652962 -0.07242556
0002e0 fc 99 c1 3d 61 2d 6e 3d 62 87 b3 3c 28 44 9e 3c
       0.09453198 0.058148745 0.021915141 0.019319609
0002f0 74 b7 ae 3d ee fd 14 3d a7 aa 1a bd ec 0d 3c bc
       0.08531085 0.03637498 -0.037760403 -0.011477929
000300 79 b0 b8 3c ba 7a e5 3c 1a 4e a3 3d 9f 57 a2 bc
       0.022545086 0.028012622 0.07973881 -0.019817172
000310 fb df d5 bc bd 40 82 3d f0 e7 51 bd 3d db e5 3c
       -0.026107779 0.06360004 -0.051246583 0.028058643
000320 97 bc 53 bc f7 57 4a 3d ed c3 45 3c 9c 55 7b 3d
       -0.012923381 0.049400296 0.012070638 0.06136094
000330 09 36 b9 3d 3a cd 97 3d 19 d9 4a bd 62 a5 62 3d
       0.090435095 0.07412191 -0.049523447 0.055333503
000340 b0 85 ad bd fd c8 0d 3c df a9 8d bd 36 bf 5b bd
       -0.084727645 0.008653876 -0.06917166 -0.05364915
000350 13 03 53 3d fd bf 7b bd ae 50 ea 3c 5d 24 18 bd
       0.051516604 -0.06146239 0.028602924 -0.037144054
000360 ae f3 ce bc eb fe 13 bd 27 24 af bd fb fa 71 3c
       -0.02526268 -0.03613178 -0.085518174 0.014769311
000370 98 fb ac 3d 32 08 7e 3d 4d 0b 62 bd f2 9d 39 3d
       0.08446425 0.062019534 -0.05518656 0.045316644
000380 a9 81 a9 bd 82 f9 af bc 31 c3 6c bd 36 17 8a bd
       -0.08276684 -0.02148128 -0.057803337 -0.067427084
000390 49 00 f0 3c 74 fc 74 bb c7 7e 4a 3d d5 4f 5d 3d
       0.029297011 -0.003738192 0.04943731 0.054031212
0003a0 70 34 0e 3c aa 24 6c 3c 36 9e b3 3d 91 ff fe bc
       0.008679494 0.014413038 0.08770411 -0.031127723
0003b0 11 7d 96 3d af c1 3a bd 88 b3 56 3d 6e af de bc
       0.07348073 -0.045594867 0.052417308 -0.02718326
0003c0 98 c0 8c 3c 88 30 85 bd 0e a4 9f bd bc c8 b5 3d
       0.01718168 -0.06503397 -0.07794963 0.08876178
0003d0 12 bd 1a 3d 55 a0 be 3b a1 3f 5f 3d 62 4c d1 bc
       0.037777968 0.005817453 0.05450404 -0.025549117
0003e0 f9 fe a1 3d 86 51 91 3d 60 5f 9d 3d 3b 45 a5 3d
       0.0790996 0.070956275 0.07684207 0.08069845
0003f0 17 83 27 3d 2f f7 6d bd 13 03 86 bd fa 68 bf bc
       0.0408965 -0.05809706 -0.06543555 -0.023365486

layer2.weight f4 [256, 256]
000000 bb 6f 0d 3d c1 3e 15 bc 69 5c a5 bc 46 c8 84 3d
       0.034530383 -0.0091092 -0.020185666 0.064835116
000010 c8 8b 93 bd d9 e8 58 3d 84 8e 60 3d c6 91 35 3d
       -0.072043955 0.052956436 0.054823413 0.044328474
000020 85 c9 20 3c 7e 40 11 bb 56 e2 49 bd 6c 3c 83 3a
       0.009813671 -0.0022163684 -0.049288116 0.0010012514
000030 94 40 79 3d 98 b4 bf 3b ef a8 57 3d 96 e3 3d bd
       0.060852602 0.005850386 0.052651342 -0.04635962
000040 3b ff 75 3d 20 dc 94 3b 49 3b 51 3b 70 f4 22 3c
       0.06005786 0.0045428425 0.0031926206 0.009945974
000050 00 7e 83 bc 33 2b 73 3c 85 79 7b 3d 77 0a 8b bc
       -0.016051292 0.014841842 0.061395187 -0.016972763
000060 5e 01 c9 3c 0d ca a0 3b 58 e0 1b 3a a2 13 98 3d
       0.024536785 0.004906899 0.00059462106 0.0742562
000070 60 de 15 bd f7 fe 8d 3d 27 9e 18 3d 2c c0 15 3d
       -0.036589026 0.06933396 0.0372602 0.036560223
000080 40 42 45 bd e7 41 48 3d ca ca 36 bd dc 05 98 3c
       -0.048158884 0.048890974 -0.04462699 0.018557481
000090 80 b9 f0 3c 98 19 47 3c 98 8b da 3b d3 ec a0 bd
       0.029385328 0.012152098 0.006669473 -0.07857671
0000a0 17 f9 3a bd 99 f0 0e bc 99 cd 80 bd cc c1 d1 3c
       -0.045647707 -0.008724355 -0.06289215 0.025605105
0000b0 64 db 95 3a ff ea 1c bb a7 bf 3f bd ac da c1 bc
       0.0011433181 -0.002394378 -0.046813633 -0.023663841
0000c0 2e cb 2c bd b6 19 9d 3b 11 4c 58 bd e8 59 64 3d
       -0.042185955 0.0047943247 -0.052806918 0.055749804
0000d0 84 38 a9 3c d8 59 14 bd dd e0 98 3d ea 30 1d 3d
       0.020656832 -0.036218494 0.07464764 0.038376726
0000e0 e2 04 84 bd 40 d7 92 bc 52 b5 25 3d 7a 15 22 bc
       -0.06446244 -0.017924905 0.040456124 -0.009892816
0000f0 17 37 d7 bb a8 86 82 3d de ac 32 bd 6b 83 2d 3b
       -0.0065678465 0.0637334 -0.04362189 0.0026476036
000100 b6 85 ad 3c 2d 01 e2 3d 16 dd 25 bc f6 a1 5e bd
       0.021181922 0.110353805 -0.010123512 -0.054353677
000110 30 0e 59 3d cf fb 99 3c 62 bf 7c bd 27 29 46 3d
       0.052992046 0.01879683 -0.061705954 0.04837909
000120 e0 33 23 bc 04 c0 f0 bc 1a 59 43 bd a4 fc 70 3d
       -0.009961098 -0.029388435 -0.047692396 0.058834687
000130 be fa 53 3d 1e de 38 bd 0e 05 be 3b ed e5 54 3c
       0.0517528 -0.045133702 0.0057989424 0.012994272
000140 cd 44 22 3b 35 6f 2d bd 21 84 2f 3d 35 1d 17 bd
       0.0024760247 -0.042342383 0.042850617 -0.03689309
000150 fc 57 eb 3c 58 76 dd bc 8b aa 0e 3d 4e e2 1a bd
       0.028728478 -0.02703397 0.03483061 -0.037813477
000160 9c 78 5a 3d 2f f2 86 3c 48 74 46 bd 71 87 2a bd
       0.05333768 0.016472904 -0.04845074 -0.041633073
000170 1a 14 54 bd 36 7f f0 3c 52 85 53 bc c2 2e 8b bc
       -0.051776983 0.029357534 -0.012910204 -0.01699007
000180 1f 77 02 3d cb e7 5b 3d 33 e6 77 3d ba 28 60 bc
       0.031851884 0.053687852 0.06052227 -0.013681585
000190 d9 4d 14 3d d4 d8 8f 3c dc 28 f4 bc ac 8a eb bc
       0.036207054 0.017559446 -0.02980464 -0.028752647
0001a0 85 2b 89 3d 20 0e b4 bb fb dc 94 3d 78 b9 60 3d
       0.06697754 -0.005494848 0.07268711 0.054864377
0001b0 4f 81 68 bd 01 7e 92 3c de 3d 6a 3d 7f 24 1e bd
       -0.056763943 0.017882349 0.057187907 -0.038609024
0001c0 44 b3 8f 3c 78 03 9c bc 4e e9 a1 bc e8 bd 7d bd
       0.017541535 -0.019044623 -0.019764569 -0.061948687
0001d0 fc 3f 5f 3d 25 28 28 3d 94 e3 fa 3c 7c 6d cd 3c
       0.05450438 0.04105391 0.030626096 0.02507662
0001e0 f8 08 af bc 5b 0f ab 3d b7 59 f8 bc 96 41 a0 bd
       -0.021366581 0.08352538 -0.030316217 -0.078250095
0001f0 f8 3c 30 bd e6 13 15 bd d8 d7 b0 bc f0 f3 81 3d
       -0.043026894 -0.03639593 -0.021587297 0.063453555
000200 fb 69 82 bd de 5e 35 bd ba 43 08 bc 08 37 30 3d
       -0.063678704 -0.044279926 -0.0083169285 0.043021232
000210 68 31 8f 3d 12 7d 1e 3d f8 8c 8a bc fd a2 25 bd
       0.06991845 0.038693495 -0.016912922 -0.04043864
000220 4e 8e 90 3c 00 4b 55 bd 61 7a 07 3b 13 63 3b bd
       0.017645981 -0.05207348 0.0020672309 -0.04574878
000230 46 9b 37 3d cf 72 69 bd 90 25 c0 3c 50 e2 72 bc
       0.044825815 -0.056994256 0.023455411 -0.014824465
000240 82 e4 05 3d b5 47 ac 3d 8d 58 70 3c ce fa f2 3b
       0.032688625 0.084121145 0.01466955 0.007415152
000250 b2 08 03 3d a1 47 aa bc f8 5b a9 3b e4 b4 85 bc
       0.031990714 -0.020786108 0.005168434 -0.016321607
000260 c9 96 db 3c 62 a6 e0 bc 22 6b 8e bd d7 9d 1a 3d
       0.026805298 -0.027423088 -0.06954028 0.037748184
000270 b8 a4 9c bc 41 bd 11 3d 4b c4 dd bd c1 2b 2f bd
       -0.019121513 0.035580877 -0.108284555 -0.042766336
000280 a4 5d 21 bd 57 08 0b bd 1c d8 0c 3d c6 e2 0c bd
       -0.039395943 -0.0339435 0.034385785 -0.034395956
000290 59 15 5d 3c c4 21 35 bd f1 ee 59 3b 7a 68 c5 3c
       0.013493859 -0.044221655 0.0033253992 0.02409767
0002a0 76 25 25 3d 69 7d 48 bd fc d8 44 bd 8b 66 26 3c
       0.04031893 -0.048947725 -0.048058495 0.010156284
0002b0 9b 81 e2 3c 81 c8 89 3d b7 d3 14 bd e0 05 28 bc
       0.027649691 0.06727696 -0.03633472 -0.010255307
0002c0 29 be 78 3d 36 aa 05 3d ee 24 69 bd c0 68 e4 3c
       0.060728226 0.03263303 -0.056919985 0.02788198
0002d0 fc 71 56 bd 32 43 60 3a b6 9c 7a bd 18 37 3d 3c
       -0.052354798 0.0008554935 -0.061184607 0.01154878
0002e0 40 06 2c bd 29 d8 11 3d d4 79 97 3c 27 0e 90 3d
       -0.041998148 0.035606537 0.01849071 0.07033949
0002f0 e6 19 fb bb ef e9 44 bd 13 ef b2 bc b6 b2 24 3d
       -0.0076629994 -0.04807466 -0.021842515 0.040209495
000300 b2 d9 56 3d e7 6d d6 3c f2 56 61 3d 54 4d c8 bc
       0.052453704 0.026175452 0.055014558 -0.024450935
000310 1a de e5 3c 1a f2 99 3d 2b cf 0a bb 18 98 67 bc
       0.028060008 0.0751688 -0.002118061 -0.014135383
000320 34 6b f4 bc 90 6f 84 3d 36 1a 22 bc 1c f0 ad bc
       -0.029836275 0.06466591 -0.0098939445 -0.021232657
000330 a8 11 3e bd 77 45 21 bd fd 67 81 bd 6d eb 47 3d
       -0.046403557 -0.039372887 -0.06318662 0.048808504
000340 4c c0 b1 bb 9c 53 88 3c 7b d2 f6 3c 0d be 02 bd
       -0.005424535 0.01664143 0.030129662 -0.031919528
000350 83 5e 7f bc 74 6f 11 3d 22 6a 7e 3d 5b a5 38 3d
       -0.015586498 0.03550668 0.062112935 0.04507957
000360 46 b1 c7 3d c7 25 1c 3c 14 dc 55 3d 4e 6b 56 bd
       0.09750609 0.009530491 0.052211836 -0.052348427
000370 d7 c9 46 3b cc 78 1f bd 48 f8 04 bc d8 85 70 bd
       0.0030332708 -0.03893356 -0.0081158355 -0.058721393
000380 c9 bc 9b bc dd 01 fc 3d 6a 8c 26 3d 39 83 f3 bc
       -0.019010918 0.12305043 0.040661253 -0.029725658
000390 b7 83 2c 3d 4a 6e 8c 3c 53 b5 92 3d ac 63 94 bd
       0.0421178 0.017142434 0.07163491 -0.072455734
0003a0 32 c9 2c bd a9 21 b0 bc 2e 79 49 bd 74 18 3a bc
       -0.042184062 -0.021500425 -0.04918783 -0.011358369
0003b0 dd 82 45 bc f0 a4 59 bd 7d 77 83 bc cf 4f 22 bc
       -0.012055126 -0.053135812 -0.016048187 -0.009906723
0003c0 16 5d 4b bd 39 f6 9b 3c cc a3 84 3c b9 01 6c 3d
       -0.04964932 0.019038307 0.016191386 0.05761883
0003d0 ff f1 70 bd 8e ef c6 bb 65 09 7b bd ef 86 38 3d
       -0.058824535 -0.0060710376 -0.061288256 0.045050558
0003e0 b1 a8 0a bd fa b6 9f bc 78 5e 3e bd f0 ed c4 3c
       -0.033852283 -0.01949643 -0.04647681 0.024039239
0003f0 56 fd 80 bd ec 28 74 3c 70 41 03 3c a4 2a 65 3d
       -0.0629832 0.014902335 0.008011207 0.05594887

layer2.bias f4 [256]
000000 4e 11 2c bc 86 83 e2 bc 5a 8c 1c 3c c9 74 df 3a
       -0.010502173 -0.027650606 0.009554947 0.0017048354
000010 40 49 f3 bc d8 5d 5a bd 60 16 ca bc 20 9b c7 bc
       -0.029698014 -0.053312153 -0.024668872 -0.024365962
000020 5a b3 98 3c e8 de 1d ba ac a8 58 3d 9a e6 dc bc
       0.018640209 -0.00060222903 0.052895233 -0.026965428
000030 a7 cf 6a 3d ec b7 af bc 7f d9 4a bd 65 13 2d bd
       0.05732694 -0.021450005 -0.049523827 -0.042254824
000040 98 d4 87 3b b5 c0 21 3d 53 09 48 3d a4 95 81 bd
       0.004145216 0.03949042 0.048837017 -0.0632737
000050 e8 5a 7b 3c 15 08 36 bc b4 01 58 bd 60 cc 47 3d
       0.015341498 -0.011110325 -0.052736 0.04877889
000060 52 81 37 3d 11 90 8a bc 40 76 87 3c ee a4 5f bc
       0.044801064 -0.0169144 0.016535878 -0.013650162
000070 a2 14 43 3d 28 f0 75 3c a6 8f b3 bc a8 97 24 3c
       0.0476271 0.015010871 -0.021919083 0.010045923
000080 c8 76 52 bc 88 82 64 3b b8 bf 41 bd 54 b8 cd 3c
       -0.0128457025 0.0034867842 -0.047301978 0.025112309
000090 d4 8e e0 bc b9 7e d9 3c d4 54 77 3d 5e fa 11 bd
       -0.027411856 0.026549684 0.060383633 -0.03563916
0000a0 84 7d bd bc e5 72 ca 3c 0b 31 40 bd 47 8e 81 3d
       -0.02313114 0.02471299 -0.04692177 0.063259654
0000b0 ed 69 d6 bc 7d 57 28 3d 42 01 b3 bc fc ab e6 bb
       -0.026173556 0.04109906 -0.021851186 -0.007039545
0000c0 7b 1b dd 3c 80 4c 22 3d a2 d5 30 3d 60 a4 c8 bc
       0.026990643 0.039623737 0.043172486 -0.024492443
0000d0 f1 f4 b6 bb 90 40 0b 3c 49 bc 11 3b 89 22 81 3c
       -0.0055833985 0.00849928 0.002223747 0.015763538
0000e0 86 ef 1c 3d 1d 38 6c 3d a3 29 ec bc 80 13 7a 3c
       0.038314365 0.0576707 -0.028828448 0.015263438
0000f0 3c 58 fd bc 6d b5 c9 3b 56 88 27 3c 8a 99 28 bd
       -0.030925862 0.006155661 0.010225376 -0.04116205
000100 da a0 06 bd 64 12 77 3d d2 f3 8c 3d 53 fa 8c 39
       -0.032868244 0.060320273 0.068824425 0.00026889387
000110 81 d9 dd 3c 97 3c 30 3d fb 1d a8 bc 4b ca 76 3d
       0.027081253 0.043026533 -0.020522108 0.060251515
000120 24 4f 43 3d 59 6d 5b 3d 52 a5 31 3d 69 b5 d6 bc
       0.047682896 0.05357108 0.043370552 -0.02620955
000130 fa 26 05 3d c5 c6 4a bd f3 30 10 bd f6 62 55 3d
       0.032507874 -0.049505968 -0.03520293 0.05209633
000140 50 0e d0 bc bb 58 a6 bb c0 3a 63 bc 85 bd 60 3c
       -0.02539745 -0.0050764955 -0.013868988 0.01371706
000150 c3 cc bb bc b4 93 f6 3c 98 2b 41 bb 83 6d 1d bd
       -0.022924786 0.030099727 -0.0029475447 -0.038434517
000160 a0 79 6e bd 8b 3e a7 3c 6d 1f 7a 3b 3e 09 29 bd
       -0.05822146 0.020415565 0.0038165704 -0.04126858
000170 3b 40 4f bd 24 ea 29 3d 73 98 50 3d 0e 07 50 bd
       -0.050598364 0.04148306 0.050926637 -0.050787978
000180 60 50 ca 3b b1 35 84 3a 32 1a 7e 3d d0 42 4e 3a
       0.006174132 0.0010086802 0.0620367 0.0007868232
000190 c0 0f 65 3d 90 2f 7b 3c 5c 5c 04 bd 8d 99 80 bd
       0.055923223 0.015331164 -0.032314643 -0.062792875
0001a0 42 3d eb 3c 10 18 6c bc b1 6d 43 bd bb b4 ab 3c
       0.028715733 -0.014410034 -0.04771203 0.020960202
0001b0 85 a5 8e 3a d8 fc 1a 3d 0d 6f 2d 3d 5c 29 bb 3c
       0.0010883069 0.037838787 0.042342234 0.02284687
0001c0 d7 be ab 3c 4c b8 0a 3d 48 8b 59 bd cc d8 d0 3c
       0.020965023 0.033867165 -0.053111345 0.025494002
0001d0 1f 47 c3 bc 7b 03 1d 3c 03 8d 12 bd 4c be c2 bc
       -0.023837624 0.009583349 -0.03577901 -0.023772381
0001e0 9d 12 cd bc 28 5c ae 3c 5d 1e e7 3c f0 08 a1 3c
       -0.02503329 0.021284178 0.02821272 0.019657582
0001f0 8f 3b 32 3d 59 c4 c0 3c ff 48 db 3b 97 f2 3d 3d
       0.04351383 0.023531126 0.0066920514 0.04637393
000200 74 84 65 3d 13 2d 03 bd a6 18 80 3d 2c 8f 83 3c
       0.05603452 -0.032025408 0.06254701 0.01605948
000210 45 20 82 bc 8e 94 5c 3d 77 87 49 3d fb 82 81 3d
       -0.015884528 0.05385261 0.049201455 0.06323811
000220 6e e9 a0 bb de 9a 5f bc 38 fc 8a 3d 68 b2 7a bc
       -0.0049106395 -0.013647763 0.06786388 -0.015301324
000230 5a 06 7d bd 99 60 89 3d f0 5d 01 bc 83 a9 9f 3c
       -0.061773635 0.06707878 -0.007895932 0.01949001
000240 60 f7 31 bd 72 b2 0b 3d 3a 9a 3c bd 5a f0 0b 3d
       -0.043448806 0.034105726 -0.04604552 0.034164764
000250 0f 26 3c 3d 8c 63 36 bd 5c 7c 66 3d 7c b7 6d 3b
       0.045934733 -0.04452853 0.056270942 0.0036272695
000260 8c a4 8c bc 6c 32 a5 bc c2 ab f4 ba 13 60 06 3d
       -0.017168306 -0.020165645 -0.001866691 0.032806467
000270 36 99 47 3b 7d 8f 8e bc ae c0 ef 3b 16 69 34 3d
       0.003045631 -0.017402405 0.0073166704 0.04404553
000280 f9 88 20 bd a8 f6 c4 3c 85 de f4 3b d4 7b 00 bd
       -0.039193127 0.024043396 0.0074728155 -0.03136809
000290 f7 04 c2 bc 37 1b b5 bc 5e 8e 8c bb 1c 5a 48 3d
       -0.023684008 -0.022107704 -0.0042894324 0.04891406
0002a0 97 6a 74 3c 09 c9 aa b8 a8 93 f7 bc e1 22 58 bd
       0.014917991 -8.1436774e-05 -0.030221775 -0.052767638
0002b0 16 48 69 3d a5 d4 e1 3a 58 e7 5c 3d a8 7b 44 bd
       0.056953512 0.0017229511 0.053931564 -0.04796949
0002c0 2f 36 46 3d a8 29 ec 3c ee ea 48 bd ec 2c 6b 3c
       0.048391517 0.028828457 -0.04905217 0.014353972
0002d0 08 da 65 bd 40 15 cd bc 7e 16 44 bd d0 b6 24 3c
       -0.056116134 -0.025034547 -0.047873013 0.0100533515
0002e0 23 ae 6b 3d a0 08 5e 3d b6 56 40 3d 24 ac dc 3a
       0.057539117 0.054207444 0.046957694 0.001683597
0002f0 80 c0 cd 3b 86 fc 03 3d 48 c7 36 3c ea 9b d8 bc
       0.0062790513 0.032223247 0.011155911 -0.026441533
000300 f0 73 01 bc f1 cb e6 3b e1 c7 2b 3d b8 85 3d b8
       -0.007901177 0.0070433547 0.041938666 -4.5185647e-05
000310 34 47 cd bc c4 fa ef 3c 68 f7 b5 3c 3e 7b b5 bc
       -0.025058366 0.029294379 0.022212699 -0.022153493
000320 b9 d9 a1 bc 38 69 40 3d af 09 03 bd 08 27 a2 ba
       -0.019757139 0.046975344 -0.031991657 -0.0012371251
000330 e9 5d ad bc 22 6f a8 3c db f9 5c 3d 5e 9c 42 3d
       -0.021162944 0.020560805 0.05394922 0.047512405
000340 e9 bf 55 bd 50 c6 ca bc 1a a2 a8 3c 91 c6 64 3d
       -0.052184973 -0.024752766 0.020585109 0.05585343
000350 f8 d5 cb 3b 9a a7 85 bd c7 95 3a 3d 8c 52 3f bc
       0.0062205754 -0.06526108 0.045552995 -0.011677396
000360 d8 c0 47 bc d4 3f 16 bd 46 2b 1c bd a1 1e 37 3c
       -0.012191974 -0.036681965 -0.038127206 0.011176736
000370 85 c1 0b bd a2 ff 4b bc 3c 9e f5 3c cd 7b 7f bd
       -0.0341201 -0.012451084 0.029982679 -0.062373925
000380 fc d9 76 3d d3 29 29 bd 0b db 60 bc 66 0c e5 bb
       0.06026648 -0.041299652 -0.013724099 -0.0069900034
000390 16 0b 75 bd cb 95 8e 3c e7 d0 30 bd cf 55 8b 3c
       -0.059825025 0.017405411 -0.043167975 0.01700869
0003a0 0a 87 57 bc ff 98 8b bc f0 1a 5e 3d 16 22 7e 3b
       -0.013154754 -0.017040728 0.05422491 0.003877764
0003b0 3f b7 74 3d 0a e8 83 3d 8c b8 51 bc 90 86 64 3d
       0.05974507 0.06440742 -0.012800347 0.05579239
0003c0 90 6d 75 3c fe 86 22 3d 8e 69 88 bc 98 0a a5 bb
       0.014979735 0.03967952 -0.016651895 -0.0050366633
0003d0 3c 3d 43 bd 4d a8 b5 bc d7 0c 35 3d 88 e0 53 bd
       -0.04766582 -0.022174979 0.0442017 -0.0517278
0003e0 61 98 5d 3d d6 a4 ac 3c 9b 56 45 bd 83 f4 5f bc
       0.054100398 0.021074694 -0.048178297 -0.013669136
0003f0 b4 e9 33 bd b2 f6 7f 3d 3d 97 f4 bc 0c 0e dd 3c
       -0.04392405 0.062491126 -0.029857272 0.026984237

layer3.weight f4 [256, 256]
000000 84 4b 18 bd c1 ff 5c bd 1a f8 61 3d d4 7e f2 3c
       -0.037181392 -0.053954843 0.05516825 0.029601492
000010 d8 d0 62 3d d8 cc 2a 3d 62 7a 4c bd d6 ee 61 bd
       0.05537495 0.04169926 -0.0499214 -0.055159412
000020 bd b8 2c bd c2 49 5c 3b 9f 10 ba bc a4 8a 4a 3d
       -0.042168368 0.00336133 -0.022713004 0.049448624
000030 07 7d d8 bc 06 c2 87 bd da 62 67 3d a2 9e 6d 3d
       -0.026426805 -0.06628804 0.056490757 0.058012612
000040 ae 80 65 bd fb 32 37 3d 25 76 2a 3b e8 53 1d 3d
       -0.05603092 0.044726353 0.002601036 0.038410097
000050 7c 13 e4 bc 18 66 ac bc 79 af 28 bd 38 13 41 3a
       -0.027841322 -0.021044776 -0.04118297 0.00073652295
000060 76 de 6e bd 59 85 72 3d 64 a5 bb 3c 02 d9 a7 bc
       -0.058317624 0.0592092 0.022906013 -0.02048922
000070 f0 8d 39 bd 34 53 2f 3d 37 4f 15 bd 82 6b 6b bd
       -0.045301378 0.042803958 -0.0364525 -0.057475574
000080 8a 01 03 bc 8e 9b 27 3d 27 f8 2b bd be 2c 40 3d
       -0.007995972 0.040919833 -0.041984703 0.04691767
000090 36 f8 92 3c 93 6e 9a 3c e9 78 c7 bc 23 9f 50 3d
       0.017940622 0.018851554 -0.024349647 0.050933015
0000a0 90 de 48 bd d1 c9 d5 3c 9a a0 00 bd da 2f 49 3d
       -0.049040377 0.02609721 -0.03140316 0.0491179
0000b0 b7 9d 86 3d 4d d2 aa bc cf f8 b0 3c d2 f0 32 3d
       0.065730505 -0.020852232 0.021603016 0.043686695
0000c0 e4 13 83 bd e6 ac 08 bd b0 c4 92 ba 00 c3 46 3d
       -0.06400278 -0.033368014 -0.0011197533 0.04852581
0000d0 55 90 41 bd b4 01 27 bd c9 72 eb bc 56 9a 3a bd
       -0.047256786 -0.04077311 -0.028741257 -0.045557342
0000e0 5e 1a 68 3c 65 8a 86 bd e6 02 11 3d ec db ba bc
       0.014166443 -0.065693654 0.035403155 -0.022809945
0000f0 d2 9c 64 bd dc 92 77 3d f6 e9 bf bb c4 51 d2 bc
       -0.055813618 0.06044279 -0.0058567477 -0.025673755
000100 0e e2 24 bd 54 bf 3e 3d 1f 5c 3f bd dc 08 3a bc
       -0.040254645 0.046569183 -0.046718713 -0.011354651
000110 02 46 0c bd b4 21 49 bb 5d 86 6a bd a7 1e 94 3c
       -0.034246452 -0.0030690255 -0.057257045 0.018081022
000120 c4 d9 e4 3c 8e 2d fe bc ae 9f e7 3c 48 16 0d bd
       0.02793587 -0.031027582 0.028274383 -0.034445077
000130 72 fe 14 3d bd 8e a5 3c 70 e8 0a bc 2a be 4a 3d
       0.03637547 0.020209664 -0.008478269 0.04949776
000140 f8 34 0d bc ce 19 61 3d 70 7b 47 bd 1a eb 59 bb
       -0.008618586 0.05495625 -0.048701704 -0.0033251704
000150 93 6a 41 bd f8 cf 51 bd c8 ea 54 bd a9 d9 7e bd
       -0.047220778 -0.051223725 -0.051981717 -0.062219296
000160 74 1f d8 3c 0b 02 29 3d 65 c7 99 3b 32 69 6a 3d
       0.026382186 0.041261714 0.004692959 0.05722923
000170 e4 5b 10 3c b2 9f 25 bd 50 fc d8 38 96 b7 41 3d
       0.008810971 -0.0404355 0.000103466795 0.04729422
000180 01 9d 12 3d ab 28 81 bc 87 57 92 3c 40 16 4c 3d
       0.03579426 -0.015766462 0.017864002 0.049825907
000190 ed 89 1d bb f0 ae 5b 3c cc a6 60 bd 28 ee ab bc
       -0.002403851 0.013408408 -0.05484657 -0.020987585
0001a0 74 6c 0e 3c 58 b8 03 ba f8 6d 92 3c 40 d3 77 3d
       0.008692849 -0.0005024723 0.017874703 0.060504198
0001b0 ea cd f6 bc 70 e8 da 3b 64 38 1c bd 92 0a 7a 3d
       -0.030127484 0.0066805407 -0.038139716 0.061045237
0001c0 a8 0e 22 3d 72 4a 24 3d 06 ee 02 bd b0 a0 ba 3c
       0.03956476 0.04011006 -0.031965278 0.0227817
0001d0 9a cc 7a bc ce 3c 08 3d 79 d9 0b 3d 80 d8 f1 3a
       -0.01530757 0.033261113 0.034142945 0.0018451363
0001e0 9b aa 5f bd f4 2f 61 bd 2c d6 3d 3d 5c 76 df bc
       -0.05460606 -0.054977372 0.04634683 -0.027278118
0001f0 88 64 17 bc 84 8b 82 3b 74 8a 90 3d 88 a0 2e 3d
       -0.009240277 0.0039839167 0.07057658 0.042633563
000200 99 02 9e bd 0d 50 cb 3c 63 d7 09 3d 2c 41 db bc
       -0.07715339 0.024818445 0.033652674 -0.026764475
000210 1f 0b 78 3c d0 dd 51 bb 4a 58 60 3d a7 93 1d bc
       0.01513937 -0.003202308 0.0547717 -0.009617723
000220 a6 d3 06 3b 39 b1 02 3d a7 46 1e 3d 93 65 4d bd
       0.002057293 0.031907294 0.038641598 -0.050145697
000230 08 47 3c 3c 5d 7c 1d 3d 80 1f 85 bd 5e d3 ba 3c
       0.011491545 0.03844868 -0.06500149 0.022805866
000240 75 06 d9 3c 8f 01 da 3c ff 0a 91 3c ec 7b fd 3c
       0.026492337 0.026612071 0.017705439 0.03094288
000250 8c 2a 12 bd 80 48 cd bc c9 a8 cd bb 7f ae 38 bd
       -0.035685107 -0.025058985 -0.0062762243 -0.045088287
000260 64 3a c6 bc ac 80 1c 3d e5 d4 f9 3a bf fe 32 bd
       -0.024197765 0.03820865 0.001906064 -0.043699976
000270 55 51 0d 3d d0 a7 14 3d 3d 38 55 3d 96 94 2b 3d
       0.034501392 0.03629285 0.052055586 0.04188975
000280 63 63 90 3b 54 8e 9f bc 72 5e 31 3d 5e 49 03 bd
       0.004406379 -0.019477047 0.04330296 -0.03205239
000290 34 30 71 3d e4 c6 19 3d bd 3c 39 3c 00 a1 fb 3c
       0.05888386 0.037543193 0.011305985 0.03071642
0002a0 22 6e 79 bc f7 9d e1 bc f0 82 30 bd 04 03 25 3d
       -0.015224012 -0.027541144 -0.04309362 0.04028608
0002b0 26 50 a2 3c 7b 8f 1c 3d 18 0c c8 3c 5e ff 14 bd
       0.019813608 0.03822277 0.02441983 -0.03637635
0002c0 63 46 51 3c c8 6b 22 bc 12 ef 30 3d 90 72 14 bc
       0.012773129 -0.009913392 0.043196745 -0.009060517
0002d0 b2 04 46 bd 28 80 35 3d 98 9e 68 bc 90 f2 78 3c
       -0.04834432 0.044311672 -0.014197968 0.01519455
0002e0 e4 4f d8 bc a4 be 3f bd 08 bc 1f 3b 17 65 d3 39
       -0.026405282 -0.04681267 0.002437355 0.00040320374
0002f0 f8 6a c0 3b b9 e1 99 bd d0 7c 50 bb fc a6 63 bd
       0.0058721267 -0.07513756 -0.0031812675 -0.05557917
000300 94 53 57 bd 4b 3a 52 3c 41 61 63 3c 8e 29 7a bd
       -0.05256994 0.012831281 0.013878168 -0.061074786
000310 f8 6c 04 bb fd 36 fa 3c e5 31 b0 3c 12 39 10 bd
       -0.0020206552 0.030543799 0.021508167 -0.035210676
000320 eb 93 38 bd b5 d0 20 3d 32 ef 92 bc 42 43 6c bd
       -0.04506294 0.03926154 -0.017936323 -0.05768133
000330 9f af 6f bd 7d d5 99 ba 15 9e 14 3d 70 e6 ec 3c
       -0.058517095 -0.0011736598 0.03628357 0.028918475
000340 4f bd 19 3b 34 1d 98 bc c8 a0 17 bc bf 80 4a bc
       0.0023458784 -0.018568613 -0.009254642 -0.012359797
000350 b0 bc 81 bc b6 69 c4 bb 68 d0 5c bd bb 40 89 bd
       -0.015837044 -0.005994047 -0.05390969 -0.067017995
000360 40 90 49 bc 7e 18 89 bd 09 39 16 bb 9a 26 9f 3d
       -0.012302458 -0.06694125 -0.002292218 0.077710345
000370 26 0e 40 bd 90 30 55 bd f2 b4 42 bd a2 92 79 bd
       -0.046888493 -0.052048266 -0.047535844 -0.060930856
000380 7f e5 5c bd 80 13 62 3c ce 56 14 bc 42 3b c7 3c
       -0.053929802 0.0137985945 -0.009053899 0.024320249
000390 84 00 16 bd 90 21 4b 3b 98 d9 84 3b fb 56 7f 3d
       -0.036621585 0.0030995347 0.0040542595 0.06233881
0003a0 76 bf 78 bd 46 0c 10 bd 5f 0b 66 bd a0 a3 04 3c
       -0.060729466 -0.035167955 -0.056163188 0.008095652
0003b0 11 57 58 bd eb 1d 9c bc 5d a9 de bc 96 6a 1e bd
       -0.052817408 -0.019057235 -0.027180368 -0.038675867
0003c0 4e 7d 27 3d 4d 2f b8 bc 24 e0 4e bd f8 bd e1 3b
       0.040890984 -0.022483492 -0.050506726 0.006889101
0003d0 24 8b 60 3d 62 22 62 bd f0 1a 58 3b 09 2a d8 bc
       0.054820195 -0.05520857 0.003297504 -0.026387231
0003e0 18 a9 bb bc e8 4d ad 3c 3f c5 da 3b 9f 2e f3 3c
       -0.022907779 0.021155313 0.0066763456 0.029685317
0003f0 59 4a 2f bd 36 87 19 bb 4f 6a e2 bb 4c 1c f6 3c
       -0.042795513 -0.002342654 -0.0069096456 0.03004279

layer3.bias f4 [256]
000000 15 b0 5c 3d 95 f4 49 3c cc ac 77 bd 9e b5 fe bc
       0.053878862 0.012326379 -0.060467526 -0.031092461
000010 12 2b 7e bc da bf f9 3b 23 45 5a 3d cb af 40 bd
       -0.015513198 0.0076217474 0.05328859 -0.04704265
000020 8e a6 25 bd 75 ff d5 bc 71 94 a0 bb 09 7b 1d bc
       -0.040442042 -0.026122788 -0.004900508 -0.009611853
000030 f0 e5 95 bc b4 e6 4c 3d cc 73 08 3b a1 3b 4d 3d
       -0.01829812 0.050024703 0.0020820973 0.050105695
000040 20 17 39 bb fa 6c 84 bc 9d 88 18 3d 93 f7 37 3d
       -0.0028242543 -0.016165245 0.03723966 0.04491384
000050 08 63 9e ba 79 a4 1a 3d b3 35 36 3d cb 03 53 3d
       -0.0012083957 0.03775451 0.044484805 0.05151729
000060 78 94 50 3d 9e d6 7d 3d d6 5c 06 bd 00 e9 1a 3d
       0.05092284 0.061972253 -0.03280338 0.037819862
000070 3c 91 00 bd d9 42 5d 3d ca 14 5b 3d d4 16 f6 ba
       -0.031388506 0.05401883 0.053486623 -0.0018775114
000080 1e 69 20 bd b1 ab fc 3b 06 85 e7 bc 7a f2 1e bd
       -0.039162748 0.007710897 -0.028261673 -0.038805462
000090 1d 69 4a 3d 34 ea 28 bd 64 b3 1b bd 31 8f 16 3d
       0.04941665 -0.04123898 -0.038012877 0.03675765
0000a0 36 59 b6 3c a2 90 e5 bc 38 ac ec bb bc 4c 83 bc
       0.022259336 -0.028023068 -0.0072226785 -0.0160278
0000b0 fd e7 75 3d c0 2b 70 bd ea a8 55 bc b2 62 14 bd
       0.060035694 -0.058635473 -0.0130407605 -0.036226936
0000c0 4e aa 81 3d a8 54 4a 3c 1d 8c 31 3c 49 2f 3e 3d
       0.06331311 0.012349285 0.010836628 0.046431813
0000d0 14 4b b9 bc 4c c3 73 bd 68 36 5a bd d1 11 f9 bc
       -0.022618808 -0.05951242 -0.053274542 -0.030404003
0000e0 f8 86 7c bd d0 c4 29 3c 30 62 81 bc 26 8f cb 3b
       -0.061652154 0.010361865 -0.01579389 0.006212133
0000f0 99 86 03 bd 7d a9 42 3d fb 21 6f 3c 18 1b 21 3c
       -0.032110784 0.047524918 0.014595504 0.00983312
000100 04 97 a5 bc 6a 1c 60 bd fc 5a 44 3d 4c e1 a7 3c
       -0.020213611 -0.054714598 0.047938332 0.020493172
000110 5f 63 b8 3c a6 80 69 3d 24 a0 e1 bc c4 fb 50 3d
       0.022508321 0.057007454 -0.027542181 0.051021352
000120 eb 86 6f bd 65 cb ec 3b ab 3b 88 3d 46 67 6f 3c
       -0.058478277 0.007226395 0.06652006 0.014612025
000130 68 23 d8 bc c1 39 0a bc 60 42 36 bd 3a dd fa 3c
       -0.02638407 -0.008436621 -0.044496894 0.030623067
000140 52 1d 53 3c 04 8a 28 3d f9 93 29 bd 59 78 55 bd
       0.0128854085 0.041147247 -0.041400883 -0.052116726
000150 45 78 9d bc 0d e0 0e 3d ad aa 03 3c 12 81 22 bb
       -0.019222388 0.03488164 0.008036298 -0.002479617
000160 07 02 fb bc f6 1b 34 3d 61 0a fc bc bb 67 a5 3c
       -0.030640615 0.043971978 -0.030766668 0.020191064
000170 8d 45 90 3d 9c bf e2 3c db b1 63 3d ec 25 0e 3d
       0.07044516 0.027679257 0.055589538 0.034704134
000180 9e f0 6c bd 40 47 06 bd f4 d0 ee 3c 3c 40 46 3d
       -0.057846658 -0.032782793 0.029152371 0.048401102
000190 11 4b 6c 3d 48 dc 4f 3d 69 5a 63 3c cc 14 45 3c
       0.057688776 0.050747186 0.013876536 0.012028884
0001a0 27 41 5c bd 08 e0 1b 3d 5b 59 ae bb 7c 02 28 bb
       -0.05377307 0.03805545 -0.0053207106 -0.0025636246
0001b0 0b fe 62 3d 2c 86 91 3d 6a 70 9c ba 29 9a 3f bd
       0.055418056 0.071056694 -0.0011935357 -0.046777878
0001c0 ba f3 1b 3d 75 c0 71 bc 0b 48 3e bd 93 7e 55 bc
       0.038074233 -0.014755358 -0.046455424 -0.013030666
0001d0 57 45 10 bd 14 10 8a 3d 1d ea 83 bb 05 b2 0a 3d
       -0.035222378 0.06741348 -0.004025711 0.03386118
0001e0 41 d8 c0 bc e5 2f 3a 3d f1 70 8d bc 36 f4 6b 3d
       -0.023540618 0.045455832 -0.017265769 0.057605945
0001f0 60 3e 2c bc 09 2b 1a bd bc 1e 14 bd 82 7c 17 3c
       -0.010512918 -0.037638698 -0.036162123 0.009245994
000200 bc 55 36 bd 36 16 88 3d 14 bc 2a bd 9c 65 49 3c
       -0.044515356 0.066448614 -0.04168327 0.012292292
000210 96 8d d8 3c 93 e7 9c bc 5e be dc bc 5f 9b 45 3c
       0.026434701 -0.019153392 -0.026946243 0.012060969
000220 81 86 a0 3c 25 0a fd bc ea 32 4b bd b2 5d 28 bd
       0.019595386 -0.030888626 -0.049609102 -0.04110498
000230 9b bc 24 bd a0 09 47 3c 70 9b 5d 3d db 13 1e 3d
       -0.04021893 0.012148291 0.054103315 0.038593154
000240 e0 7d 71 bb 26 51 7c 3d 24 2a 1f 3d ca 44 52 3d
       -0.003684871 0.061600827 0.038858548 0.051335134
000250 dc 51 94 3c 3b 35 93 3c 3a 9c 2d 3d f9 35 39 3d
       0.01810544 0.017969718 0.042385317 0.045217488
000260 9c 8e 82 bd 51 4e 6c 3d bc ec 29 3d aa 0c c9 bc
       -0.06374857 0.057691876 0.041485533 -0.024542172
000270 03 83 d5 bb 26 df 5f 3b 88 23 5b 3d 2c d2 33 bc
       -0.006515862 0.0034160106 0.053500682 -0.010975402
000280 60 ad e1 bc 96 ab 29 bd b8 53 8b bb 8f 7c 2b bd
       -0.027548492 -0.041423403 -0.0042519234 -0.041866835
000290 b5 77 2a bd 55 d0 af 3b 26 96 90 bc 22 ec 20 3d
       -0.041618068 0.0053654113 -0.017649721 0.039287694
0002a0 bf 1f bf bb 13 ec bf bc 1e f6 f8 bc 16 b7 43 3d
       -0.005832642 -0.023427999 -0.030390795 0.047782026
0002b0 fd 9f 36 3d 82 44 28 bd 3c a3 1b 3d bb 73 92 3d
       0.04458617 -0.04108096 0.03799747 0.0715098
0002c0 a3 9c f7 3a 4e f7 f2 bc 74 7d b5 3c bb 77 44 bd
       0.0018891286 -0.02965894 0.022154547 -0.047965746
0002d0 69 30 60 bd 0a 16 5e bd 70 ca 02 bd 9a 64 30 3d
       -0.054733668 -0.054220237 -0.03193134 0.04306469
0002e0 84 0e 1a 3d f8 69 b1 3c 03 9b 64 3b af c3 9e bc
       0.0376115 0.021656975 0.0034882433 -0.019380419
0002f0 02 e4 d6 b9 4a 88 7d 3d 6d 78 b2 3c f0 46 86 3c
       -0.0004098714 0.061897554 0.02178594 0.016391248
000300 1d 0d 90 3c db b7 be 3c 65 6b 86 3c c1 2f d8 3c
       0.017584378 0.023281028 0.016408632 0.026389958
000310 ef 03 4f 3d 71 9a 34 bd 1f 61 38 bc 26 3b 6c 3d
       0.05054086 -0.0440926 -0.011253624 0.057673596
000320 78 a3 0f 3d 60 34 1f 3d 1c 4f 18 bd 32 e2 36 3d
       0.035068005 0.038868308 -0.03718482 0.04464931
000330 8d f7 f5 3c 4e 20 86 bc c6 da 97 3c 0a d6 23 bd
       0.030025268 -0.016372826 0.018536936 -0.039999045
000340 b7 ee 1b bd 5e dc e6 3c 81 fa 34 bd 65 46 5f bd
       -0.038069453 0.028181251 -0.04418421 -0.054510493
000350 48 78 36 bd 12 62 00 bd e7 c2 34 3d 88 e3 ad bc
       -0.044548303 -0.031343527 0.044131186 -0.02122666
000360 84 f2 79 3d 71 05 d2 bc 37 6c 88 3d c0 00 31 bc
       0.061022297 -0.02563736 0.06661265 -0.0108034015
000370 fc bf 5c bd 9b 8a 80 3c a9 8b 1d bd 47 1f db 3c
       -0.053894028 0.015691092 -0.03846327 0.026748313
000380 61 78 26 3d db 14 68 bd 56 4d c7 3c f1 b6 4f bd
       0.040642146 -0.056660514 0.024328869 -0.050711576
000390 70 76 46 3c 06 55 e4 3b f7 ca e5 bb 71 35 45 3c
       0.012113199 0.0069681434 -0.0070127207 0.012036667
0003a0 13 84 3c bd 12 c1 ed bc 70 1d 81 bc 61 a9 13 3d
       -0.046024393 -0.029022727 -0.015761107 0.036050204
0003b0 aa d0 50 bd 51 f5 0f bd 76 2d 23 bd 7b 5a ba 3c
       -0.050980248 -0.03514606 -0.039838277 0.022748223
0003c0 ac 0e 43 3d 5b 01 c8 3b 44 bc 7b 3d 94 f7 25 3d
       0.047621414 0.006103677 0.06145884 0.040519312
0003d0 fc dd 9d bc 48 01 39 bd 70 8c 55 bc 21 d7 f8 bc
       -0.01927089 -0.045167238 -0.013033971 -0.030376019
0003e0 a7 a8 26 bd 48 bc 95 bc ca ea fb 3b 89 3d 0c 3d
       -0.040688183 -0.018278256 0.007687901 0.034238372
0003f0 45 a3 48 bd 89 58 0b 3d 13 7e 7e ba 2e 2c 5e 3d
       -0.04898383 0.03401998 -0.00097081176 0.05424135

layer4.weight f4 [10, 256]
000000 ec e0 3a bd bc 83 b5 3c 74 5c cb bc 12 1d 26 bd
       -0.04562466 0.022157542 -0.024824359 -0.040555067
000010 9b 4d d3 3c 33 ef 0b bd 24 9a c5 3c cb cd 22 3d
       0.025793841 -0.034163665 0.024121352 0.03974704
000020 c4 44 e2 bc b9 50 ac bc eb 04 4f bd 43 a1 39 bd
       -0.02762068 -0.021034585 -0.0505418 -0.045319807
000030 91 53 04 3c 7c 83 c0 bc d9 3e 37 3d 34 c9 c1 3c
       0.008076564 -0.023500197 0.04473767 0.023655511
000040 1b 2e ac bc 12 a6 d2 3c bd 7e d9 bc 81 29 d7 3c
       -0.021018079 0.025713954 -0.026549691 0.026264908
000050 88 51 77 bc 94 28 55 3d 83 4f c7 3c 4a 30 59 3d
       -0.015095122 0.05204065 0.024329906 0.053024568
000060 8c 6d e9 3c 86 86 f0 3b e1 37 e7 bc ed fe 34 3d
       0.028494619 0.007340255 -0.028224887 0.04418843
000070 28 fe 24 bc 05 26 09 3d a1 29 7c bc 3c 51 8e 3c
       -0.010070361 0.033483524 -0.0153907845 0.01737272
000080 56 e0 4f bd 5f e0 a1 bd 70 06 7e 3d 7e c3 39 bc
       -0.050751053 -0.079041235 0.062017858 -0.011338113
000090 ff b1 36 3d e1 82 46 bd 16 15 0c bd e4 a5 30 bd
       0.044603344 -0.04846466 -0.034199797 -0.043126956
0000a0 84 25 48 bd 77 b2 2e bb 4d de 10 bd 36 0c cf 3c
       -0.048863903 -0.0026656666 -0.035368253 0.025274377
0000b0 1d f5 55 3d c2 15 03 bd 72 88 05 3d 3c 96 4b 3d
       0.05223571 -0.03200317 0.032600828 0.04970382
0000c0 fc 04 1f bd 93 96 66 bd e2 4a 39 3d ed e3 dc ba
       -0.038823113 -0.056295943 0.04523743 -0.0016852595
0000d0 33 18 7c 3a 03 eb 4c bd 72 2c 46 3d c0 96 59 3b
       0.0009616643 -0.050028812 0.04838223 0.0033201426
0000e0 da a2 3d bd ff d8 1d 3d ec ca 3d bd 09 61 a7 bb
       -0.046297885 0.03853702 -0.0463361 -0.005108003
0000f0 18 a5 b2 3c 26 6b 1c 3d 48 ff 31 bc 5c a3 1d 3d
       0.021807238 0.038188122 -0.010864086 0.03848587
000100 8f 6c 9f 3c 7a 94 88 bd fb 99 13 3c ba c1 7f bc
       0.019460944 -0.06668945 0.00900888 -0.015610153
000110 d5 fd 11 bd be 96 0b 3d c0 2d ae bc 04 ea a0 bc
       -0.035642464 0.034079306 -0.02126205 -0.019642837
000120 00 8c f2 bc 7b 0b dc 3c 33 f3 0e bd 0a 54 79 bd
       -0.029607773 0.026860943 -0.0348999 -0.06087116
000130 0b ce 27 3d 78 2a 8d 3b f9 63 60 3d 5d e3 4d 3c
       0.040967982 0.004308041 0.05478284 0.012566415
000140 4f fd 33 bd c8 c5 a6 ba e5 a4 b1 3c 37 14 57 bd
       -0.043942746 -0.0012723738 0.021685073 -0.052509513
000150 c7 89 cf bc 94 90 98 3c 3a 55 6c bd bd 3e 2a bd
       -0.025334252 0.018623628 -0.057698466 -0.04156374
000160 ba 96 d5 3c 92 b8 cf bc 8b f5 10 bd 3d 3a 79 3c
       0.026072849 -0.025356565 -0.035390418 0.015211639
000170 99 46 23 bb 10 ee 0f 3c b9 29 28 3d 11 11 3b 3d
       -0.0024913906 0.008784786 0.041055415 0.045670573
000180 78 f9 11 bc 05 83 91 3c 08 7e 66 3d 81 a8 a0 3d
       -0.008909576 0.01776267 0.056272537 0.078446396
000190 7a 16 5b 3d bf 34 91 bc 75 fd 68 3d 50 5c 62 bd
       0.053488232 -0.017725347 0.05688234 -0.055263817
0001a0 20 97 36 bd 64 25 24 bd 0f f5 b1 bc fa c1 49 bd
       -0.044577718 -0.04007472 -0.021723298 -0.049257256
0001b0 01 7b 73 bc 2b ea 1c 3d cd 22 cf 3c 68 f4 5e bd
       -0.014860869 0.038309257 0.025285149 -0.054432303
0001c0 b9 37 5d 3d a8 65 80 3d b4 01 b1 bc e8 6a 84 3d
       0.05400822 0.062693894 -0.021607257 0.06465703
0001d0 bf 7c bc 3c 10 69 4b bc 14 59 f8 bd bd 5b 8d 3d
       0.023008702 -0.012415186 -0.12126365 0.06902263
0001e0 d1 73 22 3d 62 f2 0c bc 2b 65 7b 3d 94 9c 56 bb
       0.039661232 -0.00860271 0.06137578 -0.0032747136
0001f0 d1 f1 d2 bc f8 ae 3d bd f8 71 73 3c cd df 4a bd
       -0.025750073 -0.04630944 0.014858715 -0.04952984
000200 48 8f 19 3c ce a7 62 3d 18 cc 7c 3d 25 c4 d8 bc
       0.00937254 0.055335812 0.061718076 -0.026460717
000210 e4 4f 6d 3c c3 f9 c1 bc 7a 2c 7c 3d 55 62 02 bc
       0.014484379 -0.023678666 0.061565854 -0.0079580145
000220 e2 82 74 3d db 24 80 bd a0 86 b4 3b 23 54 65 bd
       0.059695132 -0.062570296 0.0055092126 -0.055988442
000230 d6 f9 e9 3c e8 f2 a9 3c 9a e2 20 3d 3b 8b 56 bd
       0.028561514 0.02074571 0.039278604 -0.052378874
000240 91 6e 9f bc f3 39 0b bd a2 ce 1f 3d 88 e7 60 3c
       -0.019461902 -0.03399081 0.03901542 0.013727076
000250 88 8c 0c 3c 84 a7 0a ba e6 45 3b 3d b0 49 15 bd
       0.008578427 -0.0005289244 0.045720957 -0.036447227
000260 58 00 37 bd 63 a5 66 3d 77 b8 5e bd 92 11 72 bd
       -0.044678062 0.05631007 -0.054375138 -0.059098788
000270 82 6f 3f 3b 34 d8 0c 3c b1 c4 b5 3b aa e8 27 3d
       0.002921075 0.008596469 0.005547129 0.04099337
000280 60 84 6a 3d b8 56 84 bb c8 eb 55 3d 6f 21 08 bd
       0.05725515 -0.004038658 0.05222681 -0.03323501
000290 0c 20 68 3d 54 92 78 3d 46 6a fe 3d 91 e1 5b 3d
       0.056671187 0.060686424 0.12422614 0.053681914
0002a0 09 40 79 bd f7 81 0a bd 57 fb 6f bd dc 88 41 3d
       -0.060852084 -0.03381535 -0.058589306 0.04724966
0002b0 86 ec 43 3c b1 a9 4c bd 6c 35 fa bc a3 c5 29 3d
       0.011958247 -0.049966518 -0.030543052 0.041448247
0002c0 5c d3 6d 3d e2 65 33 bd 52 5c 7d bd e6 50 87 bd
       0.058062896 -0.043798335 -0.06185562 -0.06607227
0002d0 3b be 3a 3d 17 67 4d bd 76 88 d1 bc 00 e9 14 3d
       0.045591574 -0.050147142 -0.025577765 0.03635502
0002e0 30 77 95 3b 45 27 4d 3b c8 5a 5d bd 47 40 2f 3d
       0.0045613274 0.0031303924 -0.054041654 0.04278591
0002f0 17 14 8d bc 59 b7 27 3d 62 ab 5e 3d 48 39 63 3d
       -0.017221494 0.04094634 0.054362662 0.05547455
000300 64 c7 4d bd b4 7a 0b ba 5c f3 1a 3d 0f b1 15 bd
       -0.05023898 -0.00053207134 0.03782974 -0.03654581
000310 13 fa 7e bc ed e6 87 3c 8b 94 2e bc 49 a2 1a bd
       -0.015562552 0.016589606 -0.010655533 -0.037752423
000320 79 34 0d 3d bc f3 21 bd e4 2e 22 bd 04 67 2b bd
       0.03447387 -0.039539084 -0.0395955 -0.04184629
000330 c6 35 65 bd a1 51 da bc 86 ff da bb 6f f4 cc bc
       -0.055959485 -0.026650252 -0.006683293 -0.025018899
000340 9a 7d 3d bd 1b d6 46 bd 6b cf a6 bd eb 13 db 3c
       -0.04626236 -0.04854403 -0.081450306 0.026742896
000350 44 f9 3a bd 2e 20 bf 3c d5 33 9c bb 3a 9f 22 3d
       -0.045647874 0.023330774 -0.004766921 0.03970263
000360 26 ba ad 3c 46 2d 40 bd 92 95 a6 bd 70 ae 4a 3d
       0.021206927 -0.046918176 -0.08133997 0.049482763
000370 40 04 37 bc b8 76 5d 3d 79 b7 a4 3c 44 d6 92 bc
       -0.011170447 0.054068297 0.020107018 -0.017924435
000380 6c 60 4d bd 94 22 56 bd f9 fc 33 bd 86 e2 7b bd
       -0.050140783 -0.05227907 -0.043942425 -0.061495326
000390 de 64 2a bc b9 42 ce 3c 0d 64 7f bc 10 99 74 bd
       -0.010400025 0.0251783 -0.015587819 -0.059716284
0003a0 c6 5c 9e 3c db f6 98 3c bb 1b 35 3c 36 be 20 3d
       0.019331347 0.018672397 0.011053975 0.0392439
0003b0 c8 cd 48 3d db f7 54 bd 95 dd 58 bd 04 bd 2c 3d
       0.049024373 -0.051994186 -0.052945692 0.042172447
0003c0 78 f5 40 3c 33 91 67 3c 9e 04 50 bb cd d0 fd bc
       0.011777274 0.014133739 -0.0031741033 -0.030983353
0003d0 a3 bd a3 bc c4 b2 c2 3c 72 a6 10 bd 3b d5 98 3c
       -0.019987887 0.023766883 -0.035314985 0.018656364
0003e0 88 2b 87 bd 78 d9 37 3c 41 ea 8a bc 55 4a e8 b9
       -0.066001 0.011221282 -0.016957404 -0.0004430587
0003f0 61 58 07 3d a4 de 42 3d ce 69 04 bd 32 35 59 3d
       0.03304327 0.047575608 -0.032327466 0.053029247

layer4.bias f4 [10]
000000 e4 10 61 3d 2a 47 3e 3d a9 84 13 bd 80 22 1c bd
       0.05494775 0.046454586 -0.036015186 -0.03811884
000010 2c 09 27 3c 2b 2a 26 bd 7f d6 3a bd c4 6f d7 bc
       0.010195058 -0.04056756 -0.045614716 -0.026298411
000020 7e 4b e9 3c fc 33 ba 3c
       0.02847838 0.022729866
