policy_net.pth (torch, 678637 bytes, 8 tensors)

layer1.weight f4 [256, 135]
0.074495025 0.06549657 0.03322757 0.037359964 0.015667632 0.03263944 0.07308288 -0.038367126
0.011523178 0.04315094 0.038217496 -0.04714594 0.086801656 0.013560874 0.05089935 -0.0709054
-0.0030748635 -0.022153106 -0.08162411 0.03219199 -0.022400739 -0.0021710247 -0.007543401 -0.031180428
0.01989549 -0.05115305 -0.071771674 -0.03202334 0.085840195 -0.062394187 0.055448342 -0.05742183
-0.031206334 0.02660401 0.0390684 -0.054093044 0.03920707 0.07118247 -0.06590098 0.037173864
0.08188655 0.035736185 -0.069476254 -0.081517786 -0.0640783 0.001987366 0.034632977 0.08189606
0.06036943 0.015879847 -0.07581482 -0.056492407 -0.08173866 0.027364653 -0.042559236 -0.05202218
-0.008083095 -0.07741364 -0.07888211 -0.08209693 -0.074171044 -0.079745784 0.013497395 -0.04244257
0.043594934 -0.011667796 0.051717464 -0.028896049 -0.0022403132 0.045976955 -0.042698372 -0.01670546
-0.029313678 0.0052144416 -0.04695181 0.0077438136 -0.034104418 0.08171388 0.050161466 0.012683515
-0.04199216 -0.048908867 -0.069523476 -0.06714001 -0.021959275 -0.01336968 -0.03789756 0.08657896
-0.06395291 0.08169545 0.028879203 -0.05876859 0.07188996 0.05579709 -0.04025802 0.06630303
-0.030735036 -0.0039546895 0.054042615 -0.0007942758 -0.052239086 0.024054317 -0.029522683 -0.0661925
0.060582187 -0.014070211 -0.06287134 -0.082881026 -0.035421785 -0.04182249 -0.060882494 0.083138414
0.051207162 -0.066276774 0.038221464 0.06729686 0.034807593 0.049305473 0.068913214 0.044626452
-0.08398386 -0.06964791 -0.069346994 -0.076604575 0.07607913 0.0012581964 0.027679322 -0.015999751
0.02821554 0.05335242 0.081298694 -0.04553118 0.007632268 0.011417935 0.065717794 0.06733079
0.01715473 0.0716125 0.009337094 -0.080486104 -0.055409398 -0.037299875 -0.06949918 0.033215553
0.027700601 -0.021175675 -0.01191877 0.03550833 0.029833116 -0.042193584 0.0094327675 0.0027574087
-0.023751512 -0.013493763 -0.08246036 -0.03053408 0.044346493 -0.06626281 0.05115074 0.06582702
-0.081353895 0.0612325 0.029996198 0.004313927 -0.019891653 -0.06996286 0.028556127 0.05747054
0.033021793 -0.0844485 0.046749968 -0.020717576 0.0549136 0.034862235 0.016289903 -0.05491993
0.011649232 -0.0635837 0.017328113 -0.07523253 0.017536467 -0.020616967 0.0047068573 0.07669866
-0.021665514 0.003005086 -0.018804785 -0.02599073 0.0064477324 0.05492356 -0.05268728 0.040211625
-0.005748893 -0.07250929 -0.060743924 -0.016895657 -0.056860775 0.022901103 -0.083180815 0.07456732
0.04530967 0.04446483 0.0036189763 -0.05014458 0.030642105 -0.08278224 -0.031472456 -0.044999994
-0.05116823 -0.058717366 0.031101031 -0.08451992 0.009112525 0.008154175 -0.039747294 0.0026958901
0.012344023 -0.06352237 0.068762995 -0.0062695895 -0.01831821 0.062951535 0.005821369 0.07006016
-0.02048642 -0.06305902 -0.035935514 0.04242045 0.063672684 -0.029825894 0.05966017 0.031542305
-0.052840617 -0.074870326 -0.06596212 0.002968889 -0.069190726 0.04429784 0.03743025 -0.0607793
-0.06794558 -0.078868054 -0.04445766 -0.035085306 -0.06610528 -0.032886494 0.0365748 0.004027717
0.07716104 0.029646765 0.06606231 -0.07620605 -0.08271204 -0.048665643 0.018269792 0.015615825
00000000: d990 983d 1123 863d a219 083d c306 193d
00000010: 6859 803c efb0 053d 7aac 953d d926 1dbd
00000020: b6cb 3c3c 0abf 303d f389 1c3d 1a1c 41bd
00000030: 11c5 b13d 6e2e 5e3c d67b 503d da36 91bd
00000040: a683 49bb 6e7a b5bc 8b2a a7bd c0db 033d
00000050: c181 b7bc c047 0ebb a22e f7bb 196e ffbc
00000060: defb a23c dc85 51bd 07fd 92bd e82a 03bd
00000070: fccc af3d 0c91 7fbd cd1d 633d 2733 6bbd
00000080: 6da4 ffbc a7f0 d93c 3006 203d ab90 5dbd
00000090: 9897 203d 1dc8 913d 18f7 86bd 9f43 183d
000000a0: 23b4 a73d 1b60 123d 9149 8ebd ccf2 a6bd
000000b0: 7c3b 83bd 783e 023b 4fdb 0d3d 1fb9 a73d
000000c0: ef45 773d 7416 823c cd44 9bbd 9564 67bd
000000d0: 9966 a7bd d62b e03c 9852 2ebd 3615 55bd
000000e0: f56e 04bc 0b8b 9ebd f28c a1bd 6f22 a8bd
000000f0: fde6 97bd c251 a3bd 2e24 5d3c 43d8 2dbd
00000100: 9a90 323d 492a 3fbc b1d5 533d 68b7 ecbc
00000110: 38d2 12bb 5552 3c3d 7de4 2ebd e4d9 88bc
00000120: 3d23 f0bc e8dd aa3b 8b50 40bd d1bf fd3b
00000130: 13b1 0bbd 9b59 a73d 1c76 4d3d 85ce 4f3c
00000140: f9ff 2bbd aa54 48bd 5362 8ebd b480 89bd
00000150: f0e3 b3bc 810c 5bbc 793a 1bbd 4f50 b13d
00000160: bef9 82bd f24f a73d 1494 ec3c 55b7 70bd
00000170: 0b3b 933d 7d8b 643d 98e5 24bd e2c9 873d
00000180: 0bc8 fbbc 5796 81bb ca5b 5d3d f236 50ba
00000190: a7f8 55bd 8f0d c53c 8ed9 f1bc ef8f 87bd
000001a0: 0725 783d be86 66bc b0c2 80bd 87bd a9bd
000001b0: 6f16 11bd 0f4e 2bbd ec5f 79bd 7944 aa3d
000001c0: 9abe 513d 1ebc 87bd 1c8e 1c3d f0d2 893d
000001d0: 6892 0e3d 89f4 493d 5f22 8d3d 3aca 363d
000001e0: bbff abbd 90a3 8ebd cc05 8ebd dce2 9cbd
000001f0: 60cf 9b3d 11ea a43a bfbf e23c e911 83bc
00000200: 4724 e73c 1188 5a3d ee7f a63d e77e 3abd
00000210: 1b18 fa3b 4a12 3b3c 0d97 863d bae4 893d
00000220: 1488 8c3c 93a9 923d 9cfa 183c e6d5 a4bd
00000230: f7f4 62bd c1c7 18bd 9655 8ebd 080d 083d
00000240: 5fec e23c 9c78 adbc f246 43bc 2f71 113d
00000250: 9464 f43c 2ed3 2cbd e58b 1a3c a4b5 343b
00000260: 8892 c2bc f214 5dbc fae0 a8bd 9b22 fabc
00000270: aba4 353d ccb4 87bd 7083 513d 51d0 863d
00000280: df9c a6bd eece 7a3d 96ba f53c d85b 8d3b
00000290: d2f3 a2bc b048 8fbd 8aee e93c 3b66 6b3d
000002a0: dc41 073d 56f3 acbd e57c 3f3d e8b7 a9bc
000002b0: 15ed 603d b4cb 0e3d 6772 853c b8f3 60bd
000002c0: 6cdc 3e3c 2c38 82bd b0f3 8d3c 8313 9abd
000002d0: a3a8 8f3c eae4 a8bc fb3b 9a3b 3014 9d3d
000002e0: e07b b1bc faf0 443b 7e0c 9abc 83ea d4bc
000002f0: 8047 d33b 87f7 603d 9ece 57bd f2b4 243d
00000300: 3661 bcbb c07f 94bd 9fce 78bd c368 8abc
00000310: d8e6 68bd 189b bb3c b45a aabd c0b6 983d
00000320: a296 393d c120 363d 592c 6d3b 6764 4dbd
00000330: 2705 fb3c bc89 a9bd 43e9 00bd ea51 38bd
00000340: c795 51bd 9f81 70bd 97c7 fe3c c818 adbd
00000350: b34c 153c 1799 053c 0fce 22bd 88ad 303b
00000360: 963e 4a3c 0418 82bd 9dd3 8c3d 2171 cdbb
00000370: 1210 96bc bcec 803d 2fc1 be3b b37b 8f3d
00000380: 23d3 a7bc 1625 81bd 1e31 13bd 11c1 2d3d
00000390: d366 823d 6f55 f4bc 395e 743d 8132 013d
000003a0: 676f 58bd 9d55 99bd 2617 87bd b191 423b
000003b0: deb3 8dbd a771 353d 7650 193d b7f3 78bd
000003c0: 0d27 8bbd 9385 a1bd 3c19 36bd 9cb5 0fbd
000003d0: 3462 87bd fdb3 06bd 75cf 153d f0fa 833b
000003e0: 9b06 9e3d c6dd f23c ad4b 873d eb11 9cbd
000003f0: ee64 a9bd a055 47bd 88aa 953c 84d9 7f3c

layer1.bias f4 [256]
0.0013822692 0.056303263 -0.0668761 0.04930449 -0.022183454 -0.0009195876 -0.0017219661 0.017684795
0.050191063 0.07669501 0.063263975 0.017500455 -0.05248465 0.08062976 0.040484954 0.07726746
0.014531538 0.03188123 -0.037937395 -0.07890339 0.0059211147 0.08014099 0.03839266 0.059697952
0.038242765 -0.05876255 -0.05700792 -0.015161951 -0.03501001 0.033101596 -0.05730343 -0.006211582
0.053469785 0.057004426 0.07284844 0.026841579 0.015536721 0.07576259 0.05743937 -0.037008785
-0.029004293 0.004217285 -0.054679323 0.06923411 -0.085718505 -0.052051865 0.02358134 0.0786629
-0.0691995 -0.0016998082 0.038073678 -0.052059323 -0.06932991 0.053864043 -0.015715964 -0.06619052
0.041065432 -0.06332195 0.0029491782 0.03218913 -0.048651136 -0.052810706 0.07808804 0.0057329116
-0.043345302 -0.075197235 0.06577047 -0.08020622 -0.07663375 0.0090699475 -0.050806034 -0.0060479282
-0.045068793 0.035214614 0.01422788 0.048568994 0.020209545 -0.044050913 0.065116264 0.05618485
-0.028251411 0.07778499 -0.0847778 0.0016096917 -0.060218748 -0.012549775 -0.053056493 -0.027114479
0.0038133126 0.043627467 0.018702853 0.06217834 -0.072218634 0.009814807 -0.056364983 -0.07336345
-0.057664648 -0.07794224 0.039260812 -0.060361914 0.039960507 -0.01570353 0.05206445 0.038444873
0.04418211 0.0044411733 -0.03686931 -0.060614467 0.08552434 -0.037314527 -0.05311295 -0.03169899
-0.014738477 0.00215189 -0.041395813 -0.0842852 0.03865645 -0.05522356 -0.0691846 -0.049016558
0.06767189 0.06518286 0.05121206 -0.05503871 -0.026362924 0.039732996 0.07197318 -0.07351273
-0.060113862 0.083218254 -0.02062971 0.011733989 -0.053782433 0.012809917 -0.061888155 -0.016892865
0.013861693 0.058806676 0.01161096 0.022186778 0.030403934 0.06548321 0.06417471 -0.051520694
-0.06340782 0.083038196 0.023892958 -0.025307821 0.0144261345 -0.06637789 -0.022674885 0.013370357
0.0743012 0.053854533 -0.0051378924 0.07596053 0.06301572 0.045997374 0.022885002 -0.04404126
-0.07690365 -0.057600338 0.08284427 0.08511626 -0.08504418 0.047491644 -0.06881443 -0.0663391
-0.02172029 0.07385025 0.072804935 -0.07752103 -0.0424345 -0.018565463 -0.04080727 0.047858056
0.0640694 0.026126428 0.0004120357 -0.016874978 -0.038497042 -0.046516802 -0.042953894 -0.0075454097
-0.018507212 0.046069972 -0.08209649 -0.021230577 -0.07204302 0.0044056824 -0.058812328 -0.053219743
-0.010258189 0.051601816 0.060743984 -0.06446816 -0.012280779 -0.03587395 0.057771403 -0.004898493
0.080731705 0.020301342 -0.014680649 -0.035806023 -0.076793104 -0.011996982 -0.053420905 -0.05521211
-0.036939036 -0.011630797 -0.007718051 -0.0026782125 0.06476836 -0.001629911 -0.06349906 -0.07349392
0.0345551 -0.0682485 -0.028325614 0.05203315 0.08143509 -0.08835045 0.06675276 -0.079585165
0.016201483 0.085295744 0.033381894 0.07667403 0.08422761 0.08086686 0.080351755 -0.035967782
-0.008898534 -0.041199885 -0.018455371 0.06368465 -0.06988819 0.009994315 0.07519864 -0.08106961
-0.056216482 -0.07037054 0.029124828 0.027823841 -0.08465236 -0.06701379 -0.004921942 -0.016134126
0.026078483 -0.0665317 0.04993805 -0.00763578 -0.07252406 0.05559958 -0.06308883 0.011836363
00000000: 422d b53a 409e 663d 56f6 88bd 81f3 493d
00000010: 13ba b5bc 7b10 71ba 98b3 e1ba b4df 903c
00000020: 2595 4d3d 4612 9d3d 8b90 813d 1d5d 8f3c
00000030: 25fa 56bd 3721 a53d 8dd3 253d 673e 9e3d
00000040: b015 6e3c e595 023d 3e64 1bbd 1a98 a1bd
00000050: e905 c23b f620 a43d 9f41 1d3d d785 743d
00000060: 72a4 1c3d 00b1 70bd 2381 69bd d569 78bc
00000070: a866 0fbd 8a95 073d 00b7 6abd 878a cbbb
00000080: 2203 5b3d 797d 693d 9031 953d dfe2 db3c
00000090: bb8d 7e3c 6b29 9b3d 8b45 6b3d 8696 17bd
000000a0: 699a edbc 2731 8a3b 6df7 5fbd 9dca 8d3d
000000b0: 2f8d afbd 5634 55bd a82d c13c 041a a13d
000000c0: 78b8 8dbd 19cc deba 25f3 1b3d 283c 55bd
000000d0: d7fc 8dbd 8ba0 5c3d c4be 80bc e58e 87bd
000000e0: 3a34 283d f0ae 81bd 0047 413b c0d8 033d
000000f0: 6a46 47bd 0a50 58bd 9fec 9f3d 26db bb3b
00000100: d88a 31bd 0201 9abd abb2 863d 2943 a4bd
00000110: 28f2 9cbd 1e9a 143c fd19 50bd b32d c6bb
00000120: 0e9a 38bd 333d 103d 0e1c 693c 48f0 463d
00000130: 7d8e a53c bb6e 34bd ad5b 853d 1622 663d
00000140: 816f e7bc bd4d 9f3d fc9f adbd 4afc d23a
00000150: efa7 76bd 929d 4dbc c451 59bd 2f1f debc
00000160: c5e8 793b b7b2 323d ba36 993c b7ae 7e3d
00000170: 5de7 93bd 49ce 203c f8de 66bd 943f 96bd
00000180: c431 6cbd 2ea0 9fbd f2cf 203d 0e3e 77bd
00000190: a1ad 233d b0a4 80bc 8841 553d 5f78 1d3d
000001a0: 4df8 343d 4387 913b 4604 17bd e046 78bd
000001b0: 6327 af3d 1ed7 18bd f78c 59bd cdd6 01bd
000001c0: a779 71bc b906 0d3b a88e 29bd b89d acbd
000001d0: 3a56 1e3d 1a32 62bd a8b0 8dbd 96c5 48bd
000001e0: 8f97 8a3d 977e 853d bdc3 513d 4570 61bd
000001f0: 0ff7 d7bc 11bf 223d ad66 933d d88d 96bd
00000200: f439 76bd 556e aa3d a3ff a8bc eb3f 403c
00000210: f84a 5cbd b0e0 513c 6f7e 7dbd e862 8abc
00000220: 281c 633c 45df 703d e53b 3e3c 0cc1 b53c
00000230: ac11 f93c 101c 863d 086e 833d 5d07 53bd
00000240: f6db 81bd ee0f aa3d 2abb c33c 5952 cfbc
00000250: 985b 6c3c 22f1 87bd aec0 b9bc 580f 5b3c
00000260: 3a2b 983d 9296 5c3d c45b a8bb 3291 9b3d
00000270: 630e 813d be67 3c3d 5479 bb3c 9c64 34bd
00000280: a97f 9dbd 55ee 6bbd 42aa a93d 6f51 ae3d
00000290: a52b aebd 9986 423d 94ee 8cbd cbdc 87bd
000002a0: c0ee b1bc cd3e 973d c11a 953d 59c3 9ebd
000002b0: cccf 2dbd 9916 98bc 8625 27bd cf06 443d
000002c0: d136 833d 1707 d63c 7f06 d839 653d 8abc
000002d0: 13af 1dbd 6788 3ebd 6cf0 2fbd 7c3f f7bb
000002e0: 709c 97bc deb3 3c3d 3422 a8bd bfeb adbc
000002f0: 4a8b 93bd 8b5d 903b 32e5 70bd f2fc 59bd
00000300: f711 28bc 6d5c 533d afce 783d e207 84bd
00000310: 5235 49bc 90f0 12bd b5a1 6c3d 8a83 a0bb
00000320: aa56 a53d 004f a63c 1b87 70bc 56a9 12bd
00000330: b445 9dbd fd8e 44bc e1cf 5abd 1826 62bd
00000340: 634d 17bd 198f 3ebc b4e7 fcbb f384 2fbb
00000350: 46a5 843d bda2 d5ba cc0b 82bd fb83 96bd
00000360: a689 0d3d dfc5 8bbd 1e0b e8bc b620 553d
00000370: 71c7 a63d 15f1 b4bd acb5 883d 8cfd a2bd
00000380: f9b8 843c 89af ae3d 74bb 083d 4607 9d3d
00000390: 867f ac3d 869d a53d 768f a43d f452 13bd
000003a0: 28cb 11bc 36c1 28bd b82f 97bc 196d 823d
000003b0: 8a21 8fbd 32bf 233c bf01 9a3d d307 a6bd
000003c0: 4143 66bd 6e1e 90bd 3197 ee3c d3ee e33c
000003d0: 375e adbd 873e 89bd 3e48 a1bb b72b 84bc
000003e0: 8ba2 d53c c641 88bd d78b 4c3d 9135 fabb
000003f0: 7f87 94bd 63bc 633d b734 81bd 4eed 413c

layer2.weight f4 [256, 256]
-0.044901945 0.014303148 0.025563464 0.021357156 -0.011321925 0.053280562 0.03867168 -0.045144312
-0.0057627084 0.009369466 0.016926613 0.05964239 0.053900674 0.05475705 -0.0510471 0.05414352
-0.017006133 -0.021626875 0.054639526 -0.016382102 -0.044377074 -0.03451045 -0.02346671 -0.05752416
-0.02654028 -0.00073516334 -0.042598203 -0.06163489 -0.005827886 -0.008773562 0.051029235 0.045719214
0.0038805013 -0.015797365 0.028827146 0.02631639 0.014373876 0.040097162 0.055145808 -0.00016767008
0.047168233 -0.025879748 -0.047094412 -0.057683587 -0.034695923 -0.0024135537 0.0034109498 -0.019587029
0.04064066 0.010114847 0.040604986 -0.020178568 -0.05881931 0.050429203 -0.04347354 0.0074228942
-0.012845483 0.03321076 -0.06049285 0.048983604 -0.0065232795 -0.02014396 0.016845878 0.04008495
-0.047792807 -0.038108103 -0.0077450583 0.052630864 0.050676823 -0.037380517 -0.04718872 0.05799476
-0.05732687 0.04121889 0.007983597 0.021792807 -0.038399726 -0.039569095 -0.00612275 -0.057320215
-0.05713872 0.049994484 -0.03889346 0.012486238 0.0074968934 0.014341213 0.04874359 0.045117356
0.044324428 -0.010906421 0.015628073 -0.043011583 -0.01007068 -0.032856345 0.022506222 -0.041575313
-0.059366092 -0.028751247 -0.012664404 0.026921969 -0.029837444 -0.058635384 -0.058624804 0.0074005947
-0.022790544 0.009225395 -0.05610533 0.053033754 -0.06204074 0.05266206 -0.056463845 -0.036439568
0.0028599557 -0.00012519563 0.059820168 0.02686565 -0.0036417544 -0.01488737 -0.0061120214 -0.048132442
0.04316455 0.016251262 -0.03373581 0.009446841 0.03936609 0.043121777 0.035112448 -0.033938825
-0.026070058 -0.040483907 0.051661514 -0.042673744 -0.047428593 0.00785085 -0.016805958 -0.049128346
-0.010082735 -0.0344247 0.02287265 -0.023785163 0.052310444 0.048068084 -0.031199422 0.057577066
0.05110585 0.0065714177 -0.05957569 -0.060123473 0.017748594 0.03418068 0.004285344 -0.009330522
0.002212529 -0.02686118 0.035057858 -0.018912748 -0.03963691 0.027171973 0.03996534 -0.008024165
0.05097925 -0.0027604084 0.018719032 0.03062449 -0.0034037824 -0.030888785 -0.029504724 0.045452215
-0.011375301 -0.013283584 9.207889e-05 -0.008472526 0.025056154 0.023245823 0.017978162 0.04342226
0.015798438 0.018377565 0.0131365545 0.013273347 0.026413806 0.05817312 0.018726975 -0.011694441
0.0049237786 0.04073499 -0.027903955 -0.042755395 0.04722777 -0.05098173 0.019105747 0.015592167
-0.034701027 -0.018560044 -0.0012966755 -0.018778846 -0.0409004 0.05949509 -0.011884259 -0.054231293
-0.062026903 -0.04074143 -0.043658286 -0.037773497 -0.010486713 -0.03933361 0.05090007 0.051103756
-0.028910086 0.054298483 0.022801757 -0.03770481 -0.029620014 -0.036410145 0.0051253242 0.031047877
-0.0055701323 0.032742552 0.044442445 -0.024407227 -0.040191427 0.021474004 0.02049261 -0.012893949
-0.008239994 0.03645263 -0.009745916 0.046195693 -0.0434561 -0.02892676 -0.04167542 -0.017661989
0.051560976 0.025906213 0.015714977 0.030154258 0.006919748 -0.037986316 0.027859483 -0.031399332
-0.0623741 -0.04160154 0.009242978 -0.013492307 -0.055539817 -0.0034373025 -0.0065368246 -0.011679733
0.03683673 -0.01688515 -0.018777527 0.009142999 0.010095408 0.041739717 0.056610458 -0.02712461
00000000: 1aeb 37bd c057 6a3c 786a d13c 34f5 ae3c
00000010: 987f 39bc b83c 5a3d 3266 1e3d 3ee9 38bd
00000020: 1ad5 bcbb 6482 193c aea9 8a3c 944b 743d
00000030: f4c6 5c3d ee48 603d c416 51bd 98c5 5d3d
00000040: 7250 8bbc d82a b1bc b2cd 5f3d c233 86bc
00000050: bcc4 35bd d45a 0dbd 423d c0bc 749e 6bbd
00000060: 006b d9bc fab7 40ba 747b 2ebd de74 7cbd
00000070: daf7 bebb fcbe 0fbc 0804 513d 1244 3b3d
00000080: 0250 7e3b 7a69 81bc e826 ec3c 7895 d73c
00000090: 6880 6b3c ec3c 243d 92e0 613d 98d0 2fb9
000000a0: 7a33 413d c401 d4bc 12e6 40bd a045 6cbd
000000b0: 501d 0ebd b62c 1ebb 3e8a 5f3b fa74 a0bc
000000c0: d276 263d beb8 253c 6a51 263d 864d a5bc
000000d0: 84ec 70bd da8e 4e3d 5011 32bd c03b f33b
000000e0: dc75 52bc 0208 083d 5ac7 77bd 08a3 483d
000000f0: 3cc1 d5bb f204 a5bc 5e00 8a3c 1e30 243d
00000100: 64c2 43bd 3e17 1cbd 42ca fdbb 7693 573d
00000110: 8092 4f3d 501c 19bd f648 41bd ea8b 6d3d
00000120: 94cf 6abd 24d5 283d a2cd 023c d486 b23c
00000130: 0849 1dbd 3413 22bd 5aa1 c8bb 9ac8 6abd
00000140: 4a0a 6abd 04c7 4c3d c04e 1fbd 1493 4c3c
00000150: 80a8 f53b 68f7 6a3c 5ca7 473d facc 383d
00000160: 888d 353d d8b0 32bc 7206 803c ea2c 30bd
00000170: 7eff 24bc 6094 06bd f85e b83c e04a 2abd
00000180: dc29 73bd bc87 ebbc 5c7e 4fbc 768b dc3c
00000190: a86d f4bc a82b 70bd 9020 70bd b080 f23b
000001a0: 3cb3 babc 1c26 173c b4ce 65bd ec39 593d
000001b0: 6e1e 7ebd 2cb4 573d a246 67bd a841 15bd
000001c0: 186e 3b3b f246 03b9 fe05 753d 5a15 dc3c
000001d0: 80aa 6ebb 28ea 73bc 5a47 c8bb 8626 45bd
000001e0: 50cd 303d 5e21 853c 902e 0abd ecc6 1a3c
000001f0: 563e 213d 76a0 303d 12d2 0f3d 7003 0bbd
00000200: e090 d5bc 74d2 25bd 069b 533d aaca 2ebd
00000210: 7c44 42bd daa0 003c a6ac 89bc ce3a 49bd
00000220: 0e32 25bc ea00 0dbd 6c5f bb3c 1ad9 c2bc
00000230: 7a43 563d 0ae3 443d ee95 ffbc eed5 6b3d
00000240: 5e54 513d 0c55 d73b a405 74bd 0844 76bd
00000250: 8065 913c 0a01 0c3d 126c 8c3b 0cdf 18bc
00000260: 1400 113b fa0b dcbc d498 0f3d e8ee 9abc
00000270: 505a 22bd c297 de3c b2b2 233d ca77 03bc
00000280: 9ecf 503d f8e7 34bb a858 993c 36e0 fa3c
00000290: fe11 5fbb 7a0a fdbc e4b3 f1bc 1a2c 3a3d
000002a0: 785f 3abc 64a3 59bc 7a1a c138 5ad0 0abc
000002b0: 9042 cd3c 066e be3c f046 933c 8adb 313d
000002c0: ba6b 813c 8c8c 963c b43a 573c 7478 593c
000002d0: c461 d83c f046 6e3d 5069 993c 0a9a 3fbc
000002e0: a657 a13b bcd9 263d d696 e4bc 4820 2fbd
000002f0: e871 413d 38d2 50bd a883 9c3c 4a76 7f3c
00000300: aa22 0ebd 3c0b 98bc 36f5 a9ba 18d6 99bc
00000310: 2e87 27bd 20b1 733d 32b6 42bc a221 5ebd
00000320: ec0f 7ebd 7ce0 26bd 08d3 32bd 62b8 1abd
00000330: 76d0 2bbc 481c 21bd 987c 503d 2c52 513d
00000340: d8d4 ecbc 1668 5e3d c0ca ba3c 5c70 1abd
00000350: aca5 f2bc ce22 15bd 56f2 a73b 1e58 fe3c
00000360: a885 b6bb 0e1d 063d 4809 363d aaf1 c7bc
00000370: c49f 24bd 40ea af3c 1ee0 a73c 2441 53bc
00000380: 0a01 07bc 5a4f 153d 56ad 1fbc b237 3d3d
00000390: 06ff 31bd d0f7 ecbc d8b3 2abd e0af 90bc
000003a0: 9a31 533d 4439 d43c b2bc 803c 1006 f73c
000003b0: 0ebf e23b 8a97 1bbd 9239 e43c 969c 00bd
000003c0: fc7b 7fbd 6066 2abd dc6f 173c d60e 5dbc
000003d0: b87d 63bd 5e44 61bb dc32 d6bb 5a5c 3fbc
000003e0: 1ce2 163d ba52 8abc 54d3 99bc 84cc 153c
000003f0: 3667 253c 44f7 2a3d 5ee0 673d 6e34 debc

layer2.bias f4 [256]
0.009959368 0.060127363 0.018281482 0.03509679 -0.047431316 0.01130119 -0.062700674 0.04135374
0.060827404 -0.020420074 -0.028127119 0.03650889 0.04693102 0.055313382 0.030645136 0.024119861
0.015953775 0.0005354518 -0.024129216 -0.02432555 0.021314971 0.039544173 0.01854586 0.018593311
-0.04960638 0.036447924 -0.022435227 0.010521432 0.046058975 0.022257976 0.036290493 -0.037286542
0.0015554386 -0.05198785 0.0034322988 -0.002933322 0.008283535 -0.033686887 0.031064792 -0.0016350406
-0.005788532 0.004804312 -0.053471453 -0.059499346 0.04790621 0.055871397 0.057799466 0.04180409
-0.039338335 -0.0024532217 -0.025556803 0.058394223 0.054850027 -0.039103176 -0.009212557 -0.029086808
-0.019495312 0.03579782 -0.031142559 -0.04416994 0.0364746 0.063414946 -0.00029605196 0.007025925
0.011511411 -0.0244149 -0.03136454 0.03958664 0.0060756416 0.044852708 0.06190414 -0.028245153
0.01781199 -0.040604956 -0.026508622 0.037112717 0.03594246 -0.0413033 0.040732257 0.008731136
-0.0267731 -0.009272699 -0.0049537867 -0.02775497 0.0018900894 0.025263736 0.04285079 -0.00906013
0.04043931 0.004265652 0.027961332 0.057570882 -0.04446405 0.035532083 -0.0015272252 -0.001755513
0.013736564 0.021503128 -0.048396382 0.043843664 -0.04904929 -0.053991683 0.014247581 -0.04568768
0.040744204 0.056905236 0.03370816 0.042408664 -0.025590487 -0.037180234 0.05238843 -0.027515534
0.0012350816 0.059061494 -0.052711017 -0.016020259 -0.03019857 0.0007319269 0.025990792 -0.0057349135
0.009385224 0.048624568 0.053486325 -0.022767246 0.03921868 -0.057513922 -0.020889267 0.024403637
-0.048241373 0.033835903 -0.035888933 0.0428882 0.04796811 -0.023872718 0.0457992 -0.062261373
0.013460736 0.02187296 -0.04611996 0.016066922 0.027292144 -0.016357679 -0.0098777 0.007190479
-0.01415734 -0.018057063 0.02314327 0.0031891016 0.008320155 -0.012252653 0.034427818 0.021774918
0.0031559607 0.00036784617 0.040077828 -0.0042175436 -0.045276176 0.016500182 -0.036528956 0.061777927
0.0059765326 0.03792853 0.05268725 0.051917225 0.0017548726 -0.016205575 -0.045278247 -0.03972797
0.060325474 0.01018226 -0.047156706 -0.02993419 -0.012710119 -0.007808194 0.0318646 -0.02689607
0.020502666 -0.0026536416 -0.019331355 0.023191344 -0.017943218 -0.018309444 -0.006837352 -0.03251843
-0.05058576 -0.036087003 0.029137386 -0.004096263 0.06058252 -0.004980335 -0.014424613 -0.052063294
-0.03621541 0.049830146 0.0487196 -0.045965645 0.037275143 -0.02560954 -0.061125133 0.0317259
0.0031388006 0.061125234 0.009526211 -0.004203463 0.02908533 0.058869496 0.043232806 0.0037582666
0.037021454 -0.049079433 -0.04969561 0.040911198 -0.027233848 0.011469071 -0.018374903 0.02488281
0.016186276 -0.048169736 -0.0035112265 -0.055200502 -0.026870629 0.010620093 -0.02958931 0.033042405
-0.058553062 -0.023793636 0.05133993 -0.061330467 -0.027920876 -0.038023707 -0.044287335 0.00039454573
-0.055643067 -0.054920867 0.029839197 -0.036866106 0.028057333 -0.026194887 0.012615226 0.055000678
0.029140733 -0.0003632715 0.03733053 -0.030630412 -0.037027255 0.06150563 -0.04762387 0.023909345
0.026692268 0.0033299406 0.05766637 0.046141747 -0.004487603 -0.053341173 0.05045227 -0.02887373
00000000: 9e2c 233c 1c48 763d 0cc3 953c a7c1 0f3d
00000010: 5747 42bd a028 393c 3669 80bd 8a62 293d
00000020: 2826 793d 0048 a7bc d86a e6bc 598a 153d
00000030: be3a 403d 4990 623d 820b fb3c 0497 c53c
00000040: 7eb1 823c 905d 0c3a a2aa c5bc 6046 c7bc
00000050: bc9c ae3c 12f9 213d 7ded 973c 0051 983c
00000060: 0f30 4bbd 6b4a 153d 15ca b7bc 1662 2c3c
00000070: 56a8 3c3d 5c56 b63c 57a5 143d c6b9 18bd
00000080: dcdf cb3a 36f1 54bd 6bf0 603b fa3c 40bb
00000090: aab7 073c 43fb 09bd 977b fe3c dc4e d6ba
000000a0: baad bdbb 7d6d 9d3b e204 5bbd 96b5 73bd
000000b0: 4d39 443d 68d9 643d 22bf 6c3d c43a 2b3d
000000c0: 3c21 21bd 3bc6 20bb 805c d1bc c82e 6f3d
000000d0: 6caa 603d a72a 20bd 44f0 16bc 7547 eebc
000000e0: a2b4 9fbc bca0 123d ae1e ffbc 8aeb 34bd
000000f0: 6466 153d b2df 813d 6c37 9bb9 bb39 e63b
00000100: 5b9a 3c3c c201 c8bc 1b78 00bd 9a25 223d
00000110: 2d16 c73b 79b7 373d 328f 7d3d 6162 e7bc
00000120: 73ea 913c 6251 26bd 9c28 d9bc 8103 183d
00000130: 6738 133d a62d 29bd ded6 263d 0a0d 0f3c
00000140: 4353 dbbc 85ec 17bc 6053 a2bb 645e e3bc
00000150: e0bc f73a e5f5 ce3c 4f84 2f3d f170 14bc
00000160: b1a3 253d e2c6 8b3b 2a0f e53c 72cf 6b3d
00000170: f01f 36bd 178a 113d 2d2d c8ba 3e19 e6ba
00000180: 530f 613c 5427 b03c 493b 46bd 6a95 333d
00000190: e9e7 48bd 6226 5dbd b06e 693c 0123 3bbd
000001a0: 65e3 263d 7715 693d 9111 0a3d b5b4 2d3d
000001b0: 24a3 d1bc 4d4a 18bd 4095 563d 4268 e1bc
000001c0: 76e2 a13a 77ea 713d 82e7 57bd eb3c 83bc
000001d0: fe62 f7bc c8de 3f3a a4ea d43c f1eb bbbb
000001e0: 7cc4 193c 8e2a 473d 7a14 5b3d 6082 babc
000001f0: c4a3 203d b893 6bbd f81f abbc 23ea c73c
00000200: bf98 45bd 8497 0a3d 4600 13bd 8aab 2f3d
00000210: 357a 443d b890 c3bc f197 3b3d c805 7fbd
00000220: 6b8a 5c3c ec2e b33c 48e8 3cbd c79e 833c
00000230: c693 df3c 8a00 86bc 14d6 21bc 1c9e eb3b
00000240: 30f4 67bc 68ec 93bc f496 bd3c 3f00 513b
00000250: 4251 083c 5abf 48bc 2f04 0d3d 5061 b23c
00000260: 3cd4 4e3b 7adb c039 a628 243d 5233 8abb
00000270: 8373 39bd 642b 873c 639f 15bd da0a 7d3d
00000280: cad6 c33b f25a 1b3d 96ce 573d 28a7 543d
00000290: c103 e63a 8ec1 84bc af75 39bd ccb9 22bd
000002a0: d817 773d 7ed3 263c 6427 41bd 8c38 f5bc
000002b0: 1a3e 50bc e1db ffbb 7484 023d 2655 dcbc
000002c0: 35f5 a73c b8e8 2dbb ca5c 9ebc c6fb bd3c
000002d0: a8fd 92bc b0fd 95bc de0b e0bb 0c32 05bd
000002e0: 0433 4fbd f7cf 13bd 87b1 ee3c f239 86bb
000002f0: 6025 783d 1432 a3bb 3655 6cbc 5240 55bd
00000300: 9c56 14bd b21a 4c3d 348e 473d 7946 3cbd
00000310: d2ad 183d 19cb d1bc 595e 7abd 04f3 013d
00000320: 56b4 4d3b 745e 7a3d d313 1c3c 34bd 89bb
00000330: 5c44 ee3c 2421 713d e214 313d 404d 763b
00000340: cfa3 173d 8407 49bd a08d 4bbd 8092 273d
00000350: 8519 dfbc c5e8 3b3c f786 96bc 09d7 cb3c
00000360: 1599 843c a14d 45bd 9b1c 66bb ec19 62bd
00000370: cb1f dcbc e6ff 2d3c 4865 f2bc 7957 073d
00000380: 56d5 6fbd dfea c2bc d249 523d a835 7bbd
00000390: 52ba e4bc bfbe 1bbd a366 35bd 08db ce39
000003a0: fce9 63bd b4f4 60bd 5571 f43c ea00 17bd
000003b0: 7ed8 e53c a996 d6bc 18b0 4e3c 6448 613d
000003c0: 8cb8 ee3c 7a75 beb9 e6e7 183d a1ec fabc
000003d0: e4a9 17bd 54ed 7b3d 3f11 43bd 88dd c33c
000003e0: bea9 da3c 223b 5a3b 9233 6c3d 21ff 3c3d
000003f0: be0c 93bb 467c 5abd 0aa7 4e3d 9a88 ecbc

layer3.weight f4 [256, 256]
-0.05192942 0.0010526611 -0.059674136 0.043607883 0.03521742 0.04727851 -0.031793877 0.00080530136
-0.018899836 -0.005442623 0.052657068 -0.045071736 -0.03156969 -0.02460279 -0.051050626 -0.004830706
-0.02785262 0.029188693 -0.04343147 0.00701972 -0.05179976 0.007830435 0.03623584 0.04742358
-0.025679745 -0.03737083 0.032460585 0.061045036 0.023792412 -0.028424997 -0.027143244 0.05524683
0.03947734 -0.041143663 0.038712204 -0.04479409 0.0017237661 -0.023766126 0.05493831 -0.059263386
0.060850345 0.040730797 0.061042644 -0.037818767 0.017660514 -0.029656783 0.05519697 -0.060491554
0.033844844 0.00408353 0.00063276605 0.001143428 0.015528427 -0.008430595 0.009930445 -0.009530004
-0.05629737 0.0038686697 -0.05267536 0.03988993 -0.0012252617 -0.026139677 -0.010936387 -0.004116417
-0.014142184 -0.0541215 0.022807218 0.057815813 0.059908904 -0.04401651 0.041484624 0.007459745
-0.01815959 -0.024630424 0.034430288 0.058974102 0.004751051 -0.016908828 0.003038107 0.031460784
-0.03951145 -0.019781623 0.053590097 -0.050435655 -0.02529233 -0.049893156 -0.03619556 -0.062118113
0.027419943 -0.057552427 0.046096444 -0.043604754 -0.031236667 -0.04237359 -0.056288823 -0.0013154882
-0.05624748 -0.0489887 -0.004652234 0.05131928 0.0050147204 0.01842954 -0.03729169 -0.021454453
0.058529742 0.03920059 0.05938614 -0.034308843 -0.02046189 0.040231325 -0.048554763 0.019785713
0.008482436 -0.027201798 0.03334733 0.030646693 -0.04139299 0.033795662 0.034254275 -0.047404334
-0.061967462 -0.06044872 0.022655323 0.012988124 -0.02484963 0.06112367 -0.022339359 -0.010414345
-0.016111936 -0.051659547 -0.02089059 -0.010008691 0.007122754 -0.043266654 -0.055899806 -0.023163948
0.060655527 -0.057814553 0.008864228 0.01576529 -0.026253775 0.0087639205 -0.044187143 -0.04698827
0.047289878 -0.037419587 0.017739698 -0.018175244 -0.04133212 -0.008417683 -0.0552795 0.010979503
-0.017021056 -0.03275147 0.017686114 -0.053902328 -0.0035932213 -0.0036489964 -0.0044852365 -0.007300876
0.030469064 -0.016278606 -0.039760657 -0.009796103 0.04846642 0.018710367 0.02066258 0.013300937
0.033942357 -0.05224037 -0.00243937 -0.03909158 0.042201392 0.05117464 0.0056225024 0.011763589
-0.055226274 -0.0012173343 -0.0016601938 0.006619839 0.045318015 -0.028251965 0.032682814 -0.010054922
-0.054955706 0.012658957 0.004078009 -0.027938817 -0.044089615 -0.061566994 -0.051757306 0.018888272
-0.030436102 0.061563097 0.061249554 0.03140711 -0.040989332 0.00032441103 0.048955224 0.01877939
0.036397256 -9.209379e-05 0.037482135 0.00096242887 -0.049271233 0.0043898467 -0.02650971 -0.044882618
-0.039863706 -0.034488015 0.05344487 0.055455193 -0.055732794 0.04392545 0.02888932 -0.051301852
0.05002878 0.05436933 0.00965949 0.017566688 -0.059934445 -0.00557046 -0.04482802 0.043449342
-0.029317237 0.005633924 -0.0019101726 0.038269676 -0.036124267 0.019615311 -0.010794587 -0.028020259
0.055452913 -0.0618928 -0.059665218 -0.01904513 -0.029356658 -0.03631366 -0.028328989 0.058812127
-0.062377803 0.005577501 -0.009804791 0.015407341 0.030123629 -0.020505313 0.042571805 -0.049145147
0.057172358 -0.0026924815 0.0132172145 0.030594464 -0.041712828 0.054776996 0.031947136 0.052666977
00000000: f2b3 54bd 72f9 893a de6c 74bd 2e9e 323d
00000010: 2440 103d 1ca7 413d 4c3a 02bd dc1a 533a
00000020: d4d3 9abc 0858 b2bb f0ae 573d 249d 38bd
00000030: 384f 01bd ca8b c9bc 761a 51bd e64a 9ebb
00000040: 2e2b e4bc 201d ef3c 32e5 31bd ae05 e63b
00000050: fc2b 54bd 3a4b 003c 086c 143d 3a3f 423d
00000060: 545e d2bc 2812 19bd 64f5 043d 5c0a 7a3d
00000070: 4ee8 c23c 8adb e8bc 825b debc 804a 623d
00000080: feb2 213d 4286 28bd b090 1e3d 027a 37bd
00000090: feef e13a 2eb1 c2bc fe06 613d 2abe 72bd
000000a0: 363e 793d 56d5 263d da07 7a3d dae7 1abd
000000b0: c8ac 903c c8f2 f2bc 3816 623d fec5 77bd
000000c0: e4a0 0a3d 22cf 853b 36e0 253a 14df 953a
000000d0: f26a 7e3c 7a20 0abc 4eb3 223c bc23 1cbc
000000e0: 1298 66bd 8289 7d3b 1ec2 57bd a063 233d
000000f0: f698 a0ba e022 d6bc 882e 33bc 02e3 86bb
00000100: 9eb4 67bc 82ae 5dbd 34d6 ba3c 46d0 6c3d
00000110: 0a63 753d a84a 34bd c8eb 293d e070 f43b
00000120: 6cc3 94bc bec5 c9bc c606 0d3d d48e 713d
00000130: b4ae 9b3b 6284 8abc fa1a 473b 06dd 003d
00000140: c2d6 21bd 120d a2bc 4a81 5b3d 9e95 4ebd
00000150: dc31 cfbc c45c 4cbd cc41 14bd 906f 7ebd
00000160: ca9f e03c 18bc 6bbd a0cf 3c3d e69a 32bd
00000170: 0ae4 ffbc ee8f 2dbd 1c8f 66bd 766c acba
00000180: c263 66bd 60a8 48bd c471 98bb 2a34 523d
00000190: 8652 a43b 8cf9 963c 2cbf 18bd 40c1 afbc
000001a0: e2bc 6f3d cc90 203d e23e 733d 6e87 0cbd
000001b0: b29f a7bc 9ac9 243d 5ce1 46bd a615 a23c
000001c0: eaf9 0a3c 4ed6 debc 3697 083d c60e fb3c
000001d0: b28b 29bd 526d 0a3d 364e 0c3d 0c2b 42bd
000001e0: 98d1 7dbd 1499 77bd a897 b93c 24cc 543c
000001f0: 7491 cbbc d05c 7a3d 0801 b7bc eea0 2abc
00000200: 2efd 83bc f698 53bd be22 abbc 7efb 23bc
00000210: fe65 e93b 6038 31bd 32f7 64bd 52c2 bdbc
00000220: ee71 783d f4ce 6cbd 443b 113c 3626 813c
00000230: 2812 d7bc 8c96 0f3c 94fd 34bd c676 40bd
00000240: 08b3 413d 4845 19bd d852 913c 40e4 94bc
00000250: de4b 29bd 52ea 09bc c26c 62bd 60e3 333c
00000260: be6f 8bbc 6826 06bd 78e2 903c b0c8 5cbd
00000270: 407c 6bbb 0024 6fbb e4f8 92bb 303c efbb
00000280: 429a f93c b65a 85bc 12dc 22bd d67f 20bc
00000290: ba84 463d 7c46 993c 9244 a93c 2cec 593c
000002a0: 2407 0b3d 00fa 55bd d6dd 1fbb 7e1e 20bd
000002b0: 5edb 2c3d 809c 513d f83c b83b 12bc 403c
000002c0: f234 62bd f68e 9fba dc9a d9ba 3ceb d83b
000002d0: 629f 393d aa70 e7bc 6ade 053d 66bd 24bc
000002e0: 3c19 61bd 8467 4f3c d2a0 853b f2df e4bc
000002f0: 5097 34bd ac2d 7cbd 78ff 53bd 94bb 9a3c
00000300: 2255 f9bc 9629 7c3d d0e0 7a3d bea4 003d
00000310: 6ee4 27bd b615 aa39 4685 483d 3cd7 993c
00000320: 4a15 153d 7a22 c1b8 de86 193d 824b 7c3a
00000330: a2d0 49bd b4d8 8f3b e42a d9bc d6d6 37bd
00000340: 2048 23bd 4e43 0dbd 02e9 5a3d fc24 633d
00000350: 1248 64bd 2ceb 333d 4ca9 ec3c e421 52bd
00000360: faea 4c3d 60b2 5e3d d642 1e3c 04e8 8f3c
00000370: d27d 75bd 6888 b6bb 969d 37bd f0f7 313d
00000380: b42a f0bc c89c b83b c25e faba aac0 1c3d
00000390: 0af7 13bd 4ab0 a03c c8db 30bc be8a e5bc
000003a0: 9822 633d 4e83 7dbd 8463 74bd 8804 9cbc
000003b0: 607d f0bc a2bd 14bd 3212 e8bc fce4 703d
000003c0: de7f 7fbd 78c3 b63b 46a4 20bc 126f 7c3c
000003d0: d4c5 f63c c2fa a7bc c65f 2e3d 6c4c 49bd
000003e0: 902d 6a3d 5874 30bb 048d 583c 3ea1 fa3c
000003f0: 12db 2abd d85d 603d 00db 023d 54b9 573d

layer3.bias f4 [256]
-0.041556686 -0.037838727 0.038865943 0.011282447 -0.03579013 -0.040406212 0.030767515 -0.02681579
-0.033735268 -0.012310524 -0.019669028 -0.011461756 0.038258627 -0.058397226 -0.017929308 0.04436848
-0.058437817 -0.055656422 -0.027841745 -0.039057232 0.0003975731 0.033078637 0.003790006 0.046521984
0.057998095 0.026467055 -0.027773183 -0.043497488 0.028582547 -0.0064084106 -0.05706416 -0.034833007
0.027091386 0.055703156 -0.028498823 0.047894213 -0.03262928 0.05569993 0.014202317 -0.039417
0.03856294 -0.055111527 0.014255916 0.01331028 -0.023870533 -0.024522208 0.026319275 -0.058102947
0.0030892745 -0.03609711 -0.026429184 0.033962086 0.03396123 0.002891718 -0.031863745 -0.053474143
0.041294754 0.035446472 -0.007890552 -0.053282633 0.04066245 -0.016248832 -0.035647504 0.021942174
-0.05444654 -0.026924375 0.0067697903 0.05490359 0.011960362 -0.03830172 0.034506273 -0.03818434
-0.055862755 -0.025417842 0.007926701 0.015929246 -0.012324912 -0.017691694 -0.052229308 -0.024892086
0.049517788 -0.028601792 0.025671633 0.03280723 -0.04859864 0.031657584 -0.032726534 -0.0068922555
-0.023835432 0.052781973 0.024536785 -0.022805333 0.05634021 -0.012810352 -0.03124874 -0.03157807
0.013324645 -0.025318258 -0.06188596 -0.017455475 -0.030297898 0.024577437 -0.059001777 -0.05559516
0.057543762 0.0060087303 0.024415169 0.008519852 -0.042169556 -0.032197848 0.012115449 0.03090075
0.028062243 -0.037428837 0.014118293 -0.010932678 -0.029641239 0.02928979 -0.010490043 -0.06276822
0.045434155 -0.04293279 0.009712448 -0.0024834434 -0.03837785 0.03944081 0.015012172 -0.054725762
0.019615296 0.021157049 0.056559414 0.016786085 0.020471312 -0.039069403 0.046735294 -0.010624095
-8.912792e-05 0.0024291805 -0.026559165 0.037648033 -0.025331918 0.025555447 0.04984535 0.02568969
-0.020671602 0.02935791 0.037458904 0.03457431 -0.061219823 0.008670168 0.059881065 -0.008596303
0.046319228 0.057319086 -0.05902694 -0.02431706 -0.011360808 -0.022466127 -0.06112074 0.008329401
0.041560885 0.05110575 0.041551854 0.008841574 0.035996065 -0.015162733 0.021022167 -0.04433416
-0.013431435 0.02724878 -0.010717444 0.0110682575 0.045876242 -0.002745686 -0.01972318 -0.04351155
-0.03270463 0.0047363006 -0.032736402 -0.044813775 -0.0141817685 0.043459862 -0.034808755 0.045064315
-0.05326744 0.030642623 -0.046124894 -0.026915053 0.057380524 -0.04799819 -0.03862242 0.030251529
-0.0077045853 0.019842966 -0.056703754 0.032580644 0.02195146 0.011809968 -0.028784936 -0.048404314
0.06359805 0.012535367 -0.03809938 0.00850733 -0.041141063 -0.061011627 -0.059348937 0.0044876174
-0.017587774 0.013566049 -0.04820323 -0.05053088 -0.022688415 0.029410256 0.020084329 0.041853014
0.05808212 -0.012638435 -0.024668103 -0.050079152 0.04705577 -0.060197465 -0.020886008 0.052679375
0.054607563 -0.043947484 0.050894886 0.06151119 0.050581355 -0.041151088 0.0073956796 0.03554641
-0.023298066 0.0019436256 0.035527233 -0.06156688 0.012766529 0.031382732 -0.03625789 -0.0012342487
0.05860883 0.04751083 0.06069725 -0.011190772 0.02050919 -0.011658514 0.02563972 0.006906706
-0.054350734 -0.011875214 -0.03415128 0.039430518 0.03974539 0.015492367 0.017278112 -0.034207582
00000000: 5837 2abd c8fc 1abd e531 1f3d 03da 383c
00000010: ac98 12bd fc80 25bd 280c fc3c caac dbbc
00000020: fe2d 0abd 14b2 49bc f120 a1bc 17ca 3bbc
00000030: 14b5 1c3d ee31 6fbd 7ce0 92bc b9bb 353d
00000040: 7e5c 6fbd fdf7 63bd 5f14 e4bc 7afa 1fbd
00000050: 5c71 d039 777d 073d c061 783b d68d 3e3d
00000060: 698f 6d3d 70d1 d83c 9684 e3bc 6c2a 32bd
00000070: f225 ea3c a5fd d1bb 1cbc 69bd 0ead 0ebd
00000080: c1ee dd3c fe28 643d 5d76 e9bc b92c 443d
00000090: 48a6 05bd 9c25 643d d6b0 683c b873 21bd
000000a0: 2cf4 1d3d a0bc 61bd a591 693c 5c13 5a3c
000000b0: 238c c3bc cce2 c8bc 859b d73c 5bfd 6dbd
000000c0: 6d75 4a3b 90da 13bd 0482 d8bc d41b 0b3d
000000d0: ee1a 0b3d fa82 3d3b 8f83 02bd b407 5bbd
000000e0: b024 293d 5230 113d 6047 01bc e43e 5abd
000000f0: ab8d 263d 451c 85bc 1e03 12bd 13c0 b33c
00000100: 5603 5fbd 8290 dcbc 1ed5 dd3b 96e2 603d
00000110: 65f5 433c 44e2 1cbd 7356 0d3d 2f67 1cbd
00000120: 58d0 64bd 1439 d0bc fede 013c 0d7e 823c
00000130: 6dee 49bc 2cee 90bc 66ee 55bd 7dea cbbc
00000140: 2ad3 4a3d 4e4e eabc 514d d23c e060 063d
00000150: 5e0f 47bd 62ab 013d 420c 06bd 6ed8 e1bb
00000160: 8642 c3bc e931 583d 5e01 c93c 40d2 babc
00000170: fec4 663d 83e2 51bc 5cfd ffbc 0258 01bd
00000180: 9d4f 5a3c 3c68 cfbc 227c 7dbd c9fe 8ebc
00000190: 4c33 f8bc 9f56 c93c d9ab 71bd c0b7 63bd
000001a0: 02b3 6b3d e2e4 c43b 5202 c83c d996 0b3c
000001b0: fcb9 2cbd e4e1 03bd e07f 463c 9223 fd3c
000001c0: cae2 e53c fb4e 19bd 6a50 673c fa1e 33bc
000001d0: 2fd2 f2bc 24f1 ef3c 6ede 2bbc a08c 80bd
000001e0: 2a19 3a3d 4bda 2fbd f620 1f3c 44c1 22bb
000001f0: 1832 1dbd b08c 213d 9df5 753c 1f28 60bd
00000200: 42b0 a03c 8c51 ad3c d8aa 673d f982 893c
00000210: 74b3 a73c 3d07 20bd 826d 3f3d af10 2ebc
00000220: 30ea bab8 e332 1f3b 9b92 d9bc d334 1a3d
00000230: e284 cfbc a859 d13c a32a 4c3d 2f73 d23c
00000240: 7e57 a9bc 0080 f03c 826e 193d cb9d 0d3d
00000250: a3c1 7abd 520d 0e3c d945 753d 82d7 0cbc
00000260: 3bb9 3d3d 6bc7 6a3d 3cc6 71bd 9234 c7bc
00000270: af22 3abc e20a b8bc be59 7abd 0a78 083c
00000280: bf3b 2a3d 4354 513d 4732 2a3d 40dc 103c
00000290: 9c70 133d 1d6d 78bc ae36 ac3c bc97 35bd
000002a0: 860f 5cbc d538 df3c 3898 2fbc a357 353c
000002b0: bae8 3b3d f8f0 33bb 8292 a1bc 2b39 32bd
000002c0: 4af5 05bd f832 9b3b 9b16 06bd a68e 37bd
000002d0: a65a 68bc f802 323d a093 0ebd 5c95 383d
000002e0: f62e 5abd 3d06 fb3c 75ed 3cbd f57c dcbc
000002f0: d707 6b3d c099 44bd 8b32 1ebd 0ed2 f73c
00000300: bf76 fcbb b78d a23c 3242 68bd 4873 053d
00000310: 8cd3 b33c 997e 413c 63ce ebbc 9a43 46bd
00000320: b23f 823d 2461 4d3c 180e 1cbd 5462 0b3c
00000330: 8883 28bd 54e7 79bd df17 73bd dd0c 933b
00000340: 3c14 90bc 2244 5e3c c070 45bd 78f9 4ebd
00000350: 0edd b9bc c7ed f03c e487 a43c 116e 2b3d
00000360: 84e7 6d3d 7011 4fbc c314 cabc cc1f 4dbd
00000370: 8dbd 403d 9e91 76bd 2219 abbc 54c6 573d
00000380: 2eac 5f3d 4702 34bd 2877 503d 28f3 7b3d
00000390: 652e 4f3d 0b8e 28bd 7557 f23b 1d99 113d
000003a0: 96db bebc 41c1 fe3a 0185 113d 8e2d 7cbd
000003b0: b42a 513c 2e8b 003d 2783 14bd 84c6 a1ba
000003c0: d00f 703d b79a 423d ae9d 783d 8059 37bc
000003d0: e402 a83c 5a03 3fbc 640a d23c a651 e23b
000003e0: e09e 5ebd 4290 42bc 36e2 0bbd e581 213d
000003f0: 10cc 223d b2d3 7d3c d48a 8d3c 401d 0cbd

layer4.weight f4 [10, 256]
0.0410143 -0.029151144 -0.02911024 0.044899788 -0.0068211844 -0.04781342 0.020008095 -0.024034966
0.022972882 0.0018851392 -0.015093661 -0.04980921 -0.034449257 0.0007013507 0.06141388 -0.009809382
0.06045337 -0.012088056 0.012478331 -0.018686973 -0.047918387 0.055851553 -0.025014684 0.0300804
-0.008769674 -0.021812893 0.013838599 -0.021426156 -0.030109184 0.040121235 -0.018493095 -0.040981732
-0.01875463 0.04394158 -0.027086182 -0.02929306 0.053752135 -0.024149258 -0.014644384 -0.012534093
-0.025284464 -0.04987069 0.0032280092 -0.0034260373 0.02358258 -0.04991094 0.026889367 0.030580422
-0.05497896 -0.037512064 0.00031191285 0.015938547 0.019991022 -0.052141167 0.011904529 -0.04169501
-0.026526127 0.0015772912 -0.04115361 -0.038482647 0.034939792 -0.027477482 -0.05370806 -0.0057263323
-0.020610914 0.00811919 0.046704523 0.034049533 -0.03394893 0.05486796 -0.011928947 -0.056181338
0.00650172 -0.016588327 -0.050612774 -0.011335137 -0.002160918 -0.026126988 -0.057971004 -0.044583566
-0.018083313 -0.012318732 -0.045112733 0.01723225 -0.014564753 0.014018652 0.0072582066 -0.054286145
-0.015963648 0.05073763 0.03514625 0.0011048191 0.027035603 0.009814143 -0.048713274 -0.051134795
-0.005809734 -0.046284914 0.03918743 0.057800353 -0.016556125 0.062471732 -0.023531003 0.008169161
-0.016964022 0.008218763 -0.04004947 0.025435984 -0.02386011 -0.032439187 -0.051792216 -0.038471524
-0.056196947 -0.00933793 -0.017366055 0.00862241 -0.037262216 -0.02797555 0.04155508 -0.052501068
0.045012705 0.022062954 0.022269987 -0.0031838636 -0.00405723 0.055688873 0.0035362816 0.051344886
-0.044883527 -0.05631742 0.008537555 -0.02971311 0.04295771 0.045110587 0.056507304 -0.029166793
0.06237568 -0.011250382 0.030976774 -0.059357077 0.031656213 0.0039350335 -0.009292574 -0.046176728
-0.0034213336 -0.0039331624 -0.051411353 0.011760926 -0.041577544 0.05622851 0.03219349 0.0063942727
0.043698985 -0.055726543 -0.056491695 -0.031011265 -0.00020976941 0.028496714 0.00067891995 -0.009860287
0.041846775 0.011596883 -0.027367769 0.03288174 -0.047551975 -0.0470695 0.010082377 0.020668967
-0.053931385 -0.015560559 -0.0004752317 0.06395798 -0.00030553126 0.021655172 -0.02660735 0.06338347
0.0089758895 0.0274236 0.029442795 -0.057710424 -0.0505542 0.056674726 0.048840478 0.03874485
0.05107445 -0.059108514 -0.027293583 -0.036289424 -0.019640703 0.027923916 0.0032338277 0.0013368628
0.021013197 -0.05651084 -0.020765789 0.04456842 -0.010985017 -0.059322264 -0.04953662 -0.008004526
0.0139931915 -0.009362925 0.034472458 0.01955123 0.029144138 -0.007833328 0.046255957 0.031135013
-0.03635118 0.058835056 0.05390765 -0.053964734 -0.0031783627 0.05859653 0.016157022 0.03021721
0.042515874 -0.008087579 -0.04762294 -0.04514709 0.052760947 0.01683231 0.040065855 0.015845198
-0.008172283 -0.020804625 -0.0069576753 0.060084708 -0.035726003 0.03113869 0.061287083 -0.047066115
-0.04193888 -0.059570123 0.020767303 -0.029015996 -0.027998697 -0.05813065 0.0058633685 0.059074305
-0.016187236 -0.019562507 0.019834954 0.014728919 0.005635927 -0.0040816227 -0.024181463 -0.048209634
-0.014407605 0.047662176 -0.04572708 0.06200613 0.028778404 0.015543975 0.060820986 0.053976662
00000000: 9cfe 273d 61ce eebc 9978 eebc d7e8 373d
00000010: 3e84 dfbb 01d8 43bd 04e8 a33c fae4 c4bc
00000020: a031 bc3c c616 f73a 674b 77bc be04 4cbd
00000030: aa1a 0dbd d9da 373a 1f8d 7b3d 88b7 20bc
00000040: f49d 773d fb0c 46bc ea71 4c3c 6c15 99bc
00000050: 1246 44bd 99c4 643d 98eb ccbc 2c6b f63c
00000060: aeae 0fbc f4b0 b2bc 4bbb 623c e885 afbc
00000070: 89a7 f6bc 2a56 243d d57e 97bc 76dc 27bd
00000080: 4fa3 99bc 16fc 333d d7e3 ddbc 00f8 efbc
00000090: 332b 5c3d aad4 c5bc 00ef 6fbc cc5b 4dbc
000000a0: 5d21 cfbc 3545 4cbd 028d 533b 5e87 60bb
000000b0: 4130 c13c 6a6f 4cbd 1747 dc3c cb83 fa3c
000000c0: 9e31 61bd 40a6 19bd 3c88 a339 8e91 823c
000000d0: 36c4 a33c fa91 55bd 370b 433c 63c8 2abd
000000e0: 524d d9bc 1cbd ce3a b090 28bd fb9f 1dbd
000000f0: 071d 0f3d 7518 e1bc fcfc 5bbd f5a3 bbbb
00000100: 38d8 a8bc 5a06 053c 3e4d 3f3d 8677 0b3d
00000110: 090e 0bbd 3abd 603d a171 43bc 671e 66bd
00000120: 610c d53b 3ee4 87bc 574f 4fbd 03b7 39bc
00000130: 309e 0dbb 4408 d6bc 0173 6dbd 429d 36bd
00000140: 7523 94bc 82d4 49bc 21c8 38bd a62a 8d3c
00000150: 00a1 6ebc 7dae 653c 40d6 ed3b 265b 5ebd
00000160: 32c6 82bc 43d2 4f3d 84f5 0f3d 94cf 903a
00000170: c579 dd3c 80cb 203c 9287 47bd b872 51bd
00000180: 955f bebb 4095 3dbd 0083 203d 10c0 6c3d
00000190: b6a0 87bc 5ce2 7f3d 17c4 c0bc f2d7 053c
000001a0: 22f8 8abc fea7 063c ea0a 24bd 205f d03c
000001b0: 4776 c3bc f4de 04bd 1324 54bd 5194 1dbd
000001c0: c52e 66bd 1efe 18bc 4243 8ebc 0245 0d3c
000001d0: 44a0 18bd fb2c e5bc a935 2a3d 5c0b 57bd
000001e0: 3e5f 383d 5ebd b43c 8c6f b63c 5ea8 50bb
000001f0: 83f2 84bb 041a 643d f6c0 673b 044f 523d
00000200: cad7 37bd 18ad 66bd 1ae1 0b3c e868 f3bc
00000210: 6cf4 2f3d e1c5 383d 3474 673d 33ef eebc
00000220: a47d 7f3d 8653 38bc 01c3 fd3c 6820 73bd
00000230: f2a9 013d 74f1 803b e13f 18bc cf23 3dbd
00000240: 7438 60bb c2e1 80bb b694 52bd e6b0 403c
00000250: 374d 2abd de4f 663d 52dd 033d 0c87 d13b
00000260: b5fd 323d 8441 64bd d663 67bd 560b febc
00000270: 8cf5 5bb9 f171 e93c 8cf9 313a 0b8d 21bc
00000280: 8667 2b3d da00 3e3c 5f32 e0bc 01af 063d
00000290: dcc5 42bd f3cb 40bd 8e30 253c f751 a93c
000002a0: 28e7 5cbd b7f1 7ebc 8528 f9b9 67fc 823d
000002b0: b62f a0b9 3066 b13c a8f7 d9bc 31cf 813d
000002c0: 9c0f 133c 75a7 e03c 0432 f13c c461 6cbd
000002d0: ec11 4fbd c223 683d f40c 483d ebb2 1e3d
000002e0: 7133 513d c51b 72bd cb96 dfbc 38a4 14bd
000002f0: 8ae5 a0bc b2c0 e43c a0ee 533b ac39 af3a
00000300: de23 ac3c e977 67bd 041d aabc 608d 363d
00000310: 80fa 33bc e7fb 72bd e9e6 4abd 6a25 03bc
00000320: b343 653c f466 19bc fe32 0d3d e729 a03c
00000330: b0bf ee3c 5c57 00bc e376 3d3d db0e ff3c
00000340: fae4 14bd 07fd 703d 45ce 5c3d 200a 5dbd
00000350: 144c 50bb ea02 703d bb5b 843c 158a f73c
00000360: 2025 2e3d c481 04bc 4610 43bd 28ec 38bd
00000370: dd1b 583d eae3 893c 181c 243d cacd 813c
00000380: 0ae5 05bc 766e aabc 36fd e3bb 621b 763d
00000390: 6e55 12bd 9116 ff3c 2a08 7b3d 66c8 40bd
000003a0: 1ac8 2bbd cdff 73bd 3120 aa3c f4b2 edbc
000003b0: 865d e5bc 681a 6ebd 8021 c03b e6f7 713d
000003c0: 189b 84bc 8d41 a0bc ea7c a23c 9051 713c
000003d0: 95ad b83b 22bf 85bb 3418 c6bc 7777 45bd
000003e0: e00d 6cbc 6a39 433d 524c 3bbd 24fa 7d3d
000003f0: b0c0 eb3c 28ac 7e3c 6d1f 793d a216 5d3d

layer4.bias f4 [10]
0.057252817 0.010534399 0.015988441 -0.016174747 0.062153716 0.04892502 -0.021945441 0.052721415
-0.005857037 -0.03170311
00000000: ee81 6a3d 7998 2c3c 31fa 823c e780 84bc
00000010: e594 7e3d 9a65 483d edc6 b3bc 69f2 573d
00000020: 63ec bfbb 1fdb 01bd
