policy_net.pth (torch, 678637 bytes, 8 tensors)

layer1.weight f4 [256, 135]
000000 24 3c 02 bc 4d 0d d8 3d 90 c0 a0 bd 0d f1 5d bd
       -0.007948909 0.10549412 -0.078492284 -0.054184962
000010 f2 d2 9e 3c 2a 71 86 bd aa 34 a5 bd a0 cd 9c 3d
       0.019387696 -0.06564553 -0.080666855 0.07656407
000020 60 d8 f8 3c 4a ad 6a 3c 28 e5 cd 3c ec dd b7 bc
       0.030376613 0.014323542 0.025133684 -0.022444688
000030 b1 50 44 3d 1b 7e 9d 3d 3d a6 84 3d 47 70 66 3d
       0.047928516 0.07690068 0.0647702 0.05625942
000040 fc 71 2d bc b1 54 82 bd a5 1f 6f 3d 4c 3c 13 3d
       -0.010586258 -0.0636381 0.058379788 0.035946175
000050 96 ac 5c bd 84 1b 8a bd a3 70 61 bc 05 00 10 bd
       -0.05387553 -0.067435294 -0.013759765 -0.03515627
000060 d7 80 3d 3d 1c 79 7e 3d 86 81 90 3c 36 e1 10 3d
       0.04626545 0.062127218 0.017639887 0.035371028
000070 eb 07 78 bd 5c ba 10 bd 9e ca 25 bd aa c6 89 3d
       -0.060554426 -0.035333976 -0.040476434 0.06727345
000080 ce 14 76 bd 92 f0 45 3d ea ee ee bc 3e 44 15 bc
       -0.060078435 0.04832513 -0.029166657 -0.0091105085
000090 4c e7 92 3d 93 15 1b bd 69 a1 66 bd d6 36 02 bd
       0.07173023 -0.03786237 -0.056306276 -0.031790577
0000a0 10 e8 07 3d fd 16 7e 3d c0 2e 99 bb 6c 81 8e 3d
       0.033180296 0.062033642 -0.0046747625 0.06958279
0000b0 9f e8 95 3d 43 d7 9a 3d 26 23 a5 3c 9c 04 51 3d
       0.073197596 0.07560589 0.020158362 0.051029786
0000c0 fe 6b 22 3b e3 e3 2c bd da 02 c5 3c 3f 72 a1 bd
       0.0024783607 -0.042209517 0.024049211 -0.07883119
0000d0 d4 39 43 3d a4 06 4e 3c cc ed 4b bd 14 34 03 bd
       0.04766257 0.012574825 -0.049787328 -0.032032087
0000e0 15 2e 51 bd 67 5a d8 3c 0c c0 1f bd aa 57 a5 3d
       -0.051069338 0.026410295 -0.03900151 0.08073361
0000f0 9a ec 31 3c 24 29 3a 3d 1b 3c 2d 3d b1 9f 72 bc
       0.010859633 0.04544939 0.04229365 -0.014808581
000100 b7 fe 94 bd 35 22 94 bd af 2f 7a 3c 7b fa 6d 3b
       -0.072751455 -0.07233087 0.015270158 0.0036312628
000110 93 57 ac bd 59 c2 a4 3d 2b 94 90 bc c5 5a 2a ba
       -0.08415141 0.080448814 -0.017648777 -0.0006498511
000120 d2 7b 9d 3d 77 24 59 3d b2 49 f6 bb db c5 a2 bd
       0.076896325 0.05301329 -0.0075161094 -0.07947894
000130 16 d5 5b 3d 56 cd 66 bd 5b b3 15 bd 61 78 23 bd
       0.05367001 -0.056348167 -0.036548 -0.039909724
000140 73 be 9b bd 1d 5c ae 3d c9 ac d7 3c f7 35 a3 bd
       -0.07604685 0.08513663 0.026327508 -0.07969277
000150 26 9e 48 bd a2 88 59 3d bd 3a 64 bc 85 43 eb bc
       -0.048978947 0.05310882 -0.01393002 -0.02871872
000160 32 f1 86 bd 6e 4d 9c bd df 7c 9d bd 3b 80 93 bd
       -0.06588973 -0.07631956 -0.07689833 -0.072021924
000170 64 86 a6 3c 0e d1 22 bd c2 df c4 3c 5d 98 02 bd
       0.020327754 -0.03975015 0.024032477 -0.031883586
000180 04 1b 5a bc 82 06 e5 3c e8 69 ce bc 54 df 64 bd
       -0.013312105 0.027957205 -0.025196984 -0.055877045
000190 2d 0f 39 3d be 44 1d 3d ce d5 8a bc 30 20 15 bd
       0.04518049 0.038395636 -0.016947653 -0.03640765
0001a0 58 03 b1 bd 24 c4 a8 bd 7e 8e ad 3d ce 8e a7 3c
       -0.08643216 -0.08240536 0.08474444 0.020453837
0001b0 d9 9e 2b bb 8a af 43 bd 7c 80 5c 3b 07 ac 9c bd
       -0.002618721 -0.04777483 0.0033645919 -0.07649999
0001c0 e5 8f 96 bd d6 4f 3d 3d 22 3e 11 3b 97 66 65 bd
       -0.073516645 0.046218716 0.0022162278 -0.05600604
0001d0 aa fa 05 3d ba bc b6 bc f3 66 3d 3d 7a 87 79 bd
       0.032709755 -0.022306789 0.04624076 -0.060920216
0001e0 ab f4 ab bd d8 d7 46 39 40 e1 e6 bc 6c 4c 36 3d
       -0.08396276 0.0001896316 -0.02818358 0.044506475
0001f0 03 4a 81 3c 57 84 b5 bd c7 fe a6 bc 02 e3 8b be
       0.015782362 -0.088631324 -0.02038516 -0.2732163
000200 6a a2 b7 bb e0 47 bb be 92 5e 94 bd 6c 46 1f be
       -0.005604078 -0.36578274 -0.072446 -0.15554208
000210 6b 55 37 38 ad 4a 33 bd c5 c0 97 3d d5 9d 02 3c
       4.371015e-05 -0.04377239 0.07409815 0.0079722
000220 3e 0f 95 bd 6f 5d 96 bd 4a bc b5 ba 97 78 02 be
       -0.07278298 -0.0734204 -0.0013865319 -0.12741314
000230 e2 99 af bd 80 6b 08 3d d3 c3 3e 3d 1c 43 0c 3d
       -0.08574273 0.033305645 0.04657347 0.034243688
000240 12 80 ba 3d 43 eb 0b be 92 72 70 3d 8b af 1f 3d
       0.09106459 -0.13663964 0.058703013 0.03898577
000250 91 3c 2a 3d 7c 9b 91 3d 2f 65 f6 3d da 6e 8c bd
       0.041561667 0.071097344 0.12031018 -0.06857081
000260 00 bc 65 3d 05 30 8a bb 8d 31 47 bd 28 f2 76 3d
       0.056087494 -0.00421715 -0.04863124 0.060289532
000270 d0 df 97 bd d1 ef 3f 3d 16 2c 47 bd 47 52 29 3d
       -0.07415736 0.046859566 -0.048626028 0.04133823
000280 56 1c 31 3d 0c 48 9c 3d 53 f2 35 3c e6 62 9c 3d
       0.043239914 0.07630929 0.011105138 0.07636051
000290 11 71 7b bd 75 b5 86 3d 97 94 2f 3d 81 b2 12 3c
       -0.061387125 0.06577579 0.042866316 0.008953691
0002a0 49 54 a9 3d cd 97 86 3d 4a ce c0 bb 4e ed 4a 3d
       0.08268029 0.065719225 -0.0058839666 0.049542718
0002b0 d4 50 ca 3d 29 4d 63 3d 29 58 76 3d bd ff 9a 3d
       0.09878698 0.055493508 0.06014267 0.075683095
0002c0 c5 f1 a8 3d be 57 4d bd 4f 43 ce 3d 40 48 27 3d
       0.08249239 -0.050132506 0.10071432 0.040840387
0002d0 8c 62 c2 3d d1 80 62 3d a3 14 6f 3d 02 c4 af 3d
       0.094914526 0.05529863 0.05836929 0.085823074
0002e0 07 ac b9 3d 58 54 f9 3c b7 05 13 bb 05 11 8a bd
       0.09066015 0.030435726 -0.0022433826 -0.067415275
0002f0 10 34 a3 3d f1 f7 bc 3d a1 c5 94 bd 78 3e a3 3d
       0.079689145 0.092269786 -0.07264257 0.07970899
000300 59 71 19 bd 2f 04 63 bd ea 01 0d bc 5b e6 14 3d
       -0.037461612 -0.05542391 -0.008606413 0.036352497
000310 a0 3b 20 bd 83 49 78 bd 2b cb 2a 3c 50 c6 2f 3d
       -0.039119363 -0.06061698 0.010424416 0.042913735
000320 4f 32 4a 3d 94 58 98 bb 5c 09 35 3d 91 9a 2a bd
       0.049364384 -0.004649231 0.04419838 -0.041651312
000330 36 71 99 bd eb d2 40 bd fa 81 99 3d cf ae 00 bd
       -0.074922964 -0.047076147 0.07495494 -0.03141671
000340 3b 13 81 3d e4 a8 4f bd 26 1d 8f bd e9 2c 62 bd
       0.06302496 -0.050698176 -0.069879815 -0.05521861
000350 52 67 59 bc 2d 36 98 3d 7a 86 70 3d 47 c3 a1 3d
       -0.013269262 0.07432208 0.058721997 0.07898574
000360 2c 5a 05 3c bc 4e 0d 3d 81 4b 17 bd e2 1f 97 bd
       0.008139174 0.034498915 -0.03693724 -0.07379128
000370 36 dd a2 3d 65 c0 d6 3c 0c 27 3d 3d 34 5c a5 3d
       0.07952349 0.026214788 0.046179816 0.08074227
000380 93 f6 89 bd f3 8f c3 bc 3b aa a3 3d f9 a8 b5 3b
       -0.067364834 -0.023872351 0.07991453 0.0055438248
000390 19 f3 63 bb ba 49 ce 3c 8a 30 99 bd e4 f9 29 3a
       -0.0034782349 0.02518164 -0.07479961 0.0006484075
0003a0 db e4 f8 bc 10 50 5c 3d f6 6c f6 bc 75 5e 9f 3d
       -0.030382564 0.05378729 -0.030081253 0.07781688
0003b0 46 92 f4 3c ec fc 5d bc c2 34 31 3d 7e 0e 4c bd
       0.029854905 -0.013549071 0.043263204 -0.04981851
0003c0 f9 4a f8 bc d3 80 5f 3d 1f 71 5d bd 3f 2c 92 bc
       -0.030309187 0.054566216 -0.05406296 -0.017843364
0003d0 ba 38 5f bd 8b 9f b8 3d 11 8d 9e bd cc 1b 18 bd
       -0.054497458 0.090148054 -0.0774175 -0.037135884
0003e0 de fe 77 3d f4 b3 43 3d 6b 64 2d bd d5 42 7e bc
       0.060545795 0.04777904 -0.042332094 -0.015518864
0003f0 4b 9c 62 bd fc e2 98 3d 35 03 8c 3d f8 82 72 bd
       -0.055324834 0.07465169 0.06836549 -0.059206933

layer1.bias f4 [256]
000000 49 1b 2b 3c cf 87 07 bc c1 3a 9b bd ab 76 2b 3d
       0.010443517 -0.008272125 -0.07579566 0.041861217
000010 de 08 ec bc 12 62 a6 3b 7f c4 4f bd f5 76 12 bd
       -0.028812822 0.005077609 -0.050724503 -0.035757978
000020 10 cc 1c 3c 73 cc 85 3d 5f d1 41 bd 37 e1 88 3d
       0.009570137 0.06533136 -0.047318812 0.06683581
000030 7f f5 9c 3c b7 f1 13 3d 89 5d 81 3d 98 cf 96 3d
       0.01916003 0.03611919 0.063166685 0.07363814
000040 a3 2c 81 bd 52 60 aa 3d b1 4c 19 3c 58 c8 13 3c
       -0.06307342 0.08319153 0.009356664 0.009019934
000050 d5 8b 4b 3d ae 34 c4 bb bc 56 50 bd f5 b2 a9 bd
       0.0496939 -0.005987725 -0.050863966 -0.082860865
000060 61 39 87 3c e0 b3 8b bd a3 c9 6c 3d 91 6c 3b bd
       0.016506853 -0.06821418 0.057809483 -0.045757834
000070 cf 05 89 3d 7c f1 8b bc 72 4f 9c bd e2 fe 57 3b
       0.06690561 -0.017082922 -0.076323405 0.0032958318
000080 3f 67 5f bc 32 32 bd bc 70 7a 35 3d 83 4a ae bd
       -0.013635456 -0.023095224 0.04430622 -0.08510306
000090 d3 68 3f 3d cc 46 0e bd 44 4f c2 3b dd ba aa bc
       0.046730828 -0.034735486 0.0059298594 -0.020841056
0000a0 39 d9 2a 3d a5 69 88 3d a6 0b 46 3d 96 76 b0 3d
       0.041711066 0.06660775 0.048350953 0.086163685
0000b0 9d 78 27 3d f8 70 0f 3d e2 b5 a3 3d ec 24 be 3d
       0.04088651 0.035019845 0.07993676 0.09284386
0000c0 83 79 d4 3d dd ea 64 3d 50 28 1c bd e0 77 32 bd
       0.10374739 0.055888046 -0.038124382 -0.043571353
0000d0 f0 3d 4d bc 5a b4 28 3c 0f 9b a6 3c e9 b9 57 bd
       -0.012526974 0.010296905 0.02033761 -0.052667532
0000e0 c1 a8 93 bd 52 db f2 3c 12 30 95 bd c2 7d 36 3b
       -0.07209922 0.029645596 -0.07284559 0.0027845954
0000f0 4a 7f 8d bd 7d 7f 85 3d cc 91 22 3d 94 4f 0f bd
       -0.06909044 0.06518457 0.039689824 -0.034988
000100 6f bd c2 3c 71 fe 9b 3d 98 73 87 3d 32 ba cb 3d
       0.02377197 0.0761689 0.06613845 0.09947623
000110 3e f9 f7 3d 0a 17 3b bd f4 ce 3d bc 91 e5 a0 3d
       0.12108086 -0.04567627 -0.011584986 0.07856286
000120 d9 ae 44 bd 6b 78 1e 3d b2 df a7 bd cd db a7 3d
       -0.04801831 0.03868906 -0.08196963 0.081962205
000130 ea 9f 94 bd 9c 21 dd 3b eb 42 7f 3d 22 f6 a4 3d
       -0.07257064 0.0067483913 0.062319677 0.080547586
000140 f3 d2 65 3d e9 bc 8c bd 9a c3 6b 3d 84 c6 16 bd
       0.05610938 -0.06871969 0.057559587 -0.036810413
000150 af c2 a3 bc fa fa 5b 3d b8 d7 d2 3d c2 f2 c8 3d
       -0.019990293 0.053706147 0.10295051 0.098119274
000160 91 f9 43 3d 3c 25 4f 3d 27 9a db 3c e0 82 3a 3d
       0.047845427 0.05057262 0.026806904 0.04553497
000170 e4 c3 b2 bd 6f 6a ff bb c2 99 ae 3d 8f c9 ac 3c
       -0.087287694 -0.0077946703 0.08525421 0.021092204
000180 29 12 fa 3b 9e c5 94 bd 9e db 26 bd 4b d7 f4 bc
       0.0076315594 -0.07264255 -0.040736787 -0.029887816
000190 c0 11 d2 bd 63 18 bf bc 1a 2a 51 3d 55 5d 5c 3b
       -0.10257292 -0.023327058 0.05106554 0.0033624966
0001a0 9e 6e 37 bc 37 d4 6c bd 8a 86 ff bb 6e c7 8e 3c
       -0.011195807 -0.05781957 -0.0077980207 0.01742908
0001b0 27 48 34 bd 55 c7 02 bd e8 71 31 bd 96 59 89 bd
       -0.044014122 -0.03192838 -0.04332152 -0.0670654
0001c0 c8 68 9f 3d 34 d2 a7 bc 89 cb 85 bd 14 36 0e 3d
       0.07783657 -0.020485975 -0.06532962 0.03471954
0001d0 6c 9f 64 3c c0 c0 ad 3d 67 09 04 bb c7 61 9a bd
       0.013954025 0.0848403 -0.0020147206 -0.07538181
0001e0 5d 3f 8e 3d 5d 96 f2 3c 03 12 18 bc 77 14 db bc
       0.06945679 0.029612714 -0.009281638 -0.026743157
0001f0 77 1a c9 bc ed 78 96 3c 49 90 26 bd ab 2c ea bc
       -0.024548752 0.018368209 -0.040664945 -0.028585752
000200 2e 9d ef bb c9 42 b1 bd 2e 97 90 3d 9c cb 08 bd
       -0.0073124385 -0.086553164 0.07060085 -0.033397302
000210 22 8f 42 3c 7f b5 37 3d 40 ba 99 bc 35 8a 46 3c
       0.011874946 0.044850823 -0.018765569 0.012117912
000220 af a4 ac 3b 8a 13 9b bd 46 10 84 bd 0d 5f 46 bc
       0.0052686553 -0.07572086 -0.064484164 -0.012107623
000230 a9 fb 58 3d d3 73 41 3d 08 68 bd 3c 03 09 78 3b
       0.052974377 0.0472296 0.023120895 0.0037847168
000240 59 92 9f 3d 11 37 92 3d 3b b0 5b bd e6 6a 94 3d
       0.077915855 0.07139409 -0.053634863 0.07246952
000250 26 af 1d bb f7 4e 09 3d f7 68 ce 3d 61 0b 6d 3d
       -0.0024060695 0.033522572 0.10078614 0.05787218
000260 6f 9d cf 3c e0 64 52 3d bf 60 a2 3c 39 a7 80 3d
       0.025343625 0.051365733 0.019821523 0.06281895
000270 e0 22 98 3d a6 73 74 3d 3f f9 4e 3d 4c 77 db bc
       0.07428527 0.059680603 0.05053067 -0.026790284
000280 9b a7 c4 3c f9 2a 74 bc 60 4f cc 3c e2 e3 16 3c
       0.024005702 -0.014902824 0.024940193 0.009209605
000290 3a 32 81 3d 9a 8b 77 3d 3a c9 0b 3c e5 54 aa 3c
       0.06308408 0.06043587 0.008531863 0.020792434
0002a0 d9 c0 8a bd 27 6c 53 3d 83 25 86 3d f7 a4 ab 3d
       -0.06775064 0.051616814 0.065501235 0.08381074
0002b0 09 09 90 bd df 39 23 bd f5 9d b0 3d 26 67 82 bd
       -0.07032973 -0.039850112 0.08623878 -0.0636733
0002c0 77 ba 73 3d ef d9 81 3d d8 34 eb bc 5f 97 56 bd
       0.059504 0.06340396 -0.028711721 -0.052390452
0002d0 38 d3 94 bd a8 31 8f bd c3 95 c4 bc fd c1 f5 3c
       -0.07266849 -0.06991893 -0.023997193 0.029999727
0002e0 fa 80 4d bd 88 19 48 3d 9c 9a 80 3d 29 da 67 3d
       -0.05017183 0.048852473 0.062794894 0.056604538
0002f0 77 73 8c 3d fc 9d 1e 3d 6b 2b 97 3d 76 1c 41 3d
       0.06857961 0.038724884 0.07381328 0.047146283
000300 22 13 05 bd 77 27 98 bd 36 ec 10 3d b0 82 69 bd
       -0.03248895 -0.07429402 0.03538152 -0.0570094
000310 78 8a cb 3c 66 8e 12 3c 18 a1 8f 3d c4 1e 9c bd
       0.0248463 0.008945083 0.07013148 -0.076230556
000320 40 85 75 3d 82 1d c8 3c 02 bc b5 bc 57 4d 96 3d
       0.05994153 0.024428133 -0.022184376 0.0733897
000330 77 6f 32 bd c8 6d 17 3d f6 bf a5 3c 91 6d d0 bb
       -0.043563332 0.03696993 0.020233136 -0.0063607176
000340 10 05 81 bd b9 90 62 bd 18 8c a5 bc 11 21 5a 3d
       -0.06299794 -0.0553138 -0.020208403 0.05325419
000350 88 93 89 39 cb da 18 3c 00 19 8d 3d bf 5a 9e 3d
       0.00026240596 0.009329508 0.06889534 0.07732152
000360 46 8e c1 3d 0b 4b f3 bb dc 1c 36 bd 6b 99 aa bc
       0.09450965 -0.0074247173 -0.044461116 -0.020825109
000370 55 a7 67 3d 6d ee b5 bb 14 8d 85 3d 84 ac 7a 3d
       0.056556065 -0.005552104 0.06521049 0.06119968
000380 3e 25 42 bd b6 08 72 3d 0e f4 2a bc 88 20 0b bd
       -0.0473988 0.05909034 -0.010434164 -0.03396657
000390 ed ce 5a 3d e7 00 a7 3d b9 8a 95 3d 55 e2 a3 3c
       0.053419996 0.08154469 0.0730185 0.020005384
0003a0 38 a9 4a bd ad 36 67 bd a8 bf d9 bc 1d b1 a7 3d
       -0.049477786 -0.056448627 -0.026580647 0.081880786
0003b0 a6 2f a3 3d 3f 5a 9d bc 85 ce 8d bd 16 7a d0 bc
       0.079680726 -0.019208072 -0.06924156 -0.02544884
0003c0 ec 5c c4 3c c7 a6 23 bd 03 cb 10 bd 52 63 9f 3b
       0.02397009 -0.039953973 -0.035349857 0.004864135
0003d0 ed 97 cf bd 2b 44 5a 3d 99 5f 32 bd 95 2f e3 3c
       -0.101363994 0.053287666 -0.0435482 0.02773265
0003e0 a1 52 a2 bc 05 86 48 3d 27 43 66 bd 92 b0 da 3c
       -0.019814791 0.048955936 -0.056216385 0.026695523
0003f0 86 bc d6 bc b4 22 69 bd a0 89 50 3d e3 ef b5 3d
       -0.026212942 -0.05691786 0.0509125 0.088836454

layer2.weight f4 [256, 256]
000000 1f 60 b9 3d 81 e1 13 3d 2a 07 32 3d b8 db b6 3b
       0.09051537 0.03610373 0.043463863 0.0055803917
000010 da ef 38 bd 58 2a 77 bd 84 c4 e0 bc 9d 23 46 3c
       -0.045150615 -0.060343117 -0.027437456 0.012093452
000020 99 e7 e4 3c 99 d6 6b 3d f9 e4 1c 3c 48 c5 01 3d
       0.027942466 0.057577703 0.009576076 0.031682283
000030 aa 6c 88 3d 1e da fb bb cd 7e 23 3d 67 ea 5d bd
       0.06661351 -0.0076859137 0.03991585 -0.05417862
000040 c8 ef 1b bb 93 20 28 3d d1 63 c1 bc 39 32 25 bc
       -0.0023794044 0.04104669 -0.023607166 -0.010082775
000050 90 20 33 3d 36 ce 17 bd 82 72 39 bd 92 b9 2c bd
       0.043732226 -0.037061892 -0.04527522 -0.04216916
000060 71 25 7d 3c 8f 0d 77 3d 2a c6 48 3d 03 85 47 bd
       0.015450821 0.060315665 0.04901711 -0.048710834
000070 b8 ad 0f 3d b2 cd ed bc fa 37 8b bd 46 74 36 3d
       0.03507778 -0.029028747 -0.06797786 0.04454448
000080 00 86 5f bd 9a 82 5b bd 7b 90 74 3d fa 3d 5e bd
       -0.05457115 -0.05359135 0.0597081 -0.054258324
000090 f9 9c ab 3a a0 b7 4b 3d d6 87 2f bd 0a f6 8c 3d
       0.0013093046 0.049735665 -0.042854153 0.06882866
0000a0 7c 14 67 3c a5 41 26 bc 1b 5a 3e 3d 8a 98 6c bc
       0.014104005 -0.010147487 0.04647265 -0.014440665
0000b0 9f f0 7e bd 43 e3 84 3c b6 90 85 bd 37 3c 2e 3d
       -0.062241193 0.016221648 -0.06521742 0.042537894
0000c0 f5 7a 20 3d 45 ab 9f ba bb 05 83 3d 9f a6 06 3c
       0.03917976 -0.001218178 0.063975774 0.0082184365
0000d0 04 4a 75 3c 3b 2d 11 3d e9 04 3d bc 5a d9 51 bd
       0.01497126 0.035443526 -0.011536815 -0.051232673
0000e0 a6 db 3b 3d 1d 83 0d 3d ad 1d 56 bd 17 27 5f bd
       0.04586377 0.034548867 -0.052274395 -0.05448064
0000f0 97 2a 93 bd 5d db 70 bd ea 2e 6b bd a0 19 43 3d
       -0.07185858 -0.05880295 -0.057417788 0.04763186
000100 40 db 24 3d c4 f2 42 bd 13 3d c0 3b 8b 86 af 3d
       0.040248156 -0.0475948 0.0058666556 0.08570584
000110 9a 42 4e 3d 88 58 c4 3b a6 c1 09 3a 6c 77 3c bc
       0.050356485 0.005991999 0.0005254991 -0.011503082
000120 e3 3b f0 3c 4a 00 51 3d 82 1f 2a 3c 6f d6 8e bc
       0.029325431 0.051025666 0.010383489 -0.017436234
000130 b2 56 f5 bc c2 14 bd 3c ab 60 04 bd 38 f3 1b 3c
       -0.029948566 0.023081187 -0.032318752 0.009518437
000140 a1 d7 57 bd 06 51 73 bc ab ff 88 bd 77 d2 0c bd
       -0.052695874 -0.01485086 -0.0668939 -0.034380402
000150 57 bb e7 3c 20 93 c2 3c 06 b5 c2 3c ef 9d 64 bb
       0.028287573 0.023751795 0.02376796 -0.0034884175
000160 ec 5c ee 3c 21 43 4a bd 45 da bb bc c7 a9 19 bc
       0.029097043 -0.049380425 -0.022931227 -0.009378857
000170 4f f0 de 3c 24 2d 53 3d 05 8f 39 3c e7 7f 57 3d
       0.027214197 0.05155672 0.011325602 0.05261221
000180 4c 05 59 bd 05 8f 4e 3d 47 7a b9 bd ef b7 08 3c
       -0.052983567 0.050429363 -0.09056526 0.008344634
000190 90 f4 50 3d 7e 9a 14 3d 9f 20 2e 3d 4e 80 0e bd
       0.051014483 0.036280148 0.04251158 -0.03479033
0001a0 0f 15 9f bc 3d 0a 2e bd 76 e2 bf bc fc 03 ff 3a
       -0.019419221 -0.042490233 -0.023423415 0.0019456143
0001b0 43 96 17 bd 89 16 6b 3d b4 15 b4 3d 92 2c 88 3d
       -0.037008535 0.057394538 0.08793202 0.06649126
0001c0 21 1d 6f bb 2e c3 cf bc 33 b6 76 3c ef 1e 83 bd
       -0.0036485868 -0.025361624 0.015058088 -0.064023845
0001d0 a4 90 45 bb 4f e5 8c 3d fc 21 4a 3d d9 94 2f bc
       -0.0030146027 0.06879675 0.049348816 -0.01071664
0001e0 58 35 6c 3d dd 92 fa 3c e7 68 50 bd 57 d5 8d 3a
       0.05766806 0.030587608 -0.050881293 0.0010821027
0001f0 45 62 4c bd 0d 58 2c 3c 44 1a 27 bd c9 1d b1 bc
       -0.049898405 0.01051904 -0.040796533 -0.021620648
000200 ca 23 8c 3c 17 22 23 bc 94 11 0d bd cc b3 80 bc
       0.01710691 -0.009956858 -0.034440592 -0.015710734
000210 63 50 78 3c 1a 1e 82 3d 0e 4c df 3c 80 9f 65 bc
       0.015155884 0.06353398 0.027257945 -0.014015079
000220 10 4b 8d 3d 3a a6 10 3d 06 e1 46 3d b5 5e 5e bc
       0.06899083 0.035314776 0.048554443 -0.013572385
000230 73 b4 64 3d a2 1a d7 bb 0c b0 d0 3a e8 e6 22 bc
       0.055836152 -0.006564454 0.0015921607 -0.009942748
000240 6d 21 ca bc 22 06 02 3d 17 c8 d3 bc 02 bf e6 3c
       -0.024674142 0.03174413 -0.025852246 0.028167251
000250 c0 af 2a bd c9 33 ef 3c 20 74 5a bd 14 a4 b0 bc
       -0.041671515 0.029199498 -0.0533334 -0.021562614
000260 c8 15 84 3c ab d9 7c 3c 19 a5 c7 bd 44 35 9b 3b
       0.016123667 0.015432755 -0.09748287 0.0047365744
000270 a4 31 71 bd 6a 85 56 b9 a9 88 51 bc a4 f4 ea 3b
       -0.05888523 -0.00020458331 -0.01278893 0.0071702767
000280 80 b2 5c bd 12 10 3b 3c e2 e2 8e bc 38 64 2d bc
       -0.05388117 0.011417406 -0.01744217 -0.010582976
000290 99 ca 72 bc 36 e3 03 ba bc 41 e9 3b 95 c5 ad bc
       -0.014818811 -0.00050311105 0.007118432 -0.021212379
0002a0 eb 30 c3 bc e2 16 59 3d b3 21 c8 bc dd b3 ea bc
       -0.023827037 0.05300034 -0.024430132 -0.028650219
0002b0 3c a7 01 bd 6d e8 25 3d a3 8b 41 bd 85 e5 78 bd
       -0.031653628 0.04050486 -0.04725231 -0.060765762
0002c0 18 1a 31 3b d2 bf 3a 3d 6d 98 7d 3d f2 46 22 bd
       0.002702361 0.04559309 0.061912943 -0.03961844
0002d0 f1 30 1b bd 00 e4 f2 bc 43 42 68 3d 48 8b 1b ba
       -0.03788847 -0.029649734 0.056703817 -0.0005933535
0002e0 bc d6 63 bd 22 6e 7d 3d 22 e2 0c 3c 45 68 64 bd
       -0.05562471 0.06187261 0.008598836 -0.0557635
0002f0 4d 86 42 3d 41 cf 9c 3d e0 8f 24 3d d1 21 81 bc
       0.04749136 0.07656718 0.040176272 -0.015763195
000300 eb 26 a0 3c 97 82 c7 bd 73 2f 40 bd b5 51 2a 3d
       0.019549808 -0.09741705 -0.04692025 0.04158183
000310 eb 8a 46 bd d8 6e bb 3c 6a a3 96 3d 82 e5 66 bd
       -0.048472326 0.022880003 0.073553875 -0.05637122
000320 3b 59 e7 bd 23 d2 00 3d fb b7 23 bd 4c 67 91 bc
       -0.11296316 0.031450402 -0.03997038 -0.017749451
000330 f0 19 99 3c e4 05 c6 3b a0 df 31 3d 1c 27 53 bd
       0.018689126 0.0060431827 0.043426156 -0.05155097
000340 8b d7 18 3c 6c 7e 27 3d 90 3c e5 bc f3 d4 ce bc
       0.009328733 0.04089205 -0.02798298 -0.025248026
000350 a8 e9 1b 3c cd a3 f4 bd 58 c2 6b 3c f4 10 0d bd
       0.009516157 -0.11945305 0.014389597 -0.034439996
000360 4c 7b d2 bc 32 ca 25 bd 06 9b b9 3d e4 97 2d 3b
       -0.025693558 -0.04047603 0.090627715 0.002648824
000370 1e 34 b1 3c 94 92 25 3c 8c a8 d1 3c fc 9d 6b bd
       0.021631297 0.010105748 0.025593065 -0.057523713
000380 c1 8f 4c 3d 54 d5 56 bb a8 d2 c1 3c e0 6f 23 3d
       0.049941782 -0.0032780962 0.023660019 0.039901614
000390 65 15 6c 3d 0f fd fc 3c 32 3c 2e bd 44 cd 1f bd
       0.05763759 0.030882386 -0.042537875 -0.039014116
0003a0 8c 6d 24 be c6 ff cc 3c 9c d4 22 bc a8 bb 9a 3c
       -0.16057414 0.025024306 -0.009938385 0.01888831
0003b0 04 9a 24 bc c1 33 63 bd c0 8c 1c bd d7 25 ef 3a
       -0.010046486 -0.05546928 -0.038220167 0.001824553
0003c0 5b e9 8a 3d 38 2c 7e 3d 84 6b ba bd 6a c0 3a bd
       0.0678279 0.06205389 -0.09102538 -0.045593657
0003d0 2f a7 41 3d 94 a4 85 3c d2 6a e8 3b 30 c5 7e bb
       0.04727858 0.016313829 0.007092812 -0.0038874857
0003e0 28 35 ae bc 34 42 fd 3b 2a ac 40 3c d8 3c 27 3d
       -0.021265581 0.0077288393 0.011759797 0.04082951
0003f0 4b 5f 22 bd 9c e9 26 bb a9 da 1b 3d ed 4e 77 bc
       -0.03964166 -0.0025468832 0.038050327 -0.015094501

layer2.bias f4 [256]
000000 97 6b 08 bd 2c 7f 30 3d e4 d2 6e bd 26 f5 4a bd
       -0.03330573 0.04309003 -0.05830659 -0.049550198
000010 bc c0 63 bd c5 a0 eb 3c 02 86 64 bb d4 b8 87 3b
       -0.055603728 0.028763184 -0.0034869914 0.0041419063
000020 ec ab 3c 3d 54 0b 97 bc 15 88 87 3d 8a d6 0e 3d
       0.046062395 -0.018438019 0.066177525 0.03487257
000030 16 d5 6d 3d 9e 22 2b bd df 13 38 3d 28 63 35 bd
       0.058064543 -0.04178106 0.044940826 -0.044284016
000040 9c f9 2d bd 2b 67 69 3d 1b e6 d3 3c 46 39 9e 3c
       -0.042474374 0.056983154 0.025866559 0.01931442
000050 7d c8 8a bc 5e ea 7e bd c5 4a 13 bd ca 7d a2 3c
       -0.016941303 -0.06223523 -0.035959978 0.019835372
000060 bd 74 62 3d f6 39 01 3d 46 5c 63 bc 8a d7 21 3d
       0.05528711 0.031549416 -0.01387698 0.039512195
000070 d8 6e cc ba 77 f0 fe 3c 47 e5 82 3d 20 c5 1d bd
       -0.0015596999 0.031120522 0.063913874 -0.03851807
000080 89 85 61 bd f0 76 03 3d 8d 9c 74 3d 36 0c 39 3d
       -0.05505899 0.03209585 0.05971961 0.04517766
000090 2c 50 08 bc 4f 22 75 bd 1d e5 8d 3c 63 97 95 3c
       -0.008319896 -0.059847172 0.017321164 0.018260663
0000a0 d3 ea 20 bd 04 3a 32 bd d2 ae b6 bc 45 73 27 3d
       -0.039286446 -0.04351236 -0.022300158 0.040881414
0000b0 4d 30 19 3d 30 99 90 bb 97 cf 8b 3d 2f 5e a4 bc
       0.03739958 -0.0044127926 0.06826704 -0.020064441
0000c0 7a 5d 37 bc 19 8e 22 bd 81 3b a3 3d 4f e2 c3 3b
       -0.01119172 -0.039686296 0.07970334 0.005977906
0000d0 b9 75 a5 3c c7 2e d1 3b 6f 71 45 3d ac 88 5d ba
       0.020197736 0.00638375 0.04820388 -0.00084508467
0000e0 a7 2d 96 3c 8e b2 d0 bc c6 64 19 bd 4b df 3a bd
       0.018332316 -0.025475767 -0.03744962 -0.045623105
0000f0 6b 92 1e 3d fa 86 8f bb 45 a7 94 3d 92 88 0a bd
       0.038713854 -0.004380104 0.07258467 -0.03382165
000100 f2 f2 2f 3d 50 7d 25 bd fa 9c 18 bd f6 80 85 3d
       0.0429563 -0.04040271 -0.03725908 0.06518738
000110 13 a0 87 3d 60 8f 8c 3a d7 d1 65 bd 72 42 f2 bc
       0.066223286 0.0010723881 -0.056108322 -0.0295727
000120 cb 6c 9a 3c f1 58 a9 bc ed 93 60 3d 32 45 86 3c
       0.018850705 -0.020672293 0.054828573 0.016390417
000130 5f aa a6 bc 2e 6d a9 3c 99 72 8a 3d 7a ca 0f bc
       -0.020344911 0.020681944 0.06760139 -0.0087763015
000140 57 0b 8d 3b ba 7a fb ba 27 c4 f9 3c 9f 2a 24 3d
       0.0043043303 -0.0019186356 0.03048904 0.04007971
000150 35 8c 6c bc 0f 0e 6d bd 22 33 75 bd 9c e0 20 bd
       -0.014437725 -0.057874735 -0.059863217 -0.039276704
000160 c0 a2 1d bd 6c c6 fd 3c cf 46 2f bd 51 b9 02 3c
       -0.03848529 0.030978404 -0.042792138 0.007978753
000170 e0 9b 65 3c 8e c6 9f bb 93 0a 21 bc 34 09 96 bc
       0.014014214 -0.0048759645 -0.009829181 -0.018314935
000180 f4 a4 a5 3d c8 c6 37 bd 73 e7 1a 3d af 37 1d 3d
       0.08088103 -0.044867307 0.037818383 0.038383182
000190 fb 2a bf 3c f3 55 b9 3c 66 78 da 3c 76 69 79 bd
       0.023335924 0.022623992 0.026668739 -0.06089159
0001a0 66 7b d9 bc 8a a3 8e bc 17 86 6a 3d 60 15 d4 3c
       -0.026548099 -0.017411966 0.057256784 0.025889099
0001b0 1c 16 49 3d 5c 52 c3 bc ac 2f 8b bd 2f 59 5b bd
       0.04909335 -0.023842983 -0.06796202 -0.05355185
0001c0 70 52 98 3c 89 c1 82 3c 83 91 e1 bc 48 cd 0c 3d
       0.018593997 0.015961425 -0.027535206 0.03437546
0001d0 15 35 9b 3b 55 8c 66 bc c4 6d d0 bc 3c f1 27 bc
       0.0047365525 -0.014071544 -0.025442965 -0.010250386
0001e0 3f bf 82 bd c6 b9 0d 3d 7f 50 13 bd b5 39 c9 3b
       -0.063841335 0.034600995 -0.03596544 0.0061409124
0001f0 49 5f 49 bc 02 22 82 bc ba bb 4f bd 58 75 5c 3b
       -0.012290784 -0.015885357 -0.05071614 0.0033639278
000200 b3 07 88 3d bf 12 d5 bc 26 09 98 bc f4 70 ec 39
       0.066420935 -0.026009915 -0.01855905 0.00045097584
000210 80 ca a1 3c 09 27 aa 3c 0b 6a 60 bc 50 94 1f 3d
       0.01974988 0.020770567 -0.013697158 0.0389598
000220 10 71 9c 3c eb 70 f3 bc 1a 0b 5c 3d 20 fc 1d bc
       0.019096881 -0.02971693 0.053721525 -0.009642631
000230 55 5b c1 3c fd c1 e6 bc 3f 3f 0e 3d 32 68 76 3d
       0.02360312 -0.028168673 0.034728285 0.060157962
000240 d7 16 1f 3c 70 03 8d 3d 20 62 3b bc bf d6 c9 3c
       0.009710035 0.06885421 -0.011436969 0.024638532
000250 30 f0 19 3c e2 9b 7d bd 26 76 32 bd 14 8e 2f 3d
       0.009395644 -0.06191624 -0.043569706 0.042860106
000260 81 b1 82 3d 74 ae 44 3b 6e 5a 5c 3d 79 dd 2d 3d
       0.063815124 0.0030011209 0.053797178 0.04244754
000270 b6 a7 95 3a a4 23 3a 3d e2 18 2c 3d 71 18 13 3d
       0.001141778 0.045444146 0.042015918 0.03591198
000280 a3 8a 6c bb 3c 8e a6 bc 22 54 41 3d a2 f4 59 3d
       -0.0036093376 -0.020331495 0.047199376 0.053211816
000290 e7 f2 8a bb a7 c4 38 bd 20 6f 2c 3d 8f 8a a0 3c
       -0.004240382 -0.045109417 0.042098165 0.01959732
0002a0 c6 69 15 bd 71 7f 30 bd 6b 13 93 3c b5 af 5a bd
       -0.036477827 -0.043090288 0.017953595 -0.053390224
0002b0 b3 38 38 bd f6 57 f4 bb 60 64 6e 3b 6d c6 44 bc
       -0.044975948 -0.007456775 0.0036375746 -0.012010199
0002c0 0d 91 21 3d 47 10 25 bd b0 b7 4e bd 30 ab d0 3c
       0.03944497 -0.040298726 -0.050468147 0.025472254
0002d0 31 c3 29 bc 40 04 32 3c f1 ed 26 3d 37 17 f4 3c
       -0.010361479 0.010865271 0.040754262 0.029796226
0002e0 d8 cf 3b 3c 2a ad 86 bd 5d 99 25 3c c0 70 20 3d
       0.011463128 -0.06575997 0.010107365 0.039170027
0002f0 29 fc 49 bd 42 84 64 3c 39 b0 ab 3d 72 33 72 bd
       -0.049312744 0.013947548 0.08383221 -0.059131093
000300 86 d6 46 bd 5a 98 40 bd b8 b0 30 3d a4 cd 90 3d
       -0.04854443 -0.047020294 0.043137282 0.07070473
000310 a4 bf 6a 3d e7 2f 83 3d f0 17 43 3d 0e 43 c4 3b
       0.05731167 0.06405621 0.04763025 0.005989439
000320 1e 17 4c bd d9 01 13 bd 3c e1 32 bd d4 7d 24 bc
       -0.049826734 -0.035890434 -0.04367183 -0.010039765
000330 04 d6 fd bc 99 a8 9a bd 60 b5 ed bc 5e 52 92 3c
       -0.03098584 -0.07551689 -0.02901715 0.017861541
000340 cf c4 36 bd a0 8e 4b 3d 0e e8 78 bd 86 8c 3f bd
       -0.044621285 0.049696565 -0.06076818 -0.046764873
000350 9c 07 7c bc 42 7d 01 3d ae 9d 42 bd 59 68 11 3c
       -0.015382674 0.031613596 -0.047513656 0.008874976
000360 cb 8f 98 bc 9c 0a 4d bd 39 95 d0 3b 2f 19 28 3d
       -0.018623253 -0.050058946 0.006365445 0.041039642
000370 ab dd 2a bd 2e de 56 bd 07 25 88 3c 5f 71 3b 3d
       -0.041715305 -0.05245798 0.016619219 0.045762416
000380 26 02 18 bd 5d b8 54 bd 02 92 67 3d 92 b5 dd 3c
       -0.037111424 -0.051933635 0.05653573 0.027064119
000390 b0 98 f9 bc f1 c9 8c 3c 97 0d 3b bd e3 8f 06 bd
       -0.030468315 0.017186137 -0.045667257 -0.032852065
0003a0 12 1d 15 3c 3e c0 11 bd 9e 9a 3c bd f7 a7 5d 3d
       0.009101169 -0.035583727 -0.046045892 0.054115262
0003b0 a3 77 4a bd 17 f4 40 bb 37 fd e5 3c b6 6d 9d 3b
       -0.0494305 -0.0029442364 0.028074844 0.0048043383
0003c0 21 aa 8c 3d d9 69 3a bc 0a 9b 6e 3d c7 75 62 3d
       0.06868387 -0.011377775 0.058253326 0.055288102
0003d0 04 4c ec 3c 63 31 f4 3c 98 69 63 3d 5b fc 88 3c
       0.02884484 0.029808706 0.055520624 0.016721895
0003e0 f1 b1 bf bb 7f ee ae bc 84 3a 24 bc 93 12 6e 3d
       -0.0058500697 -0.021353958 -0.010023717 0.058123183
0003f0 db 71 92 3c e1 c0 2b bd 86 f5 81 3b d6 2a 57 bd
       0.017876556 -0.04193199 0.0039660363 -0.052531086

layer3.weight f4 [256, 256]
000000 3e be eb 3c 9e 26 e6 bc 5b f0 67 bd 8d 64 2c bc
       0.028777238 -0.028094586 -0.056625705 -0.01052202
000010 64 0c 6c bd fd f7 33 bd 82 b4 16 3d 42 7a 5a 3d
       -0.057629004 -0.043937672 0.03679324 0.05333925
000020 01 0f c9 bd f2 66 6c 3d c8 80 02 3d c7 bc 7b bd
       -0.09817315 0.057715364 0.031861097 -0.06145933
000030 02 be 3c 3c 2f 81 a9 3c 55 47 04 bd 04 6f be 3b
       0.011519911 0.020691482 -0.03229459 0.005811574
000040 4d 98 cf bc 88 ef 3c 3d a5 6f 34 3d 24 8f a9 3c
       -0.025341177 0.046126872 0.044051785 0.020698138
000050 33 60 53 3d f3 26 13 3d 85 1f 2d bd 98 e9 7d 3c
       0.051605415 0.035925817 -0.042266387 0.015497588
000060 0a c2 d3 3c d0 98 fa bc d4 52 7a bd cc c6 69 3d
       0.025849361 -0.030590445 -0.061114147 0.057074353
000070 76 2f 7c bd d9 cb 17 bc 28 37 94 bb 1f 5d 23 3d
       -0.0615687 -0.00926491 -0.0045231767 0.03988373
000080 39 27 91 bc 76 64 2f bd 95 94 53 bd b7 5a 85 bd
       -0.017718898 -0.042820416 -0.05165537 -0.06511443
000090 92 66 1f bb 16 40 39 3c 00 5d 0c bc 92 2d 2e bd
       -0.0024322611 0.011306783 -0.008567095 -0.042523928
0000a0 eb 1a 66 bd bc 72 a2 3b 72 1f f6 bd ba 0c e9 3c
       -0.056178015 0.004957525 -0.120177165 0.028448451
0000b0 76 3d 0f 3d 01 a8 64 bb e0 11 40 bd f9 b2 b5 3a
       0.034970723 -0.0034890177 -0.046892047 0.0013862542
0000c0 1a 46 25 bd 9c 4f 72 bd b1 e9 eb bd 30 2d 0a 3d
       -0.040350057 -0.059157953 -0.115191825 0.0337345
0000d0 99 68 12 3d 1b e1 5c bc ff f4 47 bd d4 67 02 bd
       0.035744283 -0.013481404 -0.04881763 -0.0318373
0000e0 92 a9 0a bd 0a da 28 3d 59 86 e6 bc c5 ed bd bd
       -0.03385312 0.041223563 -0.028140234 -0.092738666
0000f0 5b 68 5f 3c fc ea 1d 3d 1d c9 c8 bc 31 dc 4e bd
       0.01363572 0.038554177 -0.02450996 -0.05050296
000100 bf dd 47 bc 50 88 e3 bc 1c b0 40 3c fc dc 51 3d
       -0.0121988645 -0.02777496 0.011760738 0.051236138
000110 d0 d8 f5 3c 7e 0f 3b bd 09 4d 69 3d 35 a8 87 bc
       0.03001061 -0.04566907 0.056958232 -0.0165597
000120 18 00 ba bc 6e d0 7a 3d 0d 8b 29 bd 55 14 1d bd
       -0.022705123 0.06123393 -0.041392375 -0.03834947
000130 2f 6b fb bb 51 e9 50 bd 00 a4 fe bc 54 a2 05 bd
       -0.0076726894 -0.051003758 -0.03108406 -0.03262551
000140 2c f8 16 3b e4 bc a1 bc f7 51 61 3d 10 b0 61 3d
       0.0023036106 -0.01974339 0.05500981 0.055099547
000150 af 1c 43 3d bc f8 66 3d 08 eb 58 3b 15 3a 2f 3c
       0.047634777 0.056389555 0.0033099074 0.010695
000160 dc e6 c1 bc 7a b6 63 bb 27 9c 99 bb 8a 80 06 3d
       -0.023669653 -0.0034746216 -0.0046878043 0.03283743
000170 39 18 f8 ba 47 58 b7 3b bd fc 04 bd 37 5e a6 bb
       -0.0018928117 0.0055952403 -0.032467593 -0.0050771493
000180 f7 b7 16 3d 41 9c 4e 3d 8f 39 8c 3c b4 a3 51 3d
       0.036796536 0.050441984 0.01711729 0.05118151
000190 ba c3 0f 3c 5e 12 c6 bb 80 54 90 3d 7e 10 53 bd
       0.008774692 -0.00604467 0.07047367 -0.0515294
0001a0 fb 3d 51 bd 7e a3 6e 3d 38 e4 6e 3d a7 d3 1a 3d
       -0.0510845 0.058261387 0.058323115 0.037799504
0001b0 9c bb 38 bd cf ec 16 3d ba fb c7 3c 9a a4 13 3d
       -0.045100793 0.036846932 0.024412025 0.03604565
0001c0 dd 87 05 3d b4 d4 98 3c 0e 1a 84 3d d6 76 02 3d
       0.032600272 0.018656112 0.06450282 0.031851612
0001d0 3a 53 00 3c 17 62 89 3c c8 85 63 3d 7e c3 ca 3c
       0.007832343 0.016770406 0.055547506 0.024751421
0001e0 cb 03 05 3d 78 de 2d bd a3 78 d6 3b 59 74 68 3d
       0.03247432 -0.04244849 0.0065451427 0.056751583
0001f0 0b 92 ba 3c 84 f8 1b bd b0 43 5c bc cb 0e 72 bc
       0.022774717 -0.0380788 -0.013443872 -0.014774035
000200 f7 34 8b bc a9 b5 19 3c 37 f7 a6 ba a8 ab 6a bc
       -0.016993029 0.00938169 -0.0012738471 -0.014323153
000210 74 46 0d bd 8f de 0f 3d e7 53 10 3d 58 59 1b bc
       -0.034491017 0.035124358 0.035236266 -0.00948175
000220 48 6a 64 bd dd d6 a5 bc 1c a4 5f bd e0 35 96 bd
       -0.05576542 -0.020244056 -0.054599866 -0.073344946
000230 33 86 89 3c 24 ed f9 3c 6d c7 1a 3d b2 a4 65 bd
       0.016787624 0.030508585 0.037787843 -0.05606527
000240 e9 ea 03 3d 72 18 3d 3d a6 ba 70 3d 9f 5c 65 3d
       0.03220645 0.04616589 0.05877175 0.055996533
000250 b0 35 49 3d 01 05 56 3d 0e c4 cd 3b e0 9a 6a 3b
       0.049123466 0.052250866 0.006279475 0.003579788
000260 93 05 b8 3c c3 33 68 3b 1e 86 ad bb a9 8a 9d bd
       0.022463595 0.0035431243 -0.005295529 -0.07692463
000270 2b 6b 0d bd 4e 49 ff bc 22 b3 02 3b 0b 9b 1f bc
       -0.03452603 -0.031162884 0.0019943197 -0.009741555
000280 fc e3 6e 3c ed f0 32 3b 82 e6 27 3d 66 1c 20 bd
       0.014580723 0.0027304247 0.040991314 -0.039089583
000290 fd fd 5e bb 7d e7 66 bc 76 e8 4f bd 99 f5 89 3c
       -0.00340259 -0.014093277 -0.0507588 0.016840743
0002a0 61 dd 3e bd 0f 7b b5 3c 18 0d fd 3d 23 4a 88 3d
       -0.046597842 0.022153405 0.12356013 0.066547655
0002b0 53 a1 f8 bb 0b 6f de bc dd fc 09 3d a2 5b d1 bc
       -0.0075875907 -0.027152559 0.033688415 -0.02555639
0002c0 13 57 42 bd 80 66 8c bb 5c be 97 bc ae a1 60 3c
       -0.04744632 -0.00428468 -0.018523388 0.013710422
0002d0 9d a2 58 3d d4 d6 5e 3d eb 11 8e 3d ac 40 62 3d
       0.052889455 0.054404095 0.06937011 0.055237457
0002e0 a3 ad 23 3c 52 a5 37 3d f9 b5 b9 3c df 0e 85 3b
       0.009990129 0.044835396 0.02266978 0.0040606107
0002f0 d2 4c 4d 3d 56 08 64 3c f0 17 62 3d 5c 95 21 3d
       0.05012209 0.013918003 0.05519861 0.03944908
000300 b6 47 9d bd 4e 4f 2b bc 1b 71 8a 3d db 90 8a bb
       -0.076796934 -0.010455919 0.067598544 -0.004228694
000310 78 1d 07 bd 86 9b 8f bd 39 ee 81 3d 18 de 34 3d
       -0.032987088 -0.070120856 0.063442655 0.044157118
000320 60 7f 46 bd aa c9 3b 3c 9a 51 4b bd 48 ae cb bc
       -0.048461318 0.011461655 -0.04963837 -0.024863377
000330 00 52 a9 3c 2b 2a af bd 5c 8d c0 bc 12 4a 49 bb
       0.020668983 -0.08552965 -0.023504905 -0.0030714315
000340 0b 34 08 3d 77 b3 9f 3c 6a a6 4a bb cc 21 92 bc
       0.033252757 0.019494755 -0.0030921944 -0.017838381
000350 5b af af bc 3b ca 6d bd 24 a2 fb bb c0 74 a0 b9
       -0.02144592 -0.05805419 -0.007679241 -0.00030604564
000360 62 04 a2 bc 3c 9e a5 bb 95 c8 35 bd f7 64 74 3d
       -0.01977748 -0.0050542634 -0.044380743 0.0596666
000370 0a 86 7a bd 0f ee a6 3d a7 ce d0 3c c6 50 83 3d
       -0.061162986 0.08150875 0.025489165 0.06411891
000380 11 71 57 bc e5 c4 8e bd d5 9c 2c bd 7b d8 96 3d
       -0.013149516 -0.069711484 -0.042141754 0.07365509
000390 24 7d a5 3c 30 4a 22 3d 6a 31 a6 3d 84 ca de 3a
       0.020201273 0.039621532 0.08114894 0.001699761
0003a0 4d 32 59 3d 99 e0 5c 3d 14 45 39 3d 37 58 f9 3c
       0.053026486 0.05392513 0.045231894 0.030437572
0003b0 11 06 56 3d 15 67 71 bd 9d b7 2e 3d 48 55 74 3d
       0.05225188 -0.058936197 0.042655576 0.059651643
0003c0 79 5c 46 3d 5e 2b 88 3c a8 6e 66 3d 17 82 8f 3d
       0.048428033 0.016622242 0.056257874 0.070072345
0003d0 73 5b 59 bd 08 09 27 3b d4 5d e2 3c 81 ac b5 bc
       -0.05306573 0.002548756 0.027632631 -0.022176983
0003e0 e0 92 ba 3c 88 c0 20 bd b2 75 a6 3d 04 35 90 3d
       0.022775114 -0.039246112 0.08127917 0.07041362
0003f0 ba 39 18 3d b1 a3 8f 3c 26 bf 6a bd a1 bd 58 3d
       0.037164427 0.017534109 -0.0573112 0.05291522

layer3.bias f4 [256]
000000 89 12 f4 3c 23 28 3a 3b 18 88 76 bd 52 8d 4b 3d
       0.029793995 0.002840527 -0.060188383 0.04969532
000010 d6 19 72 3d bb a1 8f 3d 29 c8 2e bd 94 9a 89 bc
       0.05910667 0.070132695 -0.042671356 -0.016797341
000020 4e 3a 40 3d 21 64 9f bc c6 ed aa bb 61 b9 d4 3c
       0.046930604 -0.019456925 -0.005216333 0.025967302
000030 c7 a2 2f bd ce 57 67 bd 5e e3 30 bd 23 c9 94 bc
       -0.042879846 -0.05648022 -0.043185584 -0.018162316
000040 8e 09 55 bd d3 d0 40 bd 9b a7 8d bc 9b 8e ba bc
       -0.052011065 -0.04707415 -0.017291835 -0.022773078
000050 ca 21 fe 3c 60 df ff 3c a2 19 df bc 24 31 ec 3c
       0.031021971 0.031234443 -0.027233902 0.028832026
000060 e2 2e 4c bd 95 d7 08 bd d8 96 26 bc 48 c7 7a bb
       -0.0498494 -0.03340872 -0.0101678 -0.0038265754
000070 1e 3c 75 bd 6b fa 9e 3d e2 e3 9f bb 19 b2 9e 3c
       -0.059871785 0.07762607 -0.0048794607 0.019372033
000080 3b 16 2b bd 60 c9 65 3d f5 c8 1e bd 47 f1 e4 3c
       -0.041769248 0.05610025 -0.038765866 0.027947081
000090 8a c1 dd bc 09 4e a5 bc 01 aa 88 3b c7 3d f1 bc
       -0.027069826 -0.020178812 0.0041706567 -0.029448403
0000a0 50 5c ed bb af 1a 20 3d d8 8e 6a 3d 15 a1 0b bd
       -0.0072436705 0.039087947 0.057265133 -0.034089167
0000b0 43 d2 82 3d d9 61 4d 3d 9f 98 42 3b 54 43 49 bd
       0.063877605 0.050142143 0.002969302 -0.049136475
0000c0 c0 8d e1 bc 72 e9 8b 3d 56 73 4c 3d ae 61 3b 3d
       -0.027533412 0.068316355 0.04991468 0.04574745
0000d0 21 d5 4f bd 85 42 7e 3c f1 37 6c 3d 3e 6d 13 bd
       -0.050740365 0.015518789 0.057670537 -0.035992853
0000e0 c1 91 0f 3d 7c 57 ef bb e2 aa 12 bd 36 97 40 3d
       0.03505111 -0.00730413 -0.035807498 0.047019206
0000f0 0f a1 2b 3d e8 fc f1 3c 04 d7 8f bc cb ac 67 3c
       0.041901644 0.02953954 -0.017558582 0.014140318
000100 22 a0 ea bc 01 39 37 bd 7f dc 90 3c 61 54 91 3d
       -0.02864081 -0.044732098 0.017683266 0.07096172
000110 c7 01 d9 bc 7b be 17 bd 49 f1 39 bd 95 99 1b 3c
       -0.026490105 -0.03704689 -0.045396123 0.009497066
000120 6a b2 35 3d 22 47 d0 3b 95 a8 37 3d 8c 8b 4e 3d
       0.044359602 0.006356136 0.044838507 0.05042605
000130 11 5e 6a bc 53 d0 d4 3b 6a bb 8a bc f5 dd 55 bd
       -0.014304654 0.0064945607 -0.01693507 -0.052213628
000140 21 ab 6e 3c f6 9a 43 bd 0d cc da 3b b6 21 11 bb
       0.0145671675 -0.047755204 0.006677157 -0.0022145337
000150 0b df e7 3b b4 ca 82 bb 64 d0 93 3c 7f 34 43 bd
       0.0070761493 -0.0039914493 0.018043704 -0.047657486
000160 f5 dd 0a 3d 26 29 f9 bc ab 6c 59 3c f2 38 24 bd
       0.03390308 -0.030415129 0.013270537 -0.04009337
000170 52 17 34 3d d8 dd 01 3d 3c 4b ff bc 00 db 25 3d
       0.043967552 0.031705707 -0.031163804 0.040492058
000180 ce 5a 80 3d c0 d5 b7 bc 44 71 5a bc 6f c0 5d 3d
       0.062673196 -0.022440791 -0.013332669 0.054138597
000190 6b 2b 00 3d 16 ad 34 3d c8 b2 dd bc e0 78 bb bb
       0.031291407 0.04411038 -0.027062789 -0.0057211965
0001a0 b0 64 5a 3d ca d7 99 3c aa 41 17 3d 32 49 65 bd
       0.05331868 0.018779654 0.036927857 -0.055978008
0001b0 d6 c9 e9 bc cb 26 63 3c b7 a0 6a 3d 72 f7 99 3d
       -0.028538626 0.013864229 0.057282176 0.075178996
0001c0 9b 40 26 bd a7 31 05 bd 57 ba 90 bc 3a a0 83 bd
       -0.040588956 -0.032518055 -0.017666979 -0.06427045
0001d0 85 58 37 bd 2f 78 52 bd e0 43 5c 3d 6f d2 77 3c
       -0.044762153 -0.051384147 0.05377567 0.015125855
0001e0 6b 90 71 bc e9 71 85 bc c9 12 42 3d 2f b4 e0 3a
       -0.014743905 -0.016289668 0.047381196 0.0017143543
0001f0 7f 0e 2f 3d 5c f4 69 bd 06 42 14 bb 4f 9e a9 3c
       0.042738434 -0.057117805 -0.002262236 0.02070537
000200 bc 1d da bc ef 37 17 3d 66 e5 b7 bc 40 ab 16 3c
       -0.026625507 0.036918577 -0.022448253 0.009196103
000210 b8 13 52 3d a7 8b 20 bd 69 44 38 3d f7 0e df 3c
       0.051288337 -0.039195683 0.044987116 0.027228815
000220 93 55 0f 3d f1 53 40 bd 65 4d c5 bc 79 32 3a bb
       0.03499372 -0.046955053 -0.024084756 -0.0028411432
000230 8a 14 15 3d 85 49 0e bd 3b 39 1f bd 46 2b ca bc
       0.03639654 -0.034738082 -0.03887294 -0.024678838
000240 d1 e7 3e 3d d4 96 8e bc 85 4b f9 bb 3c 8c 29 bd
       0.046607796 -0.017405905 -0.0076078796 -0.041393504
000250 e4 51 c1 3c e8 1e 96 3b fc 7f ca 38 76 f5 26 3d
       0.023598619 0.004581321 9.6559495e-05 0.040761434
000260 f6 75 4e 3d ed f2 a0 bc 43 a0 49 3d 1e 0d 83 3d
       0.050405465 -0.019647086 0.049225103 0.06398986
000270 12 61 36 3d 97 ed e2 bb ec 5f 4b bd aa 96 ab 3a
       0.044526167 -0.0069252956 -0.049652025 0.0013091166
000280 10 dc 2c 3d b0 97 48 bd 72 8a 37 bc c9 f2 87 39
       0.042202055 -0.048972785 -0.0112024415 0.00025930096
000290 8a 80 49 3d a6 70 6e 3d 5a 70 8f bd 10 1c 70 3c
       0.04919485 0.0582129 -0.07003851 0.014655128
0002a0 a2 53 60 bd eb 32 3b bc 67 cb 3c 3d ee 49 91 3c
       -0.05476726 -0.011425714 0.046092417 0.017735448
0002b0 75 05 cb bc d9 6d 85 bc 3c 63 a8 bc 0f 80 68 b9
       -0.024782876 -0.016287731 -0.020555131 -0.0002217295
0002c0 0c d9 23 3d 0f 7c 3e bd 0c b9 7a 3d 0b 0c fe 3c
       0.040001914 -0.04650503 0.06121163 0.031011602
0002d0 75 2a 72 3d a8 51 27 bd 7c a2 f3 bc 05 2d 7a bc
       0.05912252 -0.040849358 -0.029740565 -0.015269523
0002e0 19 43 17 3d e2 b8 93 3d fe 5e 3f bd af 45 9d 3d
       0.036929224 0.07212998 -0.04672145 0.07679307
0002f0 89 3d 60 bd 71 7f dd bc ce 96 74 3d eb e1 29 3d
       -0.054746184 -0.027038308 0.05971413 0.041475218
000300 a3 75 4c bc 62 3e 42 bd 72 3c 67 3d 34 95 24 bc
       -0.012479219 -0.047422774 0.05645413 -0.010045338
000310 7b 6e 62 3b 44 18 10 bd 9d 3d eb 3c b3 39 0e 3d
       0.0034550715 -0.03517939 0.028715903 0.034722995
000320 ce 8c c2 bc ee 5e 4d 3c 58 a1 37 3c a2 f7 0f bd
       -0.023748782 0.01253484 0.011207901 -0.03514827
000330 67 f4 0a 3d 4e 04 54 bd b7 75 3c 3d 3b be f2 bb
       0.033924486 -0.051761918 0.0460107 -0.007407931
000340 cf 53 88 bd c1 1f 41 bd 02 38 6b 3d ea 4d 4a 3d
       -0.0665661 -0.047149424 0.05742646 0.04939071
000350 7b 83 21 bd 76 d8 d8 3c e8 ee 00 3d eb d0 4c bd
       -0.03943203 0.026470404 0.03147784 -0.050003927
000360 52 37 4d bc 71 ca 0a 3b 1e 7d 48 3d 6a 43 1e 3d
       -0.012525396 0.0021177793 0.048947446 0.03863851
000370 ce 72 3a bb b3 cc 09 bd ca dc 5d 3c 91 eb 20 3d
       -0.0028449777 -0.033642482 0.01354141 0.039287154
000380 cb 63 95 3d c9 3d 21 3d 66 c6 57 3c c3 ee 4a 3c
       0.072944246 0.039365564 0.0131698605 0.012386027
000390 49 05 9e 3c 97 3a 52 3c 11 30 19 bd c9 11 92 3c
       0.01928963 0.012831352 -0.037399355 0.017830746
0003a0 02 16 02 bd ff 7e a8 3c d4 fb bd 3b e8 65 dd 3c
       -0.03175927 0.020568369 0.0057978425 0.027026132
0003b0 2e b7 e4 bb 5e c1 ec 3b 1f 49 9b 3d 1b 7a c5 3c
       -0.0069798445 0.0072251996 0.07582306 0.024106076
0003c0 fb 6f 79 bd cb 1b 80 bd 68 98 d1 bc 5c 8c fb bc
       -0.06089781 -0.06255301 -0.025585368 -0.030706577
0003d0 00 36 65 3d 36 cb f4 bc 99 48 62 bd 4c 60 97 bd
       0.0559597 -0.029882055 -0.055245016 -0.07391414
0003e0 b1 12 28 3d 1d 51 3b bd ce 55 40 bd af ad 77 bd
       0.04103345 -0.045731653 -0.04695683 -0.060468372
0003f0 62 23 81 3d 1d 94 1a bd ca 8c b6 3b 56 ab 23 3c
       0.06305577 -0.037738908 0.0055709826 0.00998958

layer4.weight f4 [10, 256]
000000 3d 8d 62 3c db 2e 48 bd 71 ad 1e bd 7d 5f 55 3d
       0.013827619 -0.04887281 -0.038739625 0.052093018
000010 fc 14 b7 bc c4 09 05 3d 8c e4 16 3d 78 4d d7 3c
       -0.022348873 0.032480016 0.036839053 0.026282057
000020 ac 2e 7f ba 54 29 e1 bd 4b 0c 5f bd 60 0b 9b ba
       -0.00097344327 -0.10994211 -0.054455083 -0.0011828952
000030 f5 f9 23 bc 4a b3 59 3b 20 cc 86 3d 73 16 ac 3c
       -0.010008325 0.0033218437 0.065819025 0.021006798
000040 55 6c 10 3c 92 29 2e bd 47 83 c3 bd e8 4e 76 3d
       0.008814891 -0.042520113 -0.095465235 0.060133845
000050 6a 5d 7f bc 0e ba 37 3d 3f 39 f9 3b d3 98 05 bc
       -0.0155862365 0.04485517 0.007605701 -0.008154112
000060 10 5a 82 3d be 60 6d bc 7c a1 a1 3d c9 97 9a bc
       0.06364834 -0.014488397 0.07892129 -0.018871205
000070 b8 a5 f8 bc 86 7c d4 39 d0 61 f0 3c 36 eb 16 3d
       -0.030352458 0.00040528568 0.029343516 0.03684541
000080 bc 2e 7f 3d a9 4b 8b bc db 12 c8 bd 3f 1c 0f ba
       0.06230043 -0.017003851 -0.097692214 -0.0005459226
000090 a2 f1 ac 3c 4f 71 05 bd 11 06 7b bd 49 e4 a5 bc
       0.021111313 -0.032578763 -0.061285082 -0.020250456
0000a0 a0 1a 80 3c 69 74 23 bb 6d 40 9a 3b 6a b1 49 bc
       0.015637696 -0.0024941212 0.004707387 -0.012310365
0000b0 4f 65 69 3c 08 f6 72 3d f2 6e 40 3d 25 dd 13 3c
       0.014245345 0.059316665 0.046980806 0.009024893
0000c0 92 94 78 bd ce 04 63 bd 09 81 c2 bc 10 4f 10 3d
       -0.060688563 -0.055424504 -0.02374317 0.03523165
0000d0 06 00 17 bd a6 38 6c 3d 26 f2 04 3c b3 35 18 3d
       -0.036865257 0.05767121 0.008114373 0.037160587
0000e0 20 ed 82 bc c8 6b 42 3d 88 ee 56 bd 80 63 1a 3d
       -0.01598221 0.04746607 -0.052473575 0.037692547
0000f0 73 1c 47 3d d6 aa 90 bc e0 3a 16 3d 14 76 8a bd
       0.048611116 -0.017659586 0.03667724 -0.06760803
000100 00 64 13 3d 9c 44 97 bd b1 10 0b 3b 71 95 03 3d
       0.03598404 -0.07386133 0.0021219666 0.03212494
000110 5b a7 dd bc 03 f3 fb bc 5e 3c 2f bd 31 94 8e 3c
       -0.02705734 -0.030755525 -0.04278218 0.017404648
000120 f6 3a 82 3d bb 04 cb 3c 45 a8 fe bc 72 72 8e bc
       0.06358902 0.02478253 -0.031086097 -0.017388556
000130 3c 6e 93 bc 87 9c cd ba 05 0e 66 bd 21 02 67 39
       -0.0179969 -0.0015686908 -0.056165714 0.0002203067
000140 bc 27 2f 3d b2 37 7a 3d 84 5f 4d 3d 56 58 5a bd
       0.042762503 0.06108827 0.05013992 -0.0533069
000150 d7 e0 18 bd b3 a3 b0 3d 0b 2f 0e 3d 59 09 1f 3d
       -0.0373238 0.08624973 0.034712832 0.038827274
000160 f6 31 25 3d 60 80 f7 bb 23 27 4d 3d 61 fa 33 bd
       0.04033085 -0.0075531453 0.05008615 -0.04393995
000170 09 1f 20 3d c3 d4 37 3d 8f e9 d9 3c 79 83 1f 3d
       0.039092097 0.04488064 0.026600627 0.03894374
000180 84 a3 85 bc e4 3a ed 3c 57 13 9b 3c 5a 28 26 3d
       -0.016313322 0.028958745 0.01893012 0.040565826
000190 d8 17 31 3d f2 ba 1e bd e1 69 e2 3c 9c 94 03 3d
       0.04323563 -0.038752504 0.027638378 0.032124147
0001a0 d2 95 02 3d f9 b2 37 3d 7a 27 39 3d 0b 9b 8a bd
       0.03188116 0.044848416 0.045203663 -0.06767853
0001b0 c1 49 52 3d bc df 80 bc 58 78 ac bc 7a 0e 84 bd
       0.05133987 -0.015731685 -0.021053478 -0.06448074
0001c0 d7 f6 ac bc 16 7a 30 3b 05 ae 36 3c 48 3e de 3c
       -0.021113796 0.0026928238 0.011149888 0.027129307
0001d0 18 b5 8e 3c e2 6b 1b 3d f1 c8 52 3d 45 8a 0b 3c
       0.017420337 0.037944682 0.051461164 0.008516853
0001e0 fc 8e 53 3d 9a fc 52 3d a5 e4 7b 3d 92 e0 5f 3d
       0.051650032 0.05151043 0.06149735 0.054657526
0001f0 14 c2 2f bc d6 ec 18 bc 9d 18 48 bd ae 78 4d 3d
       -0.010727424 -0.00933381 -0.048851598 0.050163917
000200 43 9f f2 bb 05 85 a6 3c 82 9e 91 3d 15 01 65 bc
       -0.0074042394 0.0203271 0.07110311 -0.013977309
000210 d5 26 26 3b 9e 07 de bc d5 38 9b bc dd d0 15 bc
       0.0025352736 -0.027103242 -0.018947998 -0.009144035
000220 88 4e 1f bd c0 80 bb ba e2 55 27 bd 71 62 53 3b
       -0.038893253 -0.0014305338 -0.04085339 0.003225472
000230 e6 7f 3e bb 04 14 cc bd 7d 38 70 3c 8f ed d0 bc
       -0.0029067933 -0.09964755 0.014661905 -0.025503902
000240 04 a9 66 3d 4e 7a 79 3c 17 41 71 bd 27 78 5d 3c
       0.05631353 0.015226914 -0.058899965 0.013517416
000250 94 32 48 3c 47 3d ac 3c 13 19 2a 3d 8d 86 7d bd
       0.01221909 0.021025313 0.04152782 -0.061895896
000260 c0 4c f3 ba 97 47 76 3d 27 f6 84 3d f2 12 54 bd
       -0.0018562302 0.060126867 0.06492262 -0.05177588
000270 a0 2d a7 3b d5 c7 36 3c 96 ce 57 bd c4 5d 88 3d
       0.0051018745 0.011156042 -0.05268725 0.066585094
000280 59 6e 86 bc d8 41 17 bd 48 43 94 bb ae 4a 22 3d
       -0.01641004 -0.036928028 -0.004524622 0.039622
000290 7c 38 47 3d 70 04 5d bd fa df 49 3b dd bb 83 3d
       0.048637852 -0.05395931 0.0030803666 0.064323165
0002a0 e0 21 33 3d f1 3c 3c 3d 32 18 f9 3c 13 39 6f 3d
       0.043733478 0.045956556 0.030407045 0.05840404
0002b0 26 82 92 bc b2 44 e6 3b 1a 09 3c 3d 48 a4 53 bd
       -0.017884325 0.007027232 0.045907117 -0.051670343
0002c0 e7 fe 7c 3d 0e cb 46 3d 3a 63 0b 3d e5 cf 51 3d
       0.06176653 0.04853349 0.034030177 0.051223654
0002d0 22 c9 c2 3c 07 6b 13 3d 16 b3 18 bd 77 ae 2c 3d
       0.023777548 0.03599074 -0.037280165 0.04215857
0002e0 a2 55 e9 3c 9b cf 81 3c aa 42 d5 bc c3 08 77 3d
       0.028483216 0.015846064 -0.026032764 0.06031109
0002f0 88 58 22 3d ad 77 b1 bc d8 1f b1 bb 17 ca 62 3b
       0.03963521 -0.021663511 -0.0054054074 0.0034605318
000300 c6 d8 32 bc 98 7f 79 3c 53 6b bb 3b 1f 29 3f bd
       -0.010915941 0.015228175 0.005719581 -0.046670076
000310 2b f0 22 bd 4f 84 c3 bc dd f7 ae 3d 05 e8 27 b9
       -0.039779823 -0.0238668 0.0854337 -0.00016012795
000320 84 c4 5d 3c d8 93 f9 bd 10 1b b7 bc fd 3d 9a 3d
       0.0135356225 -0.12186402 -0.022351772 0.075313546
000330 71 9c 61 bd 24 f7 8c bc 1d 2e 3e bd 69 1f a9 bd
       -0.055080835 -0.01720769 -0.046430696 -0.08257944
000340 89 bf 93 3c 6a dc 43 3c bf 70 a4 bc eb 22 83 3d
       0.018035667 0.011954406 -0.020073293 0.064031444
000350 a0 6d 83 bd 7e 9b d6 bc f2 73 7f bc ef f1 6c 3a
       -0.06417394 -0.026197191 -0.015591608 0.00090387365
000360 0c ea 5e 3c 26 86 89 3d 54 55 07 3c 56 12 77 3d
       0.013605606 0.0671504 0.00826009 0.06032022
000370 71 1d 29 bd c2 7c 8e bb ab 56 0a bd 6c 27 57 3a
       -0.041287843 -0.0043483684 -0.03377406 0.00082074734
000380 94 81 3e 3d 49 d9 44 bd 58 69 eb ba 90 41 df bc
       0.046510294 -0.04805878 -0.0017960472 -0.027252942
000390 7a 85 4b bd f6 0f 32 bd 09 cd 12 bd 3a 92 4f 3d
       -0.04968784 -0.043472253 -0.035840068 0.050676562
0003a0 2a 8a 53 3d 07 81 61 bd 04 c9 a6 3c 2e 29 8a bc
       0.051645435 -0.05505469 0.020359524 -0.01686534
0003b0 d7 b6 65 3d c3 b9 8c bd 96 86 47 3c 4a 1d 48 bd
       0.056082573 -0.06871369 0.012178084 -0.048856057
0003c0 1b c5 d9 3c 59 ac 84 bd 4c fd 46 3c 73 89 7d bd
       0.026583245 -0.06478185 0.012145352 -0.06189866
0003d0 99 13 2a 3d cd 46 e2 bc 84 ab e1 3b 3a 62 be ba
       0.041522596 -0.027621651 0.0068869013 -0.0014525123
0003e0 2d 05 13 bc 65 8b 83 3c cc eb c0 bc 4c 49 89 3c
       -0.008973402 0.01605768 -0.023549937 0.016758583
0003f0 22 b7 a8 bd 19 50 51 3d 07 2b 5d bc 7f c9 19 bd
       -0.08238055 0.051101778 -0.013499028 -0.037545677

layer4.bias f4 [10]
000000 f8 0f 36 bd c6 19 0d bd 64 01 32 3c b2 99 55 3c
       -0.044448823 -0.034448408 0.010864589 0.013037132
000010 60 d6 ba 3b 14 94 69 3d 29 e9 bb 3c 9b c7 4e 3c
       0.005701825 0.057025984 0.022938328 0.012620832
000020 21 90 5e 3c 42 0d 3f bd
       0.013584168 -0.046643503
