policy_net.pth (torch, 678637 bytes, 8 tensors)

layer1.weight f4 [256, 135]
-0.078851596 -0.036546167 -0.025149936 -0.0023900024 -0.09257937 0.035884045 -0.07024495 0.04550905
-0.05327659 0.05473753 -0.093518555 -0.032815672 -0.07590649 -0.03628949 0.13925254 -0.067434825
-0.013840864 0.020458214 3.6324378e-05 0.008956251 -0.0018157699 0.014432968 -0.01839562 -0.015349357
-0.012640376 -0.012495439 0.0017701028 -0.01825846 0.014218747 -0.012440413 -0.019903444 0.01868256
-0.007315534 -0.020437744 0.00052800943 0.010199781 -0.018232102 -0.027620543 -0.008484401 -0.0021580164
-0.011496494 -0.0038484435 0.0036675534 -0.019493593 -0.007140011 -0.0012515808 -0.011762374 -0.008459057
0.013921529 -0.01577877 0.014467004 -0.014589322 -0.019905442 -0.006005658 -0.027635759 -0.013544527
-0.010294236 -0.011620413 0.02041249 -0.012365428 0.013112314 0.015819719 0.01499099 -0.001222356
-0.023221208 -0.027844276 0.0015083483 0.0029590493 -0.022349657 0.0042257784 -0.005642136 -0.014751965
0.0027486074 -0.013628234 -0.0074674026 0.0052282945 0.00766989 0.016191646 0.020711144 0.014184539
-0.015615664 -0.018485362 0.007948693 0.008069433 0.02217512 -2.126547e-05 -0.020778969 0.0006492335
0.021596061 0.0043739593 0.0027070409 0.015291692 0.010418554 0.015732164 0.010529199 -0.01463788
-0.025019955 0.013269658 0.013857758 -0.0030201054 -0.02086453 -0.0021964218 0.016027896 -0.024457091
-0.0051769046 0.015209392 -0.009746169 0.014806297 -0.028132195 0.0023234477 -0.006573426 0.015186012
-0.017441232 -0.0011718987 0.010774655 -0.015376221 -0.004125943 0.012510296 -0.005294552 0.004438106
-0.0068695676 0.0018352031 -0.01584959 -0.023521217 -0.0065623084 -0.009481023 0.017129242 -0.29953077
0.14984922 0.663469 -0.01691635 -0.16257152 -0.03726278 0.09405487 -0.013462249 0.034945454
-0.013004323 0.008942207 0.0052203583 0.0059417 0.001600186 0.024571447 0.0013644943 0.001181361
-0.011148638 -0.029740889 0.009482125 0.07458068 0.09553782 0.115792625 0.10660914 -0.005354727
0.016623365 0.00941885 -0.017876144 0.0035205898 0.008702993 0.012441906 -0.018144561 0.015004515
0.006232247 -0.009138563 -0.0135454 -0.011111836 0.021620173 -0.00035652495 0.01421645 0.01502812
-0.0062282938 -0.020560639 0.006809405 0.023605717 -0.01638467 -0.0152298715 0.0074146665 0.0042919246
0.009424513 0.012846244 -0.0109493695 -0.0009968007 -0.011399896 -0.0024474936 -0.001536057 -0.0011195147
0.018325811 0.00820973 0.02088153 -0.016360223 -0.009820036 -0.0007698093 -0.0037959123 0.02012899
-0.012525779 -0.009199517 0.0027124793 -0.021039749 -0.02146589 0.0073931348 -0.016974248 0.013009052
0.007703781 -0.005923067 -0.00010122126 -0.0029204306 0.010585999 -0.005804354 -0.010955072 -0.015978852
-0.018494474 -0.013999919 -0.010390377 -0.018402895 0.015124871 0.0029206804 0.0039579924 0.0015109631
-0.0028699103 -0.0016644488 0.0048362217 -0.0085430285 -0.0025346517 0.018842777 -0.0017444108 0.021436913
-0.013909798 0.0010518738 -0.008494803 0.0022908652 0.0103501845 -0.011034711 -0.022359667 -0.004926311
0.02000609 -0.0025576795 -0.013196727 -0.021675048 -0.006792612 0.020014435 0.00052729715 0.020133357
-0.010699447 0.0023094139 -0.0036235533 -0.009192994 0.010145476 -0.010309734 -0.00286744 -0.006730707
-0.013766619 -0.017246356 -0.020350272 0.011899698 -0.009164017 -0.012349656 0.0025096422 0.02321804
00000000: f27c a1bd 6fb1 15bd 3d07 cebc 96a1 1cbb
00000010: 419a bdbd 26fb 123d 96dc 8fbd b367 3a3d
00000020: 8e38 5abd 7634 603d a886 bfbd ba69 06bd
00000030: dd74 9bbd 4aa4 14bd 3898 0e3e 451b 8abd
00000040: cbc4 62bc fc97 a73c 015b 1838 3dbd 123c
00000050: 21ff edba 4178 6c3c 69b2 96bc df7b 7bbc
00000060: 9419 4fbc abb9 4cbc cb02 e83a c492 95bc
00000070: bff5 683c e0d2 4bbc 8c0c a3bc 2b0c 993c
00000080: 26b7 efbb 0e6d a7bc 1d6a 0a3a fb1c 273c
00000090: 7d5b 95bc 7a44 e2bc 2802 0bbc 826d 0dbb
000000a0: ca5b 3cbc 2b36 7cbb 565b 703b 07b1 9fbc
000000b0: c1f6 e9bb 150c a4ba f9b6 40bc db97 0abc
000000c0: 2017 643c 7b42 81bc 0307 6d3c 0d08 6fbc
000000d0: bd10 a3bc 1ccb c4bb 6364 e2bc dde9 5dbc
000000e0: 28a9 28bc 8b63 3ebc 1838 a73c 5d98 4abc
000000f0: 08d5 563c 5b98 813c c59c 753c 7637 a0ba
00000100: 673a bebc ae19 e4bc c5b3 c53a 9cec 413b
00000110: a116 b7bc 6678 8a3b abe1 b8bb 3ab2 71bc
00000120: fb21 343b f548 5fbc 1db1 f4bb 1d52 ab3b
00000130: b353 fb3b 58a4 843c 6baa a93c 4566 683c
00000140: d8d8 7fbc 9d6e 97bc 3c3b 023c a835 043c
00000150: 99a8 b53c 4063 b2b7 a838 aabc 5331 2a3a
00000160: 39ea b03c 6e53 8f3b 9c68 313b 018a 7a3c
00000170: 95b2 2a3c bde0 803c a982 2c3c b8d3 6fbc
00000180: a6f6 ccbc fb68 593c a60b 633c f6ec 45bb
00000190: 17ec aabc d8f1 0fbb ef4c 833c 3d5a c8bc
000001a0: 06a3 a9bb d030 793c 65ae 1fbc 1c96 723c
000001b0: 7d75 e6bc fc44 183b e565 d7bb c0ce 783c
000001c0: eae0 8ebc 659a 99ba 2e88 303c 8cec 7bbc
000001d0: eb32 87bb fcf7 4c3c ec7d adbb 886d 913b
000001e0: 1c1a e1bb 338b f03a 00d7 81bc 91af c0bc
000001f0: a208 d7bb 4b56 1bbc a052 8c3c 195c 99be
00000200: 1372 193e 1bd9 293f 2894 8abc 2679 26be
00000210: dba0 18bd d79f c03d c490 5cbc f722 0f3d
00000220: 1510 55bc 5682 123c 8a0f ab3b 98b2 c23b
00000230: 55bd d13a 0f4a c93c d5d8 b23a e6d7 9a3a
00000240: c7a8 36bc 2aa3 f3bc ea5a 1b3c c1bd 983d
00000250: 55a9 c33d af24 ed3d e555 da3d b576 afbb
00000260: b92d 883c 8551 1a3c fe70 92bc b2b9 663b
00000270: 0097 0e3c 23d9 4b3c e7a3 94bc 7fd5 753c
00000280: e137 cc3b e9b9 15bc 87ed 5dbc 6b0e 36bc
00000290: ca1c b13c f8eb bab9 1dec 683c 8138 763c
000002a0: b716 ccbb c96e a8bc 6e21 df3b c760 c13c
000002b0: 2539 86bc b686 79bc bbf6 f23b 46a3 8c3b
000002c0: 4669 1a3c 0d79 523c fc64 33bc 15a7 82ba
000002d0: a1c6 3abc 2166 20bb 8555 c9ba aebc 92ba
000002e0: 0320 963c 1a82 063c be0f ab3c e005 86bc
000002f0: 37e4 20bc 07cd 49ba d7c4 78bb 8de5 a43c
00000300: ed38 4dbc 92b9 16bc dac3 313b 8d5b acbc
00000310: 3cd9 afbc 1c42 f23b 940d 8bbc eb23 553c
00000320: 0070 fc3b 4a16 c2bb c046 d4b8 b264 3fbb
00000330: e670 2d3c 7332 bebb e77c 33bc 15e6 82bc
00000340: b981 97bc eb5f 65bc 663c 2abc abc1 96bc
00000350: 4fce 773c e368 3f3b 0cb2 813b 820b c63a
00000360: 1b15 3cbb a229 daba 2b79 9e3b 0ff8 0bbc
00000370: 661c 26bb 2b5c 9a3c b7a4 e4ba 779c af3c
00000380: ece5 63bc 07df 893a c92d 0bbc 5722 163b
00000390: d293 293c efca 34bc 9f2b b7bc e46c a1bb
000003a0: d0e3 a33c be9e 27bb 1637 58bc df8f b1bc
000003b0: 8f94 debb 50f5 a33c 503a 0a3a b6ee a43c
000003c0: bc4c 2fbc 8959 173b 2379 6dbb 369e 16bc
000003d0: 3639 263c 29ea 28bc a9eb 3bbb 438d dcbb
000003e0: 638d 61bc 3b48 8dbc 9db5 a6bc f3f6 423c
000003f0: ac24 16bc 3656 4abc cf78 243b c233 be3c

layer1.bias f4 [256]
-0.02626744 -0.002609212 -0.04712468 0.009819345 0.021840613 0.054029297 0.0028905992 0.018464468
-0.0001864124 0.015027391 -0.0319626 0.049729273 0.00047974792 -0.0059539387 -0.007981134 0.0004363645
-0.023960227 0.017461725 0.0056438516 -0.020553652 0.02816323 0.0039446307 0.006878385 -0.0017824136
0.015029588 0.03973174 0.0085615255 0.060595267 0.025017235 0.02496378 0.021132322 0.007881312
-0.020988079 -0.0032083688 0.037238255 -0.004398229 0.049979758 0.027810436 -0.0040338743 -0.021040404
0.034357138 0.0006624713 -0.002534799 0.011642566 0.0041130744 0.056174643 0.04820957 -0.07523432
0.01762152 0.008993329 0.019056763 -0.0036829226 -0.0025208907 0.021172794 0.013673514 0.00794609
-0.013745549 -0.009528028 0.020199703 0.008886457 0.024643276 -0.007439967 0.047531776 0.032386083
-0.0012332209 0.014467717 -0.024547046 0.027093174 -0.036438674 -0.0054202885 0.051459737 -0.003123537
-0.009822567 0.032980174 0.017566478 -0.019282881 0.031049857 0.05655496 0.008068923 -0.020832691
-0.0055222916 0.035939176 0.03784849 0.037786234 -0.03027471 -0.0058093606 0.0854105 0.0015805328
0.02110206 0.013164989 0.04336737 0.033299655 -0.023842268 -0.0034866496 -0.0648033 -0.019947324
-0.014434399 0.03175914 0.021650592 0.004468581 0.026779527 0.01607961 0.012530018 -0.042966507
0.032849222 -0.006051731 -0.005315378 0.013301475 -0.017534388 0.037983507 -0.042027354 0.0075633344
-0.020932082 0.028869277 0.014522626 0.0074611604 0.087288246 0.0063902047 -0.007759954 -0.0084352605
0.028906025 0.03230349 0.0045319786 -0.027441168 -0.027091207 0.017966913 0.002303244 0.015851995
-0.010214729 0.04035837 0.022433655 -0.02107307 0.035301592 0.01642387 0.034468062 0.025099536
0.058814526 0.023147415 0.04444868 0.034252867 0.042741477 0.032960575 0.0016216368 0.015350672
-0.0031589828 0.039836407 -0.0035332926 0.0004297371 -0.017845992 0.011442372 0.019700412 -0.029045163
0.016306832 0.0046398877 -0.0026001364 -0.014652869 -0.033796217 -0.014127996 -0.008275321 -0.020688148
-0.00842199 -0.007508273 0.048439324 0.041387264 0.005720229 -6.238907e-05 -0.011704205 -0.029469745
0.0593931 -0.000918344 0.0026425056 -0.017200181 -0.009050093 0.055615146 0.027448721 0.010828095
0.015307081 0.02428756 -0.010679503 0.04539249 0.01185242 -0.049645137 -0.00033349547 0.00039634143
0.041628376 0.02545164 -0.010129828 0.031699307 0.0075596184 0.03568108 -0.01105343 0.028120657
-0.018792685 -0.0031673457 0.0071709165 0.0068312786 -2.1021273e-05 0.025254743 0.0011855299 -0.007995989
0.0059511233 -0.019185172 0.00415573 0.007086643 -0.0026542477 -0.017133506 -0.02729553 0.01500891
-0.011942741 0.009412839 0.006128697 -0.00018084208 -0.015120834 0.03656945 0.01773406 0.0057696616
-8.803317e-05 0.08466695 0.04347506 0.017433008 -0.0060455804 0.019945934 0.110182315 0.0023957759
0.0077461256 0.017418666 -0.039378595 -0.005588822 0.041021287 0.020371592 0.03755083 -0.012806147
0.016395379 0.010409368 -0.016238851 -0.008106838 0.0202385 0.012758453 0.015534581 0.028517887
-0.013603111 -0.03489039 -0.0061373455 0.055364806 0.029979661 -0.013266458 -0.02258127 -0.002454937
-0.00852328 0.019819377 -0.004764051 0.02217563 0.006086652 -0.020346427 0.005252063 -0.038667783
00000000: d02e d7bc 50ff 2abb cf05 41bd 51e1 203c
00000010: 16eb b23c d34d 5d3d 3570 3d3b cc42 973c
00000020: b377 43b9 7235 763c 37eb 02bd ecb0 4b3d
00000030: ad86 fb39 4219 c3bb 4dc3 02bc dac7 e439
00000040: 3d48 c4bc e40b 8f3c 0ff0 b83b 2260 a8bc
00000050: 93b6 e63c f641 813b 1364 e13b e09f e9ba
00000060: a93e 763c c0bd 223d a445 0c3c be32 783d
00000070: f2f0 cc3c d780 cc3c b11d ad3c 9e20 013c
00000080: 31ef abbc 7f43 52bb 2487 183d 051f 90bb
00000090: 93b7 4c3d b6d2 e33c 972e 84bb ed5c acbc
000000a0: 12ba 0c3d b2a9 2d3a df1e 26bb 76c0 3e3c
000000b0: f8c6 863b 6217 663d 6677 453d 7314 9abd
000000c0: 025b 903c c158 133c ee1c 9c3c 305d 71bb
000000d0: 8735 25bb 9172 ad3c e006 603c 5130 023c
000000e0: 0335 61bc 721b 1cbc d979 a53c 8198 113c
000000f0: b2e0 c93c f7ca f3bb aeb0 423d 45a7 043d
00000100: 07a4 a1ba 010a 6d3c e316 c9bc 81f2 dd3c
00000110: b840 15bd ad9c b1bb 72c7 523d 41b4 4cbb
00000120: d5ee 20bc 3816 073d 93e7 8f3c 22f7 9dbc
00000130: 455c fe3c 2ca6 673d 8433 043c 52a9 aabc
00000140: 57f4 b4bb f534 133d 0507 1b3d bdc5 1a3d
00000150: ab02 f8bc 735c bebb b3eb ae3d e129 cf3a
00000160: 3ade ac3c f7b1 573c fca1 313d 3865 083d
00000170: dc50 c3bc 4680 64bb 98b7 84bd 9268 a3bc
00000180: 427e 6cbc df15 023d 955c b13c 2d6d 923b
00000190: bd60 db3c 63b9 833c b44a 4d3c a6fd 2fbd
000001a0: e88c 063d 994d c6bb 9f2c aebb 6eee 593c
000001b0: 47a4 8fbc 9894 1b3d e024 2cbd d9d5 f73b
000001c0: c279 abbc 437f ec3c 4ff0 6d3c c07c f43b
000001d0: 2ec4 b23d ec64 d13b 3647 febb 0c34 0abc
000001e0: 54cc ec3c aa50 043d fe80 943b 4dcc e0bc
000001f0: 61ee ddbc 592f 933c 06f2 163b 0bdc 813c
00000200: ae5b 27bc d14e 253d c9c6 b73c 6ea1 acbc
00000210: 6798 103d 5a8b 863c 622e 0d3d 8b9d cd3c
00000220: 80e7 703d a69f bd3c d20f 363d bc4c 0c3d
00000230: b011 2f3d ab01 073d 1a8d d43a 6381 7b3c
00000240: f006 4fbb 802b 233d d08e 67bb 564e e139
00000250: c231 92bc c978 3b3c c262 a13c 1ff0 edbc
00000260: e895 853c 330a 983b 0d67 2abb 9612 70bc
00000270: e76d 0abd 1c79 67bc 3695 07bc 317a a9bc
00000280: 63fc 09bc f507 f6bb 5068 463d b185 293d
00000290: c270 bb3b e0d6 82b8 fec2 3fbc 896a f1bc
000002a0: 2e46 733d 06bd 70ba e32d 2d3b 65e7 8cbc
000002b0: d746 14bc b5cc 633d 24dc e03c 5268 313c
000002c0: 8dca 7a3c b4f6 c63c 15f9 2ebc 7aed 393d
000002d0: a730 423c b358 4bbd 01d9 aeb9 0ccc cf39
000002e0: 8482 2a3d f57f d03c 94f7 25bc 22d7 013d
000002f0: adb6 f73b 5326 123d 7219 35bc 4b5d e63c
00000300: 1ef3 99bc 3e93 4fbb 02fa ea3b ebd8 df3b
00000310: d756 b0b7 09e3 ce3c c863 9b3a 9c01 03bc
00000320: a401 c33b 392a 9dbc ca2c 883b 1237 e83b
00000330: e3f2 2dbb 915b 8cbc e09a dfbc eee7 753c
00000340: 7dab 43bc 4f38 1a3c 3dd3 c83b 6da0 3db9
00000350: 60bd 77bc d9c9 153d 0547 913c 6e0f bd3b
00000360: 739e b8b8 de65 ad3d e812 323d abcf 8e3c
00000370: 011a c6bb a865 a33c 44a7 e13d 7302 1d3b
00000380: 36d3 fd3b 97b1 8e3c 734b 21bd 7022 b7bb
00000390: f005 283d 53e2 a63c e6ce 193d e0d0 51bc
000003a0: 9a4f 863c 0e8c 2a3c 5707 85bc 8bd2 04bc
000003b0: 36cb a53c d508 513c c184 7e3c 589e e93c
000003c0: 95df 5ebc 3ae9 0ebd c91b c9bb 35c6 623d
000003d0: e897 f53c 8f5b 59bc 5bfc b8bc 02e3 20bb
000003e0: 3aa5 0bbc 3f5c a23c c21b 9cbb aba9 b53c
000003f0: 8a72 c73b 8dad a6bc 7f19 ac3b 1c62 1ebd

layer2.weight f4 [256, 256]
0.06823438 0.051193226 -0.07772965 -0.0016560683 0.022605492 -0.0021607487 -0.07350736 -0.017885989
-0.024296578 0.006361848 0.006002862 -0.053819872 -0.014202408 -0.023190029 -0.009100512 0.0026322475
0.06689797 0.07425529 0.047418498 0.04659648 0.012251985 -0.024448702 0.029279318 -0.22094437
0.06760743 -0.0026451761 0.019054562 -0.066552475 0.027868502 0.024397867 -0.06859451 0.03575903
-0.017369146 -0.011513312 0.012607488 -0.029983792 0.03483728 -0.036310956 -0.0028081979 -0.03317441
0.061732136 0.03722666 -0.056313097 -0.12207455 0.06602358 -0.017059315 -0.012893307 0.0094295675
0.052791756 -0.043106247 0.00196568 -0.012810855 -0.010409797 -0.08900144 0.032473132 0.017888771
-0.04638897 -0.027625404 0.03547842 0.05068051 -0.048110925 -0.053351704 -0.06484559 0.0061812405
-0.008408972 -0.077797435 0.03960932 0.020609902 0.029692765 0.039006315 0.03308068 0.053154893
-0.1262749 -0.13822109 -0.036708873 0.031002596 0.0056146025 -0.0026993682 -0.016571673 -0.009888613
0.009040308 -0.023008473 0.01632662 -0.015703076 -0.24567524 -0.017723957 0.06386167 -0.088221654
-0.005888746 -0.06205824 0.040027928 0.043121427 0.0044392115 -0.018574536 -0.2704393 -0.07137781
-0.07872732 0.012191347 0.012426636 -0.0031223262 0.0047305934 0.017545452 -0.018465722 0.015314488
-0.037318163 -0.019637335 -0.024360508 0.04956778 0.03376579 0.0009731086 0.042628184 0.06182532
0.021511873 -0.027480632 -0.10678894 0.047679484 -0.023212656 -0.021127274 -0.028857343 0.06358044
0.06708143 -0.07002289 0.11577782 -0.061803646 -0.032998484 -0.021000294 -0.04352845 0.0958962
-0.085493 0.057380345 0.048546504 -0.039840728 -0.004309834 -0.040010422 0.029886954 -0.053623766
0.08592245 -0.008629458 -0.027964905 -0.01376552 0.036330886 0.027823232 0.019999813 0.08180389
0.0043455567 -0.05382011 -0.031674553 0.024701865 -0.16177267 -0.05205204 0.010710472 0.056065045
-0.06732299 -0.01842663 -0.022544751 0.060027387 0.01047672 0.000984293 -0.03959425 -0.068273306
0.0009210511 0.042312343 -0.0049628676 0.037837632 -0.0043297857 -0.00043506807 -0.0047972933 -0.03380715
0.0064457636 0.08056669 0.05165644 -0.1860473 0.0030880058 0.049590185 0.09821443 -0.0072154994
0.015387195 -0.09481675 -0.023466019 -0.0037568423 0.025506215 -0.07040368 -0.049791377 0.0756617
0.0025815084 -0.037867397 0.029760178 0.057431344 0.042372387 0.040099423 0.009680766 0.0037456928
0.00608984 0.011716034 0.03181673 0.050166465 -0.06404808 0.05460887 -0.08689424 0.026342941
-0.017458983 -0.062893465 0.029829847 -0.050009727 0.046694934 0.025787791 -0.18178849 0.053600345
0.006113928 0.009068253 0.0362467 -0.011273262 0.0013500963 0.039737187 0.021558715 -0.026177162
-0.019090282 0.025093509 -0.008465548 -0.007167748 -0.018527338 -0.015823638 -0.009114062 0.029612761
-0.011128122 0.021603165 0.059464615 -0.021312524 0.031970438 -0.011722892 0.026514301 -0.033469465
0.052868642 0.0029183936 0.007677047 0.06782541 -0.09242195 -0.14412965 0.09090514 -0.037821148
-0.03197456 -0.0055604028 -0.016959015 0.01675056 0.004277928 -0.013145919 0.021835884 0.025712857
0.109563686 0.05237352 0.02481173 -0.036112744 0.0027060246 0.011121749 -0.062910765 0.011941385
00000000: 77be 8b3d fdaf 513d b930 9fbd 6e10 d9ba
00000010: 272f b93c 599b 0dbb 078b 96bd a385 92bc
00000020: 9e09 c7bc 0d77 d03b a8b3 c43b 3a72 5cbd
00000030: 37b1 68bc 04f9 bdbc 501a 15bc c981 2c3b
00000040: ce01 893d 2813 983d e639 423d f3db 3e3d
00000050: 8dbc 483c a548 c8bc 2edb ef3c 3e3f 62be
00000060: c475 8a3d b15a 2dbb 5018 9c3c aa4c 88bd
00000070: 7c4c e43c 09de c73c 477b 8cbd 1078 123d
00000080: bd49 8ebc 55a2 3cbc a38f 4e3c 92a0 f5bc
00000090: 89b1 0e3d ccba 14bd be09 38bb e4e1 07bd
000000a0: d6da 7c3d fb7a 183d 90a8 66bd 3902 fabd
000000b0: 5f37 873d fabf 8bbc 733e 53bc 797e 1a3c
000000c0: 2b3c 583d 2d90 30bd a3d2 003b 9fe4 51bc
000000d0: da8d 2abc 6346 b6bd 8c02 053d 798b 923c
000000e0: 5c02 3ebd ac4e e2bc d251 113d 5e96 4f3d
000000f0: f60f 45bd 5187 5abd c4cd 84bd 018c ca3b
00000100: c9c5 09bc 4354 9fbd 623d 223d 19d6 a83c
00000110: 3e3e f33c 16c5 1f3d 9b7f 073d f2b8 593d
00000120: 354e 01be d489 0dbe 0b5c 16bd 28f9 fd3c
00000130: b3fa b73b e2e7 30bb 51c1 87bc d903 22bc
00000140: cd1d 143c 447c bcbc 67bf 853c bda3 80bc
00000150: 4a92 7bbe d531 91bc e8c9 823d 8ead b4bd
00000160: 62f6 c0bb c830 7ebd 53f4 233d 18a0 303d
00000170: ce76 913b a029 98bc 0577 8abe 872e 92bd
00000180: ca3b a1bd 37be 473c 1799 4b3c f19f 4cbb
00000190: 1803 9b3b 7bbb 8f3c 6d45 97bc 9ee9 7a3c
000001a0: eeda 18bd 7ade a0bc b08f c7bc 9607 4b3d
000001b0: ff4d 0a3d 3618 7f3a e49a 2e3d 8c3c 7d3d
000001c0: ab39 b03c 101f e1bc 29b4 dabd 904b 433d
000001d0: 7828 bebc 1b13 adbc 3c66 ecbc 7636 823d
000001e0: fd61 893d 2968 8fbd ec1c ed3d d225 7dbd
000001f0: 6b29 07bd cf08 acbc e34a 32bd 3a65 c43d
00000200: f416 afbd a707 6b3d b3d8 463d 0830 23bd
00000210: 8239 8dbb f8e1 23bd 7cd5 f43c 98a4 5bbd
00000220: 1cf8 af3d 9262 0dbc a816 e5bc c788 61bc
00000230: b2cf 143d 8ced e33c a6d6 a33c cc88 a73d
00000240: 2c65 8e3b 7a72 5cbd 2dbd 01bd 915b ca3c
00000250: bca7 25be 8534 55bd fa7a 2f3c 76a4 653d
00000260: a3e0 89bd 72f3 96bc c5af b8bc 47df 753d
00000270: 8ca6 2b3c 6403 813a 952d 22bd e0d2 8bbd
00000280: b172 713a b54f 2d3d 8d9f a2bb a2fb 1a3d
00000290: e0e0 8dbb d919 e4b9 9d32 9dbb 5e79 0abd
000002a0: fc36 d33b 2600 a53d b495 533d 2f83 3ebe
000002b0: 2460 4a3b 141f 4b3d a624 c93d ff6f ecbb
000002c0: 931a 7c3c 492f c2bd cf3b c0bc 5b35 76bb
000002d0: 69f2 d03c ce2f 90bd 0bf2 4bbd 85f4 9a3d
000002e0: 862e 293b d81a 1bbd 9ecb f33c 213d 6b3d
000002f0: ab8e 2d3d 4b3f 243d 139c 1e3c 4c7a 753b
00000300: 488d c73b 9cf4 3f3c 4252 023d 5a7b 4d3d
00000310: a42b 83bd 8dad 5f3d 9bf5 b1bd 27cd d73c
00000320: 2406 8fbc 4ace 80bd b95d f43c 00d7 4cbd
00000330: 3043 3f3d eb40 d33c c326 3abe 098c 5b3d
00000340: 5857 c83b 0393 143c 6b77 143d 7db3 38bc
00000350: b7f5 b03a 76c3 223d e79b b03c 7d71 d6bc
00000360: 3963 9cbc e790 cd3c 15b3 0abc 6edf eabb
00000370: a5c6 97bc 93a0 81bc 2653 15bc 7696 f23c
00000380: ba52 36bc 1ff9 b03c 2b91 733d 9a97 aebc
00000390: 6ff3 023d 5f11 40bc 8534 d93c 4717 09bd
000003a0: ca8c 583d 8542 3f3b bd8f fb3b 0ce8 8a3d
000003b0: b847 bdbd b996 13be 792c ba3d 59ea 1abd
000003c0: c2f7 02bd 0a34 b6bb a2ed 8abc 7838 893c
000003d0: dc2d 8c3b fb61 57bc 2be1 b23c c5a3 d23c
000003e0: ed62 e03d 9e85 563d f841 cb3c f5ea 13bd
000003f0: 8f57 313b ff37 363c 5cd7 80bd cda5 433c

layer2.bias f4 [256]
0.018217033 0.011431806 -0.0048150956 -0.012535091 0.014122485 -0.007345872 0.009575031 0.009185793
-0.003157478 -0.003795282 0.018049924 -0.05737852 -0.006701961 -0.022387123 0.009403976 0.05064495
-0.013425414 0.04833138 0.030993197 -0.016083984 0.0023892547 -0.003733135 0.011472138 0.02629408
0.013230346 0.025958454 0.047038067 0.021453006 0.021896584 0.005203647 -0.020225476 -0.0025253687
-0.017436251 0.006089117 -0.027377987 0.011054472 0.024488155 0.003016784 0.016108528 -0.0046681524
0.06617003 0.04907117 -0.016507909 -0.007377865 0.0362657 -0.009176796 0.044294134 0.009860006
0.00497812 0.009246166 -0.021191483 0.023139276 0.026354818 0.008748238 0.012218482 0.018110067
-0.0150120165 -0.01447094 0.0044116434 -0.014650644 0.024578298 0.01811175 0.030001068 0.011491999
0.009145881 0.017164199 -0.0023764197 0.020658093 0.007059833 -0.009391834 0.043394294 -0.0011090466
-0.0112265255 -0.012112901 0.019090366 0.017631708 -0.0035565312 -0.031586275 0.0017662011 0.033370037
0.010540548 -0.022913182 0.019192802 -0.0041790265 -0.011518313 -0.010013661 0.051413354 -0.01641323
-0.010628033 -0.015027831 0.00066016783 -0.018392058 0.011538526 0.0108234 0.015838189 -0.016070046
-0.02377775 0.004562287 -0.036927078 0.041163985 -0.013860374 0.010972041 0.033688765 0.03485155
0.015547889 0.043756254 -0.128698 0.014001766 -0.011631492 0.009756807 0.041759 0.028545361
0.009244386 0.055920847 0.06973831 -0.010411346 0.0011272174 0.10685986 0.045793314 0.0071920077
-0.0050762817 -0.005690942 -0.009995601 0.00059061305 0.072651714 -0.006104409 0.026125733 0.002510678
-0.033556733 -0.035240788 0.037812557 0.05696183 0.015962366 0.11518176 0.070218995 0.04441453
0.038644165 0.011044258 0.04611556 -0.064209275 0.024115795 -0.0009208929 -0.004264063 0.009933577
-0.007965474 -0.025071783 -0.017446898 0.009050507 -0.020136762 0.014636817 -0.020597758 0.024131505
-0.0022727398 -0.015476211 -0.037119977 0.08341795 0.011352262 0.014961749 0.08294805 0.049148772
-0.020918656 0.020031985 -0.01079041 0.0043992386 0.019879432 0.0056380015 0.05720328 0.0282796
-0.004722268 0.0158893 -0.0037345358 -0.0032790755 0.029734418 -0.037851945 0.035127357 0.020321546
0.018147094 -0.01966242 -0.0077185594 0.0069195377 0.001977514 0.008363884 -0.013047831 0.009149709
0.038165007 0.10074699 0.039255142 -0.017087486 -0.0072535034 0.015842214 0.0076896427 -0.00088382635
-0.013838905 -0.0052694804 0.0462719 0.015876327 0.0041263755 0.007557768 0.000737376 0.011813029
0.005451953 0.0028815856 -0.0070566535 -0.034605093 -0.025901632 -0.009270018 0.0039129253 0.07545429
-0.019199394 -0.019251276 -0.022709932 -0.008931605 -0.027139716 0.10664843 0.01893557 -0.007960668
-0.019298915 -0.0004153779 0.029846717 -0.01290693 0.028010098 0.048421923 0.01991942 -0.017030567
-0.01829478 0.012567648 -0.01297631 0.00030512633 0.009953371 0.017054437 0.05120152 0.03193308
0.23558912 0.036819335 -0.03105756 0.0043490767 0.02457083 -0.060525086 -0.029878024 0.020491675
-0.0070862565 -0.0029910996 0.024946967 0.00473294 -0.019039197 -0.006887764 0.0150697315 0.020708762
0.012496581 0.07233098 -0.0013962205 0.0066573336 0.012001504 0.033255335 0.010208243 0.06429354
00000000: e33b 953c 784c 3b3c f3c7 9dbb fb5f 4dbc
00000010: ff61 673c a4b5 f0bb 97e0 1c3c 0280 163c
00000020: b1ed 4ebb 44ba 78bb 6fdd 933c bd05 6bbd
00000030: 209c dbbb 3365 b7bc 2213 1a3c 1471 4f3d
00000040: 45f6 5bbc 20f7 453d 72e5 fd3c 8fc2 83bc
00000050: 0b95 1c3b 9da7 74bb a2f5 3b3c af66 d73c
00000060: 18c4 583c d3a6 d43c fdaa 403d 37be af3c
00000070: 7760 b33c 5b83 aa3b e6af a5bc a880 25bb
00000080: 78d6 8ebc 3787 c73b cd47 e0bc d11d 353c
00000090: 629b c83c 3db5 453b 08f6 833c 4df7 98bb
000000a0: 2784 873d dafe 483d 983b 87bc 04c2 f1bb
000000b0: 588b 143d 465a 16bc c46d 353d dd8b 213c
000000c0: 7f1f a33b 3b7d 173c c399 adbc 948e bd3c
000000d0: 0fe6 d73c c554 0f3c 0730 483c 905b 943c
000000e0: f6f4 75bc 8617 6dbc 8c8f 903b 4109 70bc
000000f0: 6d58 c93c 185f 943c cdc4 f53c f048 3c3c
00000100: 9bd8 153c ef9b 8c3c b5bd 1bbb 293b a93c
00000110: 2c56 e73b 35e0 19bc 37be 313d 6e5d 91ba
00000120: 76ef 37bc 3075 46bc 6663 9c3c 5f70 903c
00000130: b114 69bb 9c60 01bd e07f e73a 05af 083d
00000140: 43b2 2c3c 6db4 bbbc 393a 9d3c 37f0 88bb
00000150: 4eb7 3cbc 5710 24bc cf96 523d 0a75 86bc
00000160: 3421 2ebc 4b37 76bc 1d0f 2d3a f1aa 96bc
00000170: 160c 3d3c a154 313c 17bf 813c 54a5 83bc
00000180: 8ec9 c2bc 3d7f 953b d940 17bd 919b 283d
00000190: 9f16 63bc 13c4 333c 3bfd 093d 80c0 0e3d
000001a0: 93bc 7e3c c239 333d 69c9 03be aa67 653c
000001b0: 0392 3ebc 04db 1f3c 7c0b 2b3d f6d7 e93c
000001c0: c475 173c 420d 653d f6d2 8e3d 5a94 2abc
000001d0: 24bf 933a 58d9 da3d c591 3b3d efaa eb3b
000001e0: f056 a6bb 157b babb 97c4 23bc 5fd3 1a3a
000001f0: 6cca 943d 7f07 c8bb a205 d63c 308a 243b
00000200: c972 09bd a558 10bd 57e1 1a3d cf50 693d
00000210: 82c3 823c 6ae4 eb3d face 8f3d 03ec 353d
00000220: 5849 1e3d faf2 343c abe3 3c3d 2780 83bd
00000230: 7d8e c53c 1468 71ba 8eb9 8bbb 71c0 223c
00000240: 9f81 02bc 5763 cdbc ccec 8ebc 9448 143c
00000250: daf5 a4bc 43cf 6f3c a1bc a8bc 6faf c53c
00000260: 3ff2 14bb ef8f 7dbc 1e0b 18bd 08d7 aa3d
00000270: d7fe 393c 2022 753c abe0 a93d 3950 493d
00000280: 9a5d abbc 1e1a a43c 43ca 30bc 7d27 903b
00000290: 31da a23c fcbe b83b fd4d 6a3d 9faa e73c
000002a0: 41bd 9abb 472a 823c 1dbf 74bb c2e5 56bb
000002b0: 9895 f33c a40a 1bbd b4e1 0f3d 5f79 a63c
000002c0: 37a9 943c 1513 a1bc f8eb fcbb 4abd e23b
000002d0: 2e99 013b ac08 093c 92c6 55bc a9e8 153c
000002e0: e952 1c3d 7054 ce3d 00ca 203d 0efb 8bbc
000002f0: ccae edbb 88c7 813c 66f9 fb3b 95b0 67ba
00000300: 93bc 62bc 9bab acbb 9b87 3d3d 120f 823c
00000310: 8c36 873b 27a7 f73b 774c 413a 6f8b 413c
00000320: 4ca6 b23b fcd8 3c3b 803b e7bb 12be 0dbd
00000330: a92f d4bc 46e1 17bc ff37 803b c787 9a3d
00000340: 0c48 9dbc dab4 9dbc 2e0a babc de55 12bc
00000350: 1c54 debc 7e6a da3d c51e 9b3c 766d 02bc
00000360: c218 9ebc 14c7 d9b9 1a81 f43c 9777 53bc
00000370: 6f75 e53c 1156 463d 0d2e a33c b083 8bbc
00000380: efde 95bc 89e8 4d3c 979a 54bc 5df9 9f39
00000390: 7713 233c bfb5 8b3c afb8 513d 43cc 023d
000003a0: 463e 713e dfcf 163d 6d6c febc b382 8e3b
000003b0: c448 c93c 27e9 77bd c2c2 f4bc 28de a73c
000003c0: d433 e8bb 5306 44bb 955d cc3c c716 9b3b
000003d0: 17f8 9bbc c1b2 e1bb 09e7 763c 6ca5 a93c
000003e0: 76be 4c3c 4422 943d 6301 b7ba c325 da3b
000003f0: f5a1 443c bf36 083d 7940 273c 55ac 833d

layer3.weight f4 [256, 256]
-0.13402198 -0.046473343 -0.066839896 -0.005806829 -0.017333215 0.031625215 -0.040364247 -0.034611482
-0.00947689 0.024519611 -0.0026248272 -0.061238267 0.030959135 -0.019705392 -0.014619411 0.012260645
0.05193258 0.017831488 -0.0710531 -0.07080699 -0.052193232 0.1402258 -0.06682177 0.016365565
0.0023883819 -0.01493807 -0.07357251 0.022113305 0.042067256 0.014211223 0.15545824 0.020984828
-0.18327257 0.0065389164 0.10776513 0.052492034 0.01655184 -0.024135027 0.017820932 0.045933656
0.00259103 0.034473058 -0.3184414 0.035401568 0.044441562 -0.046619277 -0.015332559 0.006939306
0.018024381 0.016276738 -0.051110532 -0.045248125 -0.038679894 0.063030094 0.0139224455 0.06719044
0.01871067 -0.024010377 0.008854974 0.022961445 -0.015025685 0.02438415 -0.013217958 0.061944675
-0.010521247 0.01996696 -0.04953874 0.040152673 0.068582706 -0.015540131 0.0110101905 -0.00037700468
0.040760662 -0.10664782 0.01582182 0.14552589 -0.14128663 -0.018221553 -0.090552546 -0.002000541
-0.032104567 -0.01886708 -0.04357873 -0.04109312 -0.025533827 -0.0068902588 -0.044719715 -0.0040037115
0.037971646 -0.0020544147 -0.062117126 -0.0076655503 0.040105373 0.033097614 -0.044611115 -0.0019655535
-0.04395594 0.0015534072 0.09409797 -0.0380106 0.0020838922 -0.03288059 -0.013377349 0.04239085
-0.0033416594 0.0425092 0.042874243 -8.8364875e-05 -0.009288468 -0.0029393109 -0.024029838 -0.001676183
0.11483306 0.035909098 -0.009023458 0.006037749 -0.09251345 0.02308008 -0.0020763418 0.0020227775
-0.007568596 0.0106307035 -0.014331895 0.0070542917 -0.026954696 -0.012773355 -0.03131937 -0.032505848
0.0756427 0.019683285 0.018957598 0.043265 -0.039766766 0.00624222 -0.09923623 0.0077684303
-0.05174205 0.00073408236 -0.00997212 0.06775597 0.018955031 0.008832303 -0.021346375 -0.10852137
0.01043198 0.045675915 -0.05683865 0.014389205 0.0027925768 0.020551555 -0.06948213 0.015724096
0.06551299 0.045319617 0.0023734807 0.015673738 0.008638226 -0.022748413 0.021456202 0.026154686
-0.00076472055 0.014013686 0.00943226 -0.10200141 -0.009041489 0.054440748 0.016753238 -0.0058419043
0.014435836 -0.22744077 -0.0795651 0.047257006 0.0011657049 0.15104036 -0.048847876 -0.028344536
0.008393796 -0.010466727 -0.011300529 0.0066353413 0.0020279794 0.011967477 0.01056941 0.0015948951
-0.0027513702 0.0092428755 0.014038425 -0.017805971 0.1554176 -0.01898286 0.047244303 0.11611912
0.0027114938 -0.021438705 0.049282152 0.06939216 -0.16565455 -0.08682823 0.003766407 0.04251951
0.027890613 0.03754588 0.034824103 -0.0040641855 -0.0074168844 0.03967117 0.015896706 0.059493955
-0.040833768 -0.026001936 0.005160234 0.013985902 -0.025727281 0.002833532 -0.037285607 0.01007296
0.048578188 -0.037403844 0.028422829 0.069371365 -0.0011357497 0.031519763 0.016759621 0.011942283
0.026194524 -0.034770474 -0.023133518 -0.04344317 -0.020628002 -0.006310515 -0.13352267 0.020214582
-0.012346028 -0.043105766 0.014749885 0.001744575 0.013311155 0.052478965 0.046902306 -0.008514161
0.04727478 0.027590176 0.033263322 -0.006473708 -0.0744012 -0.02151763 -0.1385738 -0.08424177
0.010045791 0.012409569 -0.018902408 -0.092924125 -0.11282508 -0.018870778 -0.0074689384 0.013984887
00000000: 0f3d 09be d55a 3ebd 5be3 88bd 3647 bebb
00000010: 63fe 8dbc 7189 013d fb54 25bd c5c4 0dbd
00000020: f544 1bbc 5add c83c 4b05 2cbb fad4 7abd
00000030: 039e fd3c 346d a1bc 4186 6fbc dfe0 483c
00000040: 42b7 543d 5713 923c 4a84 91bd 4103 91bd
00000050: 92c8 55bd 5a97 0f3e dad9 88bd 1411 863c
00000060: 6686 1c3b cfbe 74bc 2fad 96bd f626 b53c
00000070: b74e 2c3d 31d6 683c 7230 1f3e 60e8 ab3c
00000080: ceab 3bbe 6844 d63b f7b3 dc3d e301 573d
00000090: b997 873c d2b6 c5bc 34fd 913c ee24 3c3d
000000a0: 45ce 293b 9f33 0d3d c00a a3be 3c01 113d
000000b0: 5b08 363d dbf3 3ebd 6a35 7bbc 1e63 e33b
000000c0: dea7 933c cb56 853c 4759 51bd 1956 39bd
000000d0: cf6e 1ebd ec15 813d f81a 643c 249b 893d
000000e0: 1e47 993c 69b1 c4bc 7414 113c a419 bc3c
000000f0: 4a2e 76bc 45c1 c73c 2290 58bc b3b9 7d3d
00000100: 4f61 2cbc c091 a33c 22e9 4abd 2177 243d
00000110: 1775 8c3d 099c 7ebc 1664 343c b6a8 c5b9
00000120: a7f4 263d 2c6a dabd c39c 813c bd04 153e
00000130: 71ad 10be 5e45 95bc 9d73 b9bd 821b 03bb
00000140: 1480 03bd 228f 9abc 9c7f 32bd 4251 28bd
00000150: 512c d1bc aec7 e1bb 052c 37bd 9131 83bb
00000160: 2888 1b3d 5ca3 06bb 876e 7ebd 4c2f fbbb
00000170: 8845 243d 5d91 073d 25ba 36bd 84d0 00bb
00000180: 250b 34bd b29b cb3a 70b6 c03d 01b1 1bbd
00000190: e991 083b ccad 06bd ab2c 5bbc 07a2 2d3d
000001a0: beff 5abb 201e 2e3d e79c 2f3d 8850 b9b8
000001b0: a92e 18bc 74a1 40bb 39da c4bc 5eb3 dbba
000001c0: 982d eb3d 6b15 133d 20d7 13bc 4fd8 c53b
000001d0: b177 bdbd 7012 bd3c 3c13 08bb 9390 043b
000001e0: fc01 f8bb 672c 2e3c 53d0 6abc b027 e73b
000001f0: 18d0 dcbc 5547 51bc bd48 00bd da24 05bd
00000200: 8fea 9a3d d73e a13c f74c 9b3c a436 313d
00000210: 7ae2 22bd 898b cc3b 5d3c cbbd 518e fe3b
00000220: 79ef 53bd 6f6f 403a 1a62 23bc a4c3 8a3d
00000230: 9547 9b3c 5db5 103c 98de aebc 7440 debd
00000240: e5ea 2a3c ab16 3b3d a5cf 68bd b3c0 6b3c
00000250: aa03 373b bc5b a83c a64c 8ebd d2cf 803c
00000260: ad2b 863d 10a1 393d 668c 1b3b 3666 803c
00000270: 5987 0d3c e15a babc ebc4 af3c 5a42 d63c
00000280: 8777 48ba a999 653c c489 1a3c 1ee6 d0bd
00000290: c122 14bc 43fd 5e3d 163e 893c 726d bfbb
000002a0: 4984 6c3c 3ce6 68be 07f3 a2bd 9090 413d
000002b0: 91ca 983a 53aa 1a3e b614 48bd cd32 e8bc
000002c0: 2286 093c a37c 2bbc db25 39bc 476d d93b
000002d0: d9e7 043b 3d13 443c 522b 2d3c cd0b d13a
000002e0: 5550 34bb 6e6f 173c 6c01 663c d4dd 91bc
000002f0: cb25 1f3e f181 9bbc 3e83 413d dccf ed3d
00000300: 51b3 313b 39a0 afbc 15dc 493d 7a1d 8e3d
00000310: 59a1 29be 00d3 b1bd d3d5 763b f028 2e3d
00000320: db7a e43c b5c9 193d b8a3 0e3d dc2c 85bb
00000330: 5609 f3bb 3d7e 223d cf39 823c efaf 733d
00000340: 4f41 27bd 0302 d5bc 2e17 a93b 2025 653c
00000350: 05c2 d2bc c7b2 393b cbb8 18bd 0e09 253c
00000360: ecf9 463d c634 19bd fed6 e83c 9312 8e3d
00000370: 70dd 94ba de1a 013d 794b 893c 91a9 433c
00000380: e695 d63c 7c6b 0ebd 8182 bdbc 77f1 31bd
00000390: 0efc a8bc 70c8 cebb 2bba 08be 0d99 a53c
000003a0: ff46 4abc ac8f 30bd 80a9 713c 39aa e43a
000003b0: 0817 5a3c 2ff4 563d a21c 403d fb7e 0bbc
000003c0: 33a3 413d cb04 e23c 1f3f 083d 6621 d4bb
000003d0: a85f 98bd be45 b0bc 4ae6 0dbe f386 acbd
000003e0: 1a97 243c 8151 4b3c 39d9 9abc 014f bebd
000003f0: d610 e7bd e496 9abc ffbd f4bb de20 653c

layer3.bias f4 [256]
-0.018813696 0.021043805 0.020596214 0.0048583476 0.007608344 0.02147233 -0.012586437 0.00953215
-0.015353588 0.009170871 -0.0011848497 0.03644491 -0.012306282 -0.06586578 -0.00086623733 0.00092633127
-0.099910274 0.013093145 -0.05057414 0.02172294 0.05582837 0.01858514 -0.052659832 0.01534431
-0.018731348 -0.008145296 0.00029900612 0.024005521 0.037822083 -0.012793914 -0.006433177 0.025765695
0.022639005 0.021523908 -0.0129484795 0.022457771 0.005825104 -0.03066259 0.014614502 4.6181005e-05
0.009989673 0.027896741 0.00897319 0.009751405 0.035985764 -0.047446415 -0.04062158 0.016274538
-0.007598951 -0.0006444097 0.051479705 0.0032711916 0.004231543 0.029317057 -0.036170866 0.026699869
0.050599005 0.027467832 0.036047116 0.040460244 -0.03966569 0.029118886 0.04333351 0.024462942
0.020292852 0.013677051 0.030005243 0.0012656262 -0.021566056 0.05609554 0.010841526 -0.09043147
0.007866279 0.024619868 -0.021641059 -0.010981436 -0.04158611 0.03696726 0.0012127332 -0.010166962
0.016915908 0.02642395 -0.012376204 0.043730367 0.021814851 0.0056140497 0.01526367 0.0022987805
0.027059084 -0.023217704 0.024585288 0.027926251 -0.00883198 0.033796296 0.0022757617 0.009146791
-0.032835852 0.013364363 0.05858968 -0.0056500905 0.01621258 0.00083124905 0.024134587 0.0038856864
-0.0068894993 0.0307076 0.0007993293 -0.00636543 -0.020143684 0.016476488 0.061078355 0.114967346
0.037905067 0.0009986975 0.023252182 0.026184186 -0.005410538 -0.024690365 0.04475351 0.068951316
-0.12127004 -0.01739942 -0.02258574 -0.023779474 0.0063296747 0.010098888 0.0254225 -0.0052149235
0.019957138 0.015129355 0.014067468 0.01621694 0.0822145 0.01333975 0.048577685 -0.010964333
0.032559626 0.0024988977 0.03633281 0.021377385 -0.014487069 -0.01132237 -0.013343173 0.06096147
0.023678614 0.043103117 0.029291743 0.005327018 0.032070838 -0.0014368801 -0.017603315 0.004929955
-0.011870462 -0.023673499 -0.015006063 0.069442324 0.013043689 -0.01312673 -0.020712623 0.03018758
-0.04007059 0.01766933 -0.0077380813 -0.017175548 0.023161788 0.020403175 0.0065310006 0.03399819
0.002761691 0.048183974 -0.011718584 -1.7125414e-05 0.009456299 0.0074105817 0.048291378 0.0135995615
-0.026271371 0.038120523 -0.0013254506 0.014094269 0.017881077 -0.007588317 0.04909388 0.022881629
-0.010124184 0.009359573 -0.003542019 -0.037197392 0.052938785 -0.10403784 0.04882884 0.014092773
0.021268869 0.006184394 0.02557759 0.022125592 0.012282306 -0.01954732 -0.02739332 -0.0069082305
0.015080479 0.042970918 0.025176045 0.00022598507 -0.0070268675 0.003492555 0.03148752 -0.0066708033
-0.003468284 -0.01445575 0.053107042 0.016140783 0.028007325 -0.015454044 0.011417633 0.010870872
-0.28626758 -0.015132303 0.004759982 0.021906402 0.026403764 -0.0033372068 0.03474178 -0.030413982
0.06169771 0.03466691 0.019686487 0.07132212 0.009374089 0.009618902 0.020181062 0.045288246
0.023894839 0.030314675 -0.034195825 -0.06230514 0.009096993 -0.048506174 0.020051545 -0.02088052
0.076595165 0.013951552 0.06664879 -0.014719159 -0.0061694095 0.023192525 0.026257439 0.0040853503
-0.0033895678 -0.022589648 0.060780056 0.11452822 0.0059011164 0.07463243 0.00729634 -0.009224816
00000000: 2e1f 9abc 0f64 ac3c 64b9 a83c c632 9f3b
00000010: 6a4f f93b bde6 af3c 5837 4ebc bc2c 1c3c
00000020: 9e8d 7bbc 6c41 163c f54c 9bba 4247 153d
00000030: 4aa0 49bc a3e4 86bd 3414 63ba 0ad5 723a
00000040: c29d ccbd a184 563c d426 4fbd 4ff4 b13c
00000050: 4aac 643d dd3f 983c d6b1 57bd b366 7b3c
00000060: 7c72 99bc d973 05bc ecc3 9c39 3aa7 c43c
00000070: 54eb 1a3d 919d 51bc 66cd d2bb 9412 d33c
00000080: 6f75 b93c e852 b03c dc25 54bc 5cf9 b73c
00000090: 84e0 be3b 1d30 fbbc aa71 6f3c 7ab2 4138
000000a0: baab 233c b587 e43c 4904 133c 5bc4 1f3c
000000b0: cf65 133d 2c57 42bd d062 26bd 2e52 853c
000000c0: 9f00 f9bb 9aed 28ba 62dc 523d 7d61 563b
000000d0: c1a8 8a3b 532a f03c e727 14bd afb9 da3c
000000e0: e740 4f3d 3804 e13c 24a6 133d a4b9 253d
000000f0: 7e78 22bd bb8a ee3c 7b7e 313d 8266 c83c
00000100: 323d a63c b615 603c 8ecd f53c 5ee3 a53a
00000110: 4cab b0bc 70c4 653d a8a0 313c 2234 b9bd
00000120: 91e1 003c 9baf c93c 9748 b1bc 7beb 33bc
00000130: 3256 2abd fb6a 173d 93f4 9e3a 5493 26bc
00000140: 3b93 8a3c 0a77 d83c 90c5 4abc 9d1e 333d
00000150: 0fb5 b23c 10f6 b73b 7914 7a3c 23a7 163b
00000160: 03ab dd3c 0e33 bebc 1667 c93c 98c5 e43c
00000170: 02b4 10bc fc6d 0a3d f224 153b 6cdc 153c
00000180: e37e 06bd 34f6 5a3c bbfb 6f3d 6524 b9bb
00000190: 3fd0 843c 2ee8 593a e6b5 c53c 00a7 7e3b
000001a0: 4fc1 e1bb 818e fb3c 158a 513a 1995 d0bb
000001b0: 5e04 a5bc b3f9 863c 4c2d 7a3d 0074 eb3d
000001c0: 5842 1b3d bae6 823a 5c7b be3c 3880 d63c
000001d0: e24a b1bb 7343 cabc 754f 373d 5936 8d3d
000001e0: 6d5c f8bd 3a89 8ebc bb05 b9bc 2ccd c2bc
000001f0: 2969 cf3b ce75 253c d942 d03c f3e1 aabb
00000200: 277d a33c 1de1 773c 3d7b 663c 63d9 843c
00000210: 1360 a83d f78e 5a3c 65f9 463d bfa3 33bc
00000220: 3e5d 053d 8cc4 233b b6d1 143d a01f af3c
00000230: 2c5b 6dbc 7681 39bc 539d 5abc bcb2 793d
00000240: a7f9 c13c e58c 303d 3df5 ef3c 448e ae3b
00000250: b65c 033d b255 bcba d434 90bc 768b a13b
00000260: 547c 42bc edee c1bc fddb 75bc c737 8e3d
00000270: 32b5 553c 7f11 57bc 85ad a9bc f24b f73c
00000280: 0f21 24bd 45bf 903c bb8f fdbb bcb3 8cbc
00000290: cabd bd3c 8f24 a73c 0102 d63b b041 0b3d
000002a0: 7dfd 343b 8f5c 453d 4eff 3fbc 8ca8 8fb7
000002b0: 98ee 1a3c 77d4 f23b 2ecd 453d b2d0 5e3c
000002c0: 0f37 d7bc 4424 1c3d beba adba a6eb 663c
000002d0: 567b 923c 6ba7 f8bb aa16 493d 4172 bb3c
000002e0: e8df 25bc e558 193c 3821 68bb 4b5c 18bd
000002f0: 57d6 583d cb11 d5bd c000 483d 60e5 663c
00000300: 0d3c ae3c 75a6 ca3b 1888 d13c bb40 b53c
00000310: ba3b 493c b421 a0bc f567 e0bc 705e e2bb
00000320: 1d14 773c 4602 303d fe3d ce3c 68f6 6c39
00000330: a341 e6bb 5ae3 643b 0ff9 003d c196 dabb
00000340: 264c 63bb cfd7 6cbc c586 593d ad39 843c
00000350: 9e6f e53c f532 7dbc 0611 3b3c be1b 323c
00000360: aa91 92be 7bed 77bc a0f9 9b3b 0e75 b33c
00000370: b54c d83c 0ab5 5abb 664d 0e3d be26 f9bc
00000380: bdb6 7c3d e4fe 0d3d 8e45 a13c 5511 923d
00000390: c795 193c 9998 1d3c c152 a53c 2b80 393d
000003a0: 1cbf c33c 7b56 f83c ec10 0cbd ad33 7fbd
000003b0: 8e0b 153c 69ae 46bd 2343 a43c a00d abbc
000003c0: eddd 9c3d 0d95 643c 297f 883d a128 71bc
000003d0: c228 cabb 40fe bd3c d719 d73c 67de 853b
000003e0: 8323 5ebb ed0d b9bc 82f4 783d c58d ea3d
000003f0: 275e c13b e3d8 983d 2316 ef3b af23 17bc

layer4.weight f4 [10, 256]
-0.0039220396 0.020343943 0.008845189 0.030528707 -0.010413118 0.0036048682 -0.021484464 -0.016585365
0.015421204 -0.0071836635 -0.0059717656 0.031297974 0.004582254 0.015229272 0.0040102378 0.010281501
-0.070794396 -0.0024173146 0.016507674 -0.019024879 0.00031885318 -0.042752534 -0.0028809025 0.034520622
0.011231871 0.0034604794 0.010773863 0.07821088 -0.029271284 0.02622529 0.02029389 0.013362357
-0.0041619753 -0.055401817 0.013959714 -0.039955124 0.009395469 0.0026398203 -0.00826993 -0.073182166
-0.006986032 0.0031728265 -0.014476575 -0.013402545 -0.010948791 -0.011054609 0.0021063068 -0.013605403
-0.012599884 -0.010363288 0.096580364 0.021024551 -0.003487764 0.057827767 0.018745279 -0.018550353
0.021635585 0.011313866 -0.0011866363 -0.030029392 -0.03821071 0.03694588 -0.019195711 -0.012009398
0.02178653 -0.0019984199 -0.019950662 -0.011562173 -0.005982121 -0.012605446 0.026286159 -0.012883675
0.007817031 0.022686625 -0.006245409 -0.007661401 -0.0025719318 0.004016046 -0.018079922 0.013962764
-0.009690124 -0.0077422573 0.0032873687 0.00012211342 -0.17907457 -0.0135612255 -0.010335321 -0.04121088
0.012691768 0.018324861 0.0069283145 0.04625064 0.021933919 0.010094876 0.020078734 0.007031091
-0.00863267 -0.11150957 0.01676915 0.043658588 -0.005542523 -0.006897978 0.007984979 -0.0013084373
0.008502839 0.042569906 -0.004674733 0.057468586 -0.0032987737 -0.01814457 -0.021662826 0.10645037
0.036491804 0.0035125338 -0.00032020523 -0.006129685 0.008690842 -0.012820792 0.0064824945 -0.030307114
-0.05104643 -0.010464222 0.00011423049 0.037302587 0.008023615 0.009003239 -0.013247215 0.03916111
-0.007935622 -0.0014287547 -0.0055689295 -0.021254845 0.06265735 0.009076554 -0.09523302 -0.008804705
0.01815719 -0.0029913262 0.004492383 -0.026622461 -0.022597447 -0.008401233 -0.005350923 0.022281293
0.005760924 -0.022216525 0.025110254 -0.0007086915 -0.00039808906 0.01378601 -0.011455183 -0.03136815
-0.009559933 -0.037428472 0.013954462 -0.010993264 0.013973998 0.059201002 -0.015699562 0.022651112
-0.033664964 0.018474048 0.013919556 -0.007025507 0.017784828 -0.010303226 0.0068841423 0.009064281
-0.016036415 0.010245194 -0.025720196 -0.011212501 -0.004683685 0.009924536 0.018324938 0.0036418773
-0.017387198 0.003072115 -0.05969974 0.008272951 -0.019569296 0.07713632 0.044595297 0.010867444
-0.025261754 -0.008413169 -0.0015541696 -0.020389237 -0.0059917658 -0.07296271 -0.013580563 0.0010809303
-0.0028891182 0.0098082 -0.04603657 0.056855585 -0.009953133 -0.01347958 -0.0027092982 0.017229818
0.015240648 -0.020271244 -0.0194541 0.0050225602 -0.0060170097 0.018434554 0.010575104 -0.012572259
-0.009175046 -0.037848037 -0.009708468 0.019760782 0.011408418 -0.029476097 0.01187012 0.005829953
0.05777536 0.026440889 -0.027527472 -0.03157047 0.0071591465 0.024430174 -0.015203851 -0.041324556
0.03511281 -0.0043448354 -0.00016968188 0.015887363 0.011579483 -0.0045916033 0.02635504 0.3405065
0.07060945 -0.02330965 -0.014010897 -0.01418072 0.015137772 0.020318404 0.052275 -0.04377388
0.047768053 0.05559431 -0.036583606 0.0018250829 -0.010467778 -0.009054081 0.02522629 0.009137234
0.020094167 0.0129473945 0.0060573756 -0.044641804 -0.00014977774 0.034428712 0.020784825 0.0005327818
00000000: 7484 80bb 57a8 a63c 69eb 103c 5717 fa3c
00000010: c89b 2abc a73f 6c3b 3000 b0bc 08de 87bc
00000020: 38a9 7c3c f064 ebbb cdae c3bb 4e32 003d
00000030: bc26 963b 3284 793c 5068 833b be73 283c
00000040: a7fc 90bd cf6b 1ebb 1a3b 873c 10da 9bbc
00000050: c02b a739 481d 2fbd 86cd 3cbb 7f65 0d3d
00000060: e205 383c 36c9 623b db84 303c 072d a03d
00000070: 55ca efbc 6bd6 d63c 5f3f a63c caed 5a3c
00000080: 2e61 88bb 04ed 62bd 49b7 643c fca7 23bd
00000090: 74ef 193c d600 2d3b 9a7e 07bc 88e0 95bd
000000a0: 15eb e4bb 32ef 4f3b 282f 6dbc 5996 5bbc
000000b0: 8f62 33bc 641e 35bc f709 0a3b 32e9 5ebc
000000c0: be6f 4ebc c8ca 29bc edcb c53d ae3b ac3c
000000d0: f892 64bb cfdc 6c3d b38f 993c e9f6 97bc
000000e0: 1c3d b13c cb5d 393c e888 9bba 3300 f6bc
000000f0: d582 1cbd 9054 173d 5340 9dbc 11c3 44bc
00000100: aa79 b23c ecf7 02bb 926f a3bc 456f 3dbc
00000110: ab05 c4bb 1387 4ebc 1256 d73c 0d16 53bc
00000120: 0113 003c 4dd9 b93c 4aa6 ccbb 7d0c fbbb
00000130: db8d 28bb 0999 833b 581c 94bc 14c4 643c
00000140: 53c3 1ebc c3b2 fdbb e570 573b 920b 0039
00000150: 535f 37be e72f 5ebc 7a55 29bc bdcc 28bd
00000160: 22f1 4f3c 051e 963c ea06 e33b 5071 3d3d
00000170: c3ae b33c fb64 253c 287c a43c 1165 e63b
00000180: 0b70 0dbc 215f e4bd 755f 893c 59d3 323d
00000190: 0e9e b5bb 6f08 e2bb 6ed3 023c df7f abba
000001a0: 7e4f 0b3c c85d 2e3d 812e 99bb 2e64 6b3d
000001b0: 3d30 58bb eca3 94bc 3d76 b1bc a702 da3d
000001c0: 6e78 153d 8a32 663b 38e1 a7b9 86db c8bb
000001d0: 0964 0e3c 4d0e 52bc 1b6b d43b a046 f8bc
000001e0: 1016 51bd 2172 2bbc 078f ef38 99ca 183d
000001f0: 7b75 033c 5282 133c d90a 59bc 6667 203d
00000200: 6904 02bc 0d45 bbba 917b b6bb a41e aebc
00000210: 7f52 803d d4b5 143c 8809 c3bd 9c41 10bc
00000220: 63be 943c 200a 44bb d734 933b 5917 dabc
00000230: 481e b9bc 53a5 09bc cc56 afbb 4287 b63c
00000240: 22c6 bc3b 6eff b5bc 05b4 cd3c 7bc7 39ba
00000250: 9cb6 d0b9 b8de 613c 85ae 3bbc e47b 00bd
00000260: 44a1 1cbc 994e 19bd 41a1 643c 171d 34bc
00000270: 32f3 643c c07c 723d 5e9c 80bc d38e b93c
00000280: 46e4 09bd e356 973c d90e 643c 3936 e6bb
00000290: 7db1 913c ddce 28bc 5f94 e13b 5a82 143c
000002a0: cd5e 83bc 75db 273c 29b3 d2bc a3b4 37bc
000002b0: 9979 99bb 859a 223c 2e1e 963c 90ac 6e3b
000002c0: 996f 8ebc 8955 493b b787 74bd 458b 073c
000002d0: ca4f a0bc a6f9 9d3d 8fa9 363d 5d0d 323c
000002e0: bdf1 cebc 63d7 09bc 47b5 cbba 5407 a7bc
000002f0: 9356 c4bb 796d 95bd 0281 5ebc 01ae 8d3a
00000300: 5c57 3dbb 93b2 203c d890 3cbd 67e1 683d
00000310: 7712 23bc 75d9 5cbc 7b8e 31bb 8c25 8d3c
00000320: e9b3 793c e10f a6bc 345e 9fbc 4a94 a43b
00000330: 562a c5bb 1004 973c 3343 2d3c e0fb 4dbc
00000340: ef52 16bc 8b06 1bbd 4410 1fbc 5de1 a13c
00000350: 60ea 3a3c db77 f1bc e47a 423c 3109 bf3b
00000360: dba5 6c3d 909a d83c 4b81 e1bc 0a50 01bd
00000370: 4697 ea3b ca21 c83c 9319 79bc f043 29bd
00000380: 73d2 0f3d 1f5f 8ebb a2ec 31b9 3726 823c
00000390: dfb7 3d3c 2975 96bb 86e6 d73c de56 ae3e
000003a0: b09b 903d e1f3 bebc f68d 65bc 4056 68bc
000003b0: 6b04 783c c872 a63c 4f1e 563d 3d4c 33bd
000003c0: 6fa8 433d dcb6 633d b1d8 15bd 9f37 ef3a
000003d0: 0b81 2bbc 9157 14bc 5da7 ce3c 56b4 153c
000003e0: 869c a43c 4f21 543c f37c c63b 53da 36bd
000003f0: a80d 1db9 1f05 0d3d f044 aa3c 62aa 0b3a

layer4.bias f4 [10]
0.19884066 0.024023714 0.031037092 0.043983568 0.023135772 -0.14465374 -0.15383367 -0.111996636
-0.317837 0.020709272
00000000: e39c 4b3e 61cd c43c 8041 fe3c 1d28 343d
00000010: 3b87 bd3c 1c20 14be 9386 1dbe 7e5e e5bd
00000020: 88bb a2be 7ea6 a93c
