target_net.pth (torch, 678637 bytes, 8 tensors)

layer1.weight f4 [256, 135]
00000000: 9a7d a1bd 8db1 15bd bc07 cebc e6a7 1cbb
00000010: 879a bdbd 5ffb 123d 77dd 8fbd d667 3a3d
00000020: 9f39 5abd c434 603d 0387 bfbd 4d69 06bd
00000030: c374 9bbd 0ea4 14bd 5b98 0e3e 291b 8abd
00000040: e9c4 62bc 1298 a73c 165b 1838 52bd 123c
00000050: 42ff edba 6278 6c3c d4b1 96bc b07a 7bbc
00000060: b019 4fbc 76b8 4cbc 760d e83a 2f92 95bc
00000070: ddf5 683c fcd2 4bbc f90b a3bc 400c 993c
00000080: a2b4 efbb 7b6c a7bc 497f 0a3a 621e 273c
00000090: e85a 95bc ef43 e2bc e900 0bbc 4c68 0dbb
000000a0: 935a 3cbc 0631 7cbb bd60 703b 74b0 9fbc
000000b0: 3ef4 e9bb 9e01 a4ba 13b7 40bc ed97 0abc
000000c0: 8f18 643c e441 81bc 2407 6d3c dc06 6fbc
000000d0: d310 a3bc 92c8 c4bb d863 e2bc fbe9 5dbc
000000e0: 3ea9 28bc a563 3ebc 2e38 a73c 2697 4abc
000000f0: 24d5 563c 6d98 813c e69c 753c ff2c a0ba
00000100: d839 bebc 2319 e4bc dfb3 c53a b6ec 413b
00000110: ba16 b7bc 7878 8a3b c4e1 b8bb 5ab2 71bc
00000120: 1422 343b 1349 5fbc 3eb1 f4bb 3352 ab3b
00000130: d553 fb3b 6aa4 843c 81aa a93c 6366 683c
00000140: fad8 7fbc b26e 97bc 4e3b 023c ba35 043c
00000150: b2a8 b53c 5863 b2b7 1538 aabc 8346 2a3a
00000160: 52ea b03c 8253 8f3b b468 313b 748b 7a3c
00000170: abb2 2a3c 78e1 803c bf82 2c3c d8d3 6fbc
00000180: 19f6 ccbc 686a 593c 150d 633c c8e7 45bb
00000190: 2dec aabc a5ec 0fbb aa4d 833c ae59 c8bc
000001a0: 78a0 a9bb 4332 793c 7bae 1fbc 3c96 723c
000001b0: f274 e6bc 574a 183b 5e63 d7bb e2ce 783c
000001c0: 53e0 8ebc 7a9a 99ba 9889 303c aeec 7bbc
000001d0: 5a30 87bb 18f8 4c3c 607b adbb 9c6d 913b
000001e0: 9617 e1bb e095 f03a 69d6 81bc 02af c0bc
000001f0: 1a06 d7bb 0e55 1bbc 4a53 8c3c 1a5c 99be
00000200: 3772 193e 34d9 293f 9193 8abc 2279 26be
00000210: d7a0 18bd ef9f c03d d08f 5cbc fe1e 0f3d
00000220: 9409 55bc 357e 123c e015 ab3b 5ea6 c23b
00000230: 20e0 d13a a444 c93c 4439 b33a a2df 9a3a
00000240: 1c9e 36bc dfa4 f3bc a865 1b3c 94be 983d
00000250: 28aa c33d aa25 ed3d e856 da3d ce76 afbb
00000260: cb2d 883c 9a51 1a3c 1271 92bc d0b9 663b
00000270: 1297 0e3c b6df 4b3c c0a0 94bc a0d5 753c
00000280: ec44 cc3b 86b3 15bc 2ee7 5dbc 840e 36bc
00000290: e21c b13c 221d bab9 3bec 683c 183f 763c
000002a0: e409 ccbb a36b a8bc 7b2e df3b 1d64 c13c
000002b0: fb35 86bc 6080 79bc ca03 f33b 47b0 8c3b
000002c0: d26f 1a3c a07f 523c 9c5e 33bc 6a73 82ba
000002d0: 42c0 3abc 3766 20bb 9f55 c9ba 0689 92ba
000002e0: 5223 963c 2c82 063c 1013 ab3c f205 86bc
000002f0: d6dd 20bc aa65 49ba f9c4 78bb a3e5 a43c
00000300: 0a39 4dbc a6b9 16bc d0dd 313b a35b acbc
00000310: 54d9 afbc 3c42 f23b 6a0a 8bbc 7e2a 553c
00000320: 117d fc3b 6416 c2bb dc46 d4b8 cc64 3fbb
00000330: fe70 2d3c 8d32 bebb 007d 33bc 27e6 82bc
00000340: ce81 97bc 0960 65bc 7c3c 2abc c0c1 96bc
00000350: 70ce 773c fd68 3f3b 1eb2 813b 9c0b c63a
00000360: 3415 3cbb be29 daba 4179 9e3b 21f8 0bbc
00000370: 7c1c 26bb 7a5f 9a3c 1871 e4ba 909c af3c
00000380: 0ae6 63bc 19df 893a 6427 0bbc 6c22 163b
00000390: 609a 293c 08cb 34bc b82b b7bc 0b60 a1bb
000003a0: 22e7 a33c f684 27bb ba30 58bc f88f b1bc
000003b0: be87 debb a2f8 a33c d9a1 0a3a 08f2 a43c
000003c0: 5c46 2fbc 9e59 173b 4479 6dbb d297 16bc
000003d0: c43f 263c c8e3 28bc c2eb 3bbb 7280 dcbb
000003e0: 818d 61bc 1145 8dbc b3b5 a6bc 84fd 423c
000003f0: c024 16bc d84f 4abc e578 243b 1837 be3c
-0.07885285 -0.03654628 -0.025150172 -0.0023903786 -0.092579894 0.035884257 -0.07024663 0.045509182
-0.053277608 0.05473782 -0.09351923 -0.032815266 -0.0759063 -0.036289267 0.13925306 -0.06743462
-0.013840892 0.020458255 3.6324454e-05 0.00895627 -0.0018157738 0.014432998 -0.018395342 -0.015349075
-0.012640402 -0.012495151 0.0017704207 -0.018258182 0.014218775 -0.012440439 -0.01990317 0.018682599
-0.0073152343 -0.02043747 0.0005283249 0.010200115 -0.018231824 -0.027620284 -0.008484104 -0.0021577058
-0.011496204 -0.0038481369 0.0036678754 -0.01949332 -0.0071397116 -0.0012512689 -0.011762398 -0.0084590735
0.013921871 -0.01577849 0.0144670345 -0.014589038 -0.019905483 -0.006005355 -0.0276355 -0.013544555
-0.010294257 -0.011620437 0.02041253 -0.012365138 0.01311234 0.015819753 0.014991021 -0.0012220441
-0.023220941 -0.027844017 0.0015083513 0.0029590554 -0.022349704 0.004225787 -0.0056421477 -0.014751995
0.0027486132 -0.013628262 -0.007467418 0.005228305 0.0076699057 0.01619168 0.020711185 0.014184567
-0.015615696 -0.0184854 0.00794871 0.00806945 0.022175167 -2.1265514e-05 -0.020778695 0.00064954924
0.021596108 0.0043739686 0.0027070465 0.015292037 0.010418574 0.015732512 0.010529219 -0.01463791
-0.025019692 0.013269998 0.0138580995 -0.0030197967 -0.02086457 -0.002196112 0.016028244 -0.024456825
-0.0051766 0.015209737 -0.009746189 0.0148063265 -0.028131936 0.002323767 -0.006573125 0.015186043
-0.01744095 -0.0011719011 0.010774992 -0.015376253 -0.004125637 0.012510322 -0.0052942485 0.0044381153
-0.0068692667 0.0018355213 -0.015849309 -0.02352095 -0.0065620067 -0.009480728 0.01712956 -0.2995308
0.14984976 0.6634705 -0.016916068 -0.16257146 -0.037262764 0.09405505 -0.013462022 0.034941666
-0.013002772 0.008941223 0.0052211136 0.0059402427 0.0016012229 0.024568863 0.0013673683 0.0011815915
-0.011146095 -0.029741703 0.009484686 0.07458225 0.09553939 0.115794495 0.10661107 -0.005354739
0.016623398 0.009418869 -0.017876182 0.0035205968 0.00870301 0.012443474 -0.018143058 0.015004545
0.006233802 -0.00913704 -0.013543887 -0.011111859 0.021620218 -0.0003549839 0.014216478 0.015029691
-0.006226765 -0.020559138 0.006810961 0.023607308 -0.016383162 -0.015228361 0.007416223 0.004293475
0.009426074 0.012847811 -0.01094785 -0.0009952609 -0.011398377 -0.0024474987 -0.00153606 -0.0011179752
0.018327389 0.008209746 0.020883113 -0.016360257 -0.009818515 -0.00076826906 -0.0037959202 0.02012903
-0.012525806 -0.0091995355 0.0027140267 -0.02103979 -0.021465935 0.0073931497 -0.01697274 0.013010619
0.0077053388 -0.0059230793 -0.00010122146 -0.0029204367 0.0105860215 -0.005804366 -0.010955095 -0.015978886
-0.018494513 -0.013999947 -0.010390397 -0.018402934 0.015124902 0.0029206865 0.003958001 0.0015109661
-0.0028699161 -0.001664452 0.004836232 -0.008543045 -0.0025346568 0.018844355 -0.0017428724 0.02143696
-0.013909826 0.0010518759 -0.008493278 0.00229087 0.010351747 -0.011034735 -0.022359714 -0.0049247793
0.020007674 -0.0025561429 -0.013195211 -0.021675095 -0.006791084 0.020016018 0.00052883994 0.02013494
-0.010697927 0.0023094187 -0.003623561 -0.00919147 0.010147039 -0.0103082135 -0.0028674458 -0.006729179
-0.013766647 -0.017244847 -0.020350313 0.011901263 -0.009164035 -0.012348138 0.0025096473 0.02321963

layer1.bias f4 [256]
00000000: 432e d7bc 88e5 2abb 7a06 41bd 9de7 203c
00000010: f0eb b23c ee50 5d3d 828b 3d3b 4545 973c
00000020: 6628 46b9 cf34 763c a7eb 02bd 7bac 4b3d
00000030: e4e8 fb39 d009 c3bb 30cb 02bc f8c7 e439
00000040: 3648 c4bc 190c 8f3c dd02 b93b 5860 a8bc
00000050: 17b2 e63c c63b 813b 0a65 e13b 669b e9ba
00000060: 303c 763c 27c0 223d f84d 0c3c 5633 783d
00000070: 97ea cc3c 2083 cc3c 2f18 ad3c aa1b 013c
00000080: 8af3 abbc 9c43 52bb 1887 183d 361b 90bb
00000090: aab6 4c3d 8ad1 e33c b222 84bb 735d acbc
000000a0: 54b7 0c3d fbf4 2c3a 9817 26bb 2dbf 3e3c
000000b0: 54bf 863b c616 663d f479 453d 8e14 9abd
000000c0: b54d 903c 7e53 133c 7a1e 9c3c 8f35 71bb
000000d0: 9d35 25bb 9275 ad3c b605 603c fb2e 023c
000000e0: 223c 61bc e61a 1cbc 2a7c a53c f198 113c
000000f0: e4e0 c93c 78e1 f3bb 7ab0 423d c2a7 043d
00000100: 4c6e a1ba 400d 6d3c ef16 c9bc 5ef0 dd3c
00000110: 7642 15bd d79d b1bb 96c7 523d 58b1 4cbb
00000120: dce9 20bc 4a15 073d fcec 8f3c 7000 9ebc
00000130: 975c fe3c dea5 673d 022a 043c 68a9 aabc
00000140: 78ef b4bb ae33 133d 4e08 1b3d 74c5 1a3d
00000150: 6601 f8bc 835d bebb 8ce9 ae3d ce3a cf3a
00000160: f5de ac3c 10bd 573c 76a4 313d 6862 083d
00000170: 4d55 c3bc 5a83 64bb c2b7 84bd c06d a3bc
00000180: db7a 6cbc 360f 023d 7e60 b13c 6f78 923b
00000190: 8a5f db3c 72bb 833c fe50 4d3c 96fc 2fbd
000001a0: 6c8d 063d 864c c6bb 8937 aebb caec 593c
000001b0: 31a8 8fbc 7298 1b3d 0c26 2cbd 94df f73b
000001c0: 6d7c abbc 0b83 ec3c f8eb 6d3c 947d f43b
000001d0: a4c4 b23d 9062 d13b fb48 febb 7e30 0abc
000001e0: 8bcc ec3c c051 043d 7287 943b a4cb e0bc
000001f0: f8e9 ddbc 2b30 933c 0ad2 163b 8cdc 813c
00000200: aa56 27bc 5f51 253d fac5 b73c 0ba0 acbc
00000210: 6a9a 103d 6483 863c 6532 0d3d fca5 cd3c
00000220: bce5 703d 5d9c bd3c 9713 363d fa4c 0c3d
00000230: 1c12 2f3d 2806 073d dc86 d43a 8289 7b3c
00000240: 30ce 4ebb ee29 233d 0084 67bb b072 e139
00000250: f02f 92bc e477 3b3c 8061 a13c 79ef edbc
00000260: 9898 853c 0204 983b 2e7b 2abb 4215 70bc
00000270: c66e 0abd a675 67bc 4a91 07bc 067a a9bc
00000280: c602 0abc 2cfa f5bb 5e67 463d 9985 293d
00000290: ef70 bb3b 20b9 86b8 18c3 3fbc 426b f1bc
000002a0: e445 733d fc7a 70ba 9729 2d3b b4f6 8cbc
000002b0: ee42 14bc b4cb 633d d9c7 e03c 1869 313c
000002c0: afca 7a3c c4f8 c63c 83fb 2ebc 12ee 393d
000002d0: 3130 423c b258 4bbd d328 aeb9 eed4 cf39
000002e0: 7381 2a3d 637e d03c fef2 25bc 1ad4 013d
000002f0: b2b0 f73b 2e26 123d 561c 35bc 575f e63c
00000300: 1ef3 99bc f265 4fbb b0da ea3b 96e7 df3b
00000310: b2c5 bcb7 80de ce3c 6a5d 9b3a c505 03bc
00000320: 44fe c23b f02f 9dbc 0226 883b 174e e83b
00000330: 53fc 2dbb 645b 8cbc 889e dfbc 9ae8 753c
00000340: 5ea5 43bc 6438 1a3c 68d2 c83b c072 3ab9
00000350: 86b8 77bc fcc8 153d e746 913c bd08 bd3b
00000360: c3c2 b4b8 a665 ad3d 8615 323d 9ed5 8e3c
00000370: 431c c6bb 6068 a33c 2ca7 e13d 510b 1d3b
00000380: 6ed5 fd3b dcaf 8e3c e34a 21bd 9c25 b7bb
00000390: a403 283d 4ce2 a63c 53d1 193d 09dc 51bc
000003a0: 984e 863c 6389 2a3c d804 85bc d5d1 04bc
000003b0: cdc8 a53c 0300 513c 1086 7e3c e49e e93c
000003c0: 60d9 5ebc f8e8 0ebd a216 c9bb 6ec5 623d
000003d0: 8897 f53c ac5b 59bc a2fc b8bc 1ac5 20bb
000003e0: 72a9 0bbc fc5f a23c 7a14 9cbb 84aa b53c
000003f0: a472 c73b 17ae a6bc cd24 ac3b ee5f 1ebd
-0.026267176 -0.0026076753 -0.047125317 0.009820846 0.02184102 0.05403226 0.0028922264 0.018465647
-0.00018897801 0.015027239 -0.031963017 0.049725037 0.00048047968 -0.0059520975 -0.007983014 0.00043636537
-0.023960214 0.017461823 0.0056460933 -0.020553753 0.028161092 0.003943893 0.0068785 -0.0017822802
0.015028998 0.039734032 0.008563511 0.060595833 0.025014205 0.024964869 0.021129696 0.007880131
-0.020990152 -0.0032083755 0.03723821 -0.004397775 0.04997889 0.027809877 -0.0040324563 -0.021040654
0.034354523 0.0006597784 -0.0025343653 0.01164226 0.0041121636 0.056174062 0.048212007 -0.07523452
0.017615179 0.008992074 0.019057501 -0.0036805605 -0.0025208958 0.021174226 0.013673237 0.007945771
-0.013747247 -0.009527897 0.020200808 0.008886562 0.024643369 -0.0074426495 0.047531582 0.03238655
-0.0012316196 0.014468491 -0.024547068 0.027092155 -0.036440335 -0.0054204273 0.05145987 -0.0031233635
-0.009821381 0.032979287 0.017569058 -0.019287318 0.03105001 0.056554668 0.008066656 -0.020832732
-0.005521711 0.035937957 0.037849717 0.037785962 -0.030274104 -0.0058094873 0.08540639 0.0015810372
0.021102408 0.013167635 0.043369733 0.033296973 -0.023844386 -0.003486833 -0.064803615 -0.019949794
-0.014433588 0.031752788 0.021652456 0.004469923 0.026778955 0.016080592 0.012531517 -0.042965494
0.032849714 -0.006051603 -0.005316679 0.013301084 -0.017536255 0.03798718 -0.04202847 0.0075644944
-0.020933354 0.02887108 0.014521591 0.007461259 0.087289125 0.0063899234 -0.007760165 -0.008434413
0.028906127 0.032304525 0.004532748 -0.027440853 -0.027089104 0.017967304 0.0023013377 0.015852235
-0.010213533 0.040360805 0.02243327 -0.021072408 0.03530351 0.016420074 0.034471888 0.025103562
0.05881284 0.023145849 0.044452276 0.034253098 0.04274188 0.032964855 0.0016214508 0.015352609
-0.0031556003 0.03983491 -0.003532648 0.00043000793 -0.017845124 0.011442158 0.019699812 -0.029044854
0.016308114 0.0046391496 -0.0026013362 -0.014653506 -0.033797048 -0.014127171 -0.008274386 -0.020688068
-0.008423513 -0.0075066295 0.048438422 0.041387174 0.00572025 -6.4241e-05 -0.011704229 -0.02947009
0.059392825 -0.00091735995 0.0026422495 -0.017207481 -0.00904916 0.05561419 0.027439045 0.010828279
0.015307113 0.024288543 -0.010680082 0.045393057 0.01185231 -0.049645133 -0.00033218283 0.00039640762
0.04162736 0.02545089 -0.010128735 0.031696416 0.0075589055 0.035680942 -0.011054119 0.028121633
-0.018792685 -0.0031646458 0.007167183 0.006833027 -2.2503405e-05 0.02525258 0.0011853401 -0.007996981
0.005950721 -0.019187897 0.0041549215 0.007089387 -0.0026548102 -0.017133422 -0.027297273 0.01500907
-0.011941282 0.009412859 0.006128598 -0.0001778109 -0.015119677 0.036568627 0.017734004 0.005768864
-8.619346e-05 0.084666535 0.043477558 0.017435845 -0.0060458495 0.01994723 0.11018214 0.0023963044
0.00774639 0.01741784 -0.03937806 -0.0055892 0.041019097 0.020371579 0.037553143 -0.012808808
0.016394898 0.010408732 -0.016237661 -0.0081066685 0.02023735 0.01275635 0.015534893 0.028518148
-0.013601631 -0.034890145 -0.0061367312 0.055364065 0.029979482 -0.013266485 -0.022581402 -0.0024531544
-0.008524286 0.01982116 -0.004763183 0.022176035 0.0060866643 -0.020346684 0.0052534104 -0.038665704

layer2.weight f4 [256, 256]
00000000: 0ebe 8b3d 6eae 513d 2c31 9fbd 50c9 d9ba
00000010: fe28 b93c 76bf 0dbb ce8b 96bd 0f89 92bc
00000020: f40a c7bc 186d d03b 08b5 c43b 2674 5cbd
00000030: 39b8 68bc 0efd bdbc 361e 15bc df81 2c3b
00000040: f300 893d 7b12 983d 1b36 423d 2adb 3e3d
00000050: eaba 483c cb47 c8bc e4d5 ef3c 913f 62be
00000060: d874 8a3d b878 2dbb 7812 9c3c 664d 88bd
00000070: 2446 e43c a6db c73c dc7c 8cbd f276 123d
00000080: ec4c 8ebc 9da7 3cbc d289 4e3c 29a3 f5bc
00000090: c6b1 0e3d 1abc 14bd a619 38bb 5be2 07bd
000000a0: 04d9 7c3d e577 183d c0ab 66bd 7803 fabd
000000b0: 1f35 873d 0ec1 8bbc 554d 53bc 9a7e 1a3c
000000c0: b225 583d 7292 30bd b8b1 003b 96eb 51bc
000000d0: f08d 2abc 0847 b6bd 9300 053d f686 923c
000000e0: d603 3ebd 1c52 e2bc 3051 113d 7997 4f3d
000000f0: 1910 45bd f48a 5abd 54cf 84bd 9483 ca3b
00000100: f5d1 09bc c254 9fbd 413b 223d 57d1 a83c
00000110: ad3b f33c 4ec3 1f3d 3f7d 073d 3bb7 593d
00000120: 9d4e 01be a68a 0dbe 6c5c 16bd 8af3 fd3c
00000130: 10e5 b73b f4fe 30bb adc5 87bc ef03 22bc
00000140: 081b 143c 2f7d bcbc 6fbd 853c 7ea5 80bc
00000150: 7692 7bbe e035 91bc 8cc8 823d c0ae b4bd
00000160: 1a04 c1bb 7a31 7ebd 88f1 233d ff9c 303d
00000170: 006e 913b a92c 98bc 5677 8abe 622f 92bd
00000180: 8b3c a1bd 61b5 473c cf8f 4b3c 6aa0 4cbb
00000190: 98f7 9a3b dcba 8f3c ab48 97bc 4fe6 7a3c
000001a0: 9ade 18bd 95e0 a0bc f591 c7bc 9806 4b3d
000001b0: a64a 0a3d 5347 7e3a ae99 2e3d 8b38 7d3d
000001c0: 9237 b03c 6f21 e1bc f4b4 dabd da49 433d
000001d0: f72c bebc 9a16 adbc c26f ecbc 1035 823d
000001e0: 9860 893d 5269 8fbd a01b ed3d c626 7dbd
000001f0: 9e2a 07bd 180d acbc 0a4d 32bd e664 c43d
00000200: 2b18 afbd 9204 6b3d fed6 463d 1e32 23bd
00000210: 8a55 8dbb 74e4 23bd d7d0 f43c 38a8 5bbd
00000220: eef4 af3d b87a 0dbc af1c e5bc 409d 61bc
00000230: eecf 143d 93e8 e33c 49d2 a33c 4b88 a73d
00000240: 6259 8e3b f274 5cbd 10bf 01bd 3f58 ca3c
00000250: 21a8 25be 1f36 55bd dc71 2f3c 42a4 653d
00000260: 31e2 89bd b8f8 96bc dab3 b8bc 90de 753d
00000270: d6a1 2b3c 94e7 803a 112f 22bd 32d6 8bbd
00000280: a42c 713a 324f 2d3d 34b6 a2bb 6ef8 1a3d
00000290: c5e0 8dbb 97b3 e4b9 b232 9dbb 3279 0abd
000002a0: 8f22 d33b dffe a43d 0696 533d 468e 3ebe
000002b0: 783a 4a3b 8d1d 4b3d dc23 c93d 407f ecbb
000002c0: b51a 7c3c c82f c2bd a93e c0bc 6756 76bb
000002d0: 7fed d03c ab30 90bd 9cf3 4bbd 54f3 9a3d
000002e0: f026 293b 9c1d 1bbd 64c7 f33c 7e3a 6b3d
000002f0: 248d 2d3d fa3b 243d 909a 1e3c d87e 753b
00000300: b18b c73b 78ef 3f3c 6650 023d b879 4d3d
00000310: 1e2c 83bd bcab 5f3d 42f7 b1bd 17cc d73c
00000320: 9607 8fbc e0cf 80bd 005d f43c 2fda 4cbd
00000330: 7842 3f3d 373e d33c d627 3abe 5e8a 5b3d
00000340: 3a4f c83b 1893 143c 4f76 143d f5be 38bc
00000350: 82e5 b03a 00c3 223d c89a b03c 8672 d6bc
00000360: c468 9cbc 9a89 cd3c c8bf 0abc 09f8 eabb
00000370: 98cc 97bc 16a6 81bc a85a 15bc 418e f23c
00000380: e95d 36bc 8ef3 b03c 5b91 733d b6b6 aebc
00000390: fef1 023d 6618 40bc a033 d93c 7e1a 09bd
000003a0: 6088 583d 273d 3f3b 5990 fb3b e6e7 8a3d
000003b0: 2249 bdbd 3d97 13be 602a ba3d 54ec 1abd
000003c0: 70f8 02bd cd46 b6bb aaf0 8abc d430 893c
000003d0: d112 8c3b 1862 57bc 9fdd b23c a2a0 d23c
000003e0: c561 e03d 9e85 563d 223d cb3c 28ed 13bd
000003f0: a857 313b 8837 363c 06d9 80bd 5ba1 433c
0.068233594 0.05119174 -0.07773051 -0.0016615782 0.022602554 -0.0021629012 -0.073508844 -0.01788762
-0.024297215 0.0063606612 0.006003026 -0.053821705 -0.014204078 -0.023191955 -0.009101441 0.0026322526
0.06689634 0.074254 0.04741488 0.04659573 0.012251595 -0.024448296 0.029276796 -0.22094561
0.067605674 -0.002646966 0.019051775 -0.066553876 0.027865477 0.024396729 -0.068597525 0.035757966
-0.017370664 -0.0115145715 0.012606101 -0.029985027 0.034837507 -0.0363122 -0.002809146 -0.033174854
0.0617304 0.037223715 -0.056316137 -0.12207693 0.06601929 -0.01705983 -0.012896855 0.009429598
0.052770324 -0.04310841 0.0019637179 -0.012812516 -0.010409817 -0.08900267 0.03247125 0.01788662
-0.046390377 -0.027627043 0.035477817 0.050681565 -0.048111055 -0.053355172 -0.06484857 0.006180236
-0.008411874 -0.07779838 0.03960729 0.020607634 0.029691542 0.039004616 0.03307843 0.053153258
-0.12627645 -0.13822421 -0.036709234 0.030999918 0.005612023 -0.0027007433 -0.016573751 -0.009888633
0.009039648 -0.023008911 0.01632568 -0.015703913 -0.24567589 -0.017725885 0.063859075 -0.088223934
-0.0058903815 -0.062058903 0.040025264 0.043118473 0.004438162 -0.018575983 -0.2704417 -0.07137944
-0.07872876 0.01218924 0.012424423 -0.0031223544 0.0047292225 0.017545156 -0.018467268 0.015313699
-0.037321664 -0.019638339 -0.02436159 0.049566835 0.033762597 0.0009699959 0.04262703 0.0618215
0.021510873 -0.027481763 -0.10679045 0.047677852 -0.0232148 -0.021128941 -0.028861884 0.06357777
0.06707877 -0.0700251 0.11577535 -0.061804555 -0.032999627 -0.021002337 -0.0435305 0.09589557
-0.085495315 0.057377405 0.048544876 -0.039842717 -0.0043131756 -0.04001279 0.029884739 -0.053627223
0.085916385 -0.008635215 -0.027967779 -0.0137704015 0.03633111 0.027820861 0.019997733 0.08180293
0.0043441514 -0.053822465 -0.031676352 0.024700282 -0.16177417 -0.052053567 0.0107082985 0.05606485
-0.06732596 -0.018429145 -0.022546697 0.060026705 0.010475596 0.0009834641 -0.039595667 -0.06827964
0.00092000724 0.042311855 -0.004965568 0.037834577 -0.004329773 -0.00043621354 -0.004797303 -0.033806987
0.0064433287 0.08056425 0.051656745 -0.1860896 0.0030857604 0.04958873 0.09821293 -0.007217318
0.015387227 -0.0948177 -0.023467379 -0.003758812 0.025503872 -0.07040533 -0.04979287 0.075659424
0.0025810562 -0.037870035 0.029758163 0.05742883 0.04237093 0.04009626 0.009680405 0.0037459638
0.0060896506 0.011714809 0.031814955 0.05016491 -0.06404899 0.054607138 -0.08689739 0.026342435
-0.017459672 -0.06289649 0.029829502 -0.050012764 0.04669425 0.025786502 -0.18179259 0.053598754
0.00611296 0.009068273 0.03624564 -0.011275996 0.0013496133 0.039736748 0.02155818 -0.026177656
-0.019092925 0.025090028 -0.008468576 -0.0071706814 -0.018530175 -0.015826266 -0.009115852 0.029608848
-0.011130788 0.02160051 0.059464794 -0.021327358 0.031969063 -0.011724567 0.026513875 -0.03347253
0.052864432 0.0029180737 0.0076771197 0.06782512 -0.092424646 -0.14413162 0.09090114 -0.037823036
-0.03197521 -0.0055626393 -0.01696046 0.016746916 0.004274704 -0.013145946 0.021834193 0.025711361
0.10956148 0.05237352 0.024809424 -0.03611484 0.0027060304 0.011121638 -0.06291394 0.011940326

layer2.bias f4 [256]
00000000: 3a31 953c a750 3b3c 2190 9dbb 1860 4dbc
00000010: 7376 673c d8ca f0bb addf 1c3c d07d 163c
00000020: 3cf1 4ebb f124 79bb 02d3 933c 6604 6bbd
00000030: 18a5 dbbb 1e67 b7bc 1115 1a3c e870 4f3d
00000040: dcf8 5bbc 8af8 453d 31eb fd3c f8c8 83bc
00000050: 89c3 1c3b bea7 74bb b1d6 3b3c 3065 d73c
00000060: dde1 583c a8b0 d43c aba9 403d 2ab8 af3c
00000070: 145e b33c 7183 aa3b a2a9 a5bc aca0 25bb
00000080: 74ea 8ebc a3ae c73b f83d e0bc 6a1f 353c
00000090: 319d c83c bc61 453b a6f1 833c 90f8 98bb
000000a0: 3582 873d 7cfe 483d da3d 87bc 37b4 f1bb
000000b0: 3289 143d b352 16bc da6d 353d f38b 213c
000000c0: fe15 a33b 507d 173c 3c9d adbc 2a8d bd3c
000000d0: e6e2 d73c 264a 0f3c 142e 483c eb5a 943c
000000e0: aff0 75bc 3013 6dbc a08f 903b 360c 70bc
000000f0: ec54 c93c 155b 943c 2ec6 f53c b73c 3c3c
00000100: 20e4 153c 5b9a 8c3c 97cf 1bbb b033 a93c
00000110: 9a4c e73b 50cb 19bc c8bf 313d 8a07 91ba
00000120: 40eb 37bc c682 46bc bf66 9c3c 1e72 903c
00000130: 66f7 68bb 4661 01bd 34bf e73a d0b1 083d
00000140: fac6 2c3c a8a3 bbbc 1c42 9d3c e7ef 88bb
00000150: 50a2 3cbc 1b1c 24bc fc96 523d 1c75 86bc
00000160: 6434 2ebc 9436 76bc 00f9 2c3a 06ab 96bc
00000170: 9907 3d3c 5754 313c 31c6 813c 2c9f 83bc
00000180: 95d0 c2bc 527f 953b 9a41 17bd 9b9c 283d
00000190: 30f7 62bc 76da 333c 4000 0a3d 30bf 0e3d
000001a0: f2ac 7e3c d03a 333d 52ca 03be c867 653c
000001b0: 1d92 3ebc 1adb 1f3c 300c 2b3d f8dc e93c
000001c0: ae70 173c 8a06 653d 47d4 8e3d 7094 2abc
000001d0: 81d1 933a fed9 da3d 3a81 3b3d 10ab eb3b
000001e0: 0657 a6bb 2e7b babb adc4 23bc 2eec 1b3a
000001f0: 92c7 943d 9907 c8bb 620c d63c 21a7 243b
00000200: d06f 09bd e95a 10bd b6e2 1a3d c44e 693d
00000210: 08c6 823c 02e7 eb3d f4cf 8f3d 27f5 353d
00000220: 1a4b 1e3d 17e5 343c 6ae2 3c3d 6c80 83bd
00000230: 6a84 c53c 8ba1 71ba 90d0 8bbb bec0 223c
00000240: b181 02bc a968 cdbc 56ea 8ebc a848 143c
00000250: cffa a4bc a8d2 6f3c e0b7 a8bc 02b2 c53c
00000260: 20f2 14bb d3a4 7dbc ca0a 18bd 9cd7 aa3d
00000270: f0fe 393c 283a 753c 45de a93d be4b 493d
00000280: a85e abbc 5319 a43c 5cca 30bc ec3b 903b
00000290: 70d9 a23c 2eb4 b83b ae4e 6a3d 9ec1 e73c
000002a0: dab5 9abb 2691 823c d0da 74bb c2ef 56bb
000002b0: e500 f33c 430d 1bbd 39e4 0f3d 836d a63c
000002c0: 1da9 943c 2b13 a1bc f3e1 fcbb cacc e23b
000002d0: 1ef2 013b 5a03 093c 93d1 55bc c210 163c
000002e0: 4753 1c3d de52 ce3d e2c9 203d 20fb 8bbc
000002f0: 76b0 edbb 0ac9 813c 8d15 fc3b 8aa2 67ba
00000300: b1bc 62bc 8996 acbb 3d87 3d3d f009 823c
00000310: ca3b 873b 46e1 f73b 914c 413a 1486 413c
00000320: 349b b23b 4edb 3c3b 7944 e7bb 86bc 0dbd
00000330: 2032 d4bc c0bb 17bc 1138 803b 3e86 9a3d
00000340: ea49 9dbc d5b5 9dbc 2807 babc f255 12bc
00000350: aa4f debc fc69 da3d a024 9b3c aa6d 02bc
00000360: 1623 9ebc 75c0 ddb9 427a f43c 7f79 53bc
00000370: ca6e e53c 9854 463d d42e a33c c283 8bbc
00000380: 0be1 95bc 08ec 4d3c e28c 54bc 7bb7 9f39
00000390: fa01 233c 20b4 8b3c afb8 513d 60cc 023d
000003a0: b03f 713e 85ce 163d a072 febc 7095 8e3b
000003b0: ac44 c93c 70e9 77bd f8c2 f4bc 23da a73c
000003c0: f00a e8bb 02aa 43bb d65a cc3c dc16 9b3b
000003d0: 5afd 9bbc 6aaf e1bb e8e9 763c 6ca5 a93c
000003e0: 92be 4c3c 0323 943d 5864 b7ba a62e da3b
000003f0: 0291 443c de31 083d 8f40 273c 0aae 833d
0.01821195 0.011432803 -0.0048084413 -0.012535118 0.014127362 -0.0073483996 0.009574813 0.0091852695
-0.0031576892 -0.0038016404 0.018044952 -0.05737724 -0.0067030303 -0.022388037 0.009404437 0.050644785
-0.013426032 0.04833273 0.030995937 -0.01608704 0.002392026 -0.0037331427 0.011464761 0.026293367
0.013237444 0.025963143 0.047036808 0.021450121 0.021895446 0.0052036573 -0.020222489 -0.002527277
-0.01744578 0.0060938164 -0.027373299 0.011054853 0.024489017 0.0030118069 0.016106438 -0.004668303
0.06616632 0.04907082 -0.016508985 -0.0073762196 0.036263652 -0.0091749905 0.044294216 0.009860027
0.004976987 0.009246185 -0.02119314 0.023138601 0.02635331 0.008745706 0.012218017 0.01810976
-0.015010997 -0.014469907 0.0044116527 -0.014651349 0.024576627 0.018109838 0.030001726 0.011489085
0.0091486275 0.017163446 -0.0023774856 0.02065453 0.007058692 -0.009386852 0.043395787 -0.0011064869
-0.011225522 -0.01211614 0.019091962 0.01763254 -0.0035547852 -0.031586908 0.0017680884 0.0333727
0.010545487 -0.022905186 0.019196562 -0.004178989 -0.011513308 -0.0100164665 0.05141352 -0.016413264
-0.010632608 -0.015027661 0.0006598383 -0.018392097 0.011537456 0.010823331 0.015841575 -0.01606711
-0.0237811 0.004562297 -0.036927797 0.041164976 -0.013852879 0.010977378 0.033691645 0.0348503
0.015544163 0.04375726 -0.12870148 0.014001794 -0.011631516 0.009756828 0.04175967 0.028547749
0.0092431735 0.05591444 0.069740824 -0.010411367 0.0011277647 0.1068611 0.045777537 0.007192023
-0.005076292 -0.0056909537 -0.009995622 0.0005947974 0.072646275 -0.0061044213 0.026128951 0.002512403
-0.0335539 -0.03524295 0.037813865 0.056959882 0.01596357 0.115186706 0.07022086 0.04442325
0.03864584 0.011040947 0.046114363 -0.06420979 0.024110992 -0.0009217492 -0.004266806 0.009933649
-0.007965491 -0.02507432 -0.017445724 0.009050526 -0.020139126 0.014637627 -0.020595491 0.024132732
-0.0022727326 -0.015481192 -0.037119664 0.083419055 0.011352286 0.014967479 0.08294348 0.0491445
-0.020919159 0.020031607 -0.010790434 0.0044016745 0.019879073 0.0056367135 0.05720394 0.028290566
-0.0047213854 0.015938353 -0.0037361868 -0.0032796715 0.029663512 -0.037854444 0.03512976 0.020315891
0.018147046 -0.01966246 -0.007717365 0.0069213854 0.001982815 0.0083626155 -0.013050455 0.009159269
0.038165357 0.100743994 0.03925503 -0.01708752 -0.007253702 0.015842933 0.0076929987 -0.0008836171
-0.013838933 -0.0052669686 0.04627155 0.01587388 0.0041270005 0.0075646965 0.0007373775 0.011811752
0.0054506306 0.002881724 -0.007057723 -0.034603618 -0.025902808 -0.009261072 0.0039129336 0.07545136
-0.019200284 -0.019251743 -0.02270849 -0.008931624 -0.027137596 0.10664746 0.018938363 -0.007960716
-0.01930384 -0.00042295796 0.029843453 -0.012907385 0.02800693 0.04842052 0.01991979 -0.0170306
-0.018295785 0.012568481 -0.012973042 0.00030463547 0.009949202 0.017053664 0.05120152 0.03193319
0.23559451 0.036818046 -0.031060517 0.0043513104 0.024568878 -0.060525358 -0.029878125 0.020489758
-0.007081382 -0.0029855971 0.024945658 0.0047329497 -0.019041706 -0.006887366 0.015070416 0.020708762
0.012496607 0.072332405 -0.0013991697 0.006658393 0.011997463 0.033250682 0.010208263 0.0642968

layer3.weight f4 [256, 256]
00000000: de3c 09be b859 3ebd 5ce3 88bd 5047 bebb
00000010: 5eff 8dbc 328a 013d b455 25bd 50c4 0dbd
00000020: e04a 1bbc dcdc c83c 180d 2cbb c4d7 7abd
00000030: 229c fd3c 5470 a1bc b685 6fbc 92df 483c
00000040: e6b6 543d d212 923c 3884 91bd 0804 91bd
00000050: 1acb 55bd 6e97 0f3e 4ad9 88bd e610 863c
00000060: 9776 1c3b 16bc 74bc 88ad 96bd 2827 b53c
00000070: 494e 2c3d 4fd6 683c 1e30 1f3e 4ae8 ab3c
00000080: 66ab 3bbe f23f d63b 68b4 dc3d 9a02 573d
00000090: 2593 873c 94b9 c5bc 22fb 913c 4425 3c3d
000000a0: 43ee 293b 9633 0d3d be0a a3be 6100 113d
000000b0: ac08 363d 5af3 3ebd e92d 7bbc 3c63 e33b
000000c0: dfa3 933c dd56 853c 1e5b 51bd 0c55 39bd
000000d0: 526f 1ebd 0f16 813d c71b 643c fc9a 893d
000000e0: ae43 993c acb4 c4bc 8814 113c ee17 bc3c
000000f0: 9437 76bc 76c1 c73c de8c 58bc 44b7 7d3d
00000100: 2160 2cbc 048e a33c 67eb 4abd c277 243d
00000110: e474 8c3d 9a96 7ebc ac63 343c d0fb c5b9
00000120: b4f2 263d 596a dabd 8b96 813c 1e05 153e
00000130: a9ad 10be 8e43 95bc 0a74 b9bd 8a41 03bb
00000140: f07f 03bd a68f 9abc ee81 32bd fc51 28bd
00000150: 242d d1bc ddcf e1bb 562d 37bd a331 83bb
00000160: 188b 1b3d dfa5 06bb b672 7ebd 6e2f fbbb
00000170: c344 243d 9d91 073d 7eba 36bd a1dc 00bb
00000180: 460c 34bd ce9b cb3a 3cb6 c03d 08b4 1bbd
00000190: 568f 083b 3aae 06bd 5833 5bbc dca2 2d3d
000001a0: 22fe 5abb 181e 2e3d 2497 2f3d a050 b9b8
000001b0: be2e 18bc 8ea1 40bb 43d8 c4bc c0db dbba
000001c0: 752d eb3d 5214 133d 14dc 13bc 69d8 c53b
000001d0: 3c77 bdbd f414 bd3c e10c 08bb a590 043b
000001e0: 1c02 f8bb 802c 2e3c 74d0 6abc 7917 e73b
000001f0: 78d0 dcbc 7247 51bc 9b4a 00bd f624 05bd
00000200: ccea 9a3d a83e a13c 1c48 9b3c 6236 313d
00000210: 90e2 22bd a483 cc3b aa3b cbbd 3c85 fe3b
00000220: 78ef 53bd 65fe 3f3a 4262 23bc fac2 8a3d
00000230: 5148 9b3c 78b5 103c badd aebc a740 debd
00000240: fbea 2a3c a916 3b3d 6cd0 68bd d4c0 6b3c
00000250: 38e6 363b f85a a83c 1e4d 8ebd b0d2 803c
00000260: cf2a 863d 02a1 393d bf97 1b3b af65 803c
00000270: 6b87 0d3c 845c babc ecc2 af3c a541 d63c
00000280: aad8 48ba 4292 653c d889 1a3c cde6 d0bd
00000290: d227 14bc 30fd 5e3d fa3b 893c 7a75 bfbb
000002a0: 7077 6c3c 34e7 68be 30f3 a2bd 6d90 413d
000002b0: ae2c 983a 18aa 1a3e 2614 48bd 7634 e8bc
000002c0: 8286 093c b97c 2bbc f029 39bc 646b d93b
000002d0: 9beb 043b ee0e 443c d624 2d3c 1cfe d03a
000002e0: fa5c 34bb a470 173c 1200 663c e8dd 91bc
000002f0: 0e26 1f3e d081 9bbc 3084 413d 00d0 ed3d
00000300: 6ab3 313b b4a1 afbc 3adc 493d e11d 8e3d
00000310: 90a1 29be a8d3 b1bd f4d5 763b 4828 2e3d
00000320: c275 e43c 1aca 193d a6a3 0e3d 0032 85bb
00000330: dc1e f3bb 827e 223d e139 823c 82b0 733d
00000340: 3241 27bd 8203 d5bc 9c17 a93b 3e25 653c
00000350: 40c9 d2bc fcc4 393b 3bbd 18bd 2303 253c
00000360: 40fa 463d 6134 19bd 6fd3 e83c 9a12 8e3d
00000370: 4b65 95ba ae1a 013d e048 893c aba9 433c
00000380: bc95 d63c c16b 0ebd b684 bdbc 24f1 31bd
00000390: 86f7 a8bc 22cc cebb 3dba 08be ea99 a53c
000003a0: 343f 4abc 1a90 30bd daa5 713c fc98 e43a
000003b0: 3415 5a3c daf3 563d aa1b 403d 0281 0bbc
000003c0: dda3 413d 4808 e23c f83e 083d 8221 d4bb
000003d0: 9260 98bd 4246 b0bc 76e6 0dbe 3687 acbd
000003e0: 3097 243c f451 4b3c 88d5 9abc 4f4f bebd
000003f0: 0111 e7bd 4595 9abc 20be f4bb ff21 653c
-0.13402125 -0.04647228 -0.0668399 -0.005806841 -0.017333683 0.031625934 -0.040364936 -0.034611046
-0.009478301 0.024519376 -0.0026252922 -0.061240926 0.030958239 -0.019706883 -0.0146192815 0.012260335
0.051932238 0.01783124 -0.07105297 -0.07080847 -0.052195646 0.1402261 -0.066820696 0.01636548
0.0023874396 -0.014937421 -0.07357317 0.022113398 0.042066846 0.014211251 0.15545699 0.020984787
-0.18327102 0.0065383846 0.10776597 0.052492715 0.016549656 -0.024136342 0.017819945 0.045933977
0.0025929369 0.034473024 -0.31844133 0.035400752 0.044441864 -0.046618797 -0.01533077 0.00693932
0.018022476 0.016276771 -0.051112287 -0.045247123 -0.038680382 0.063030355 0.013922638 0.06719014
0.01870903 -0.024011932 0.008854993 0.02296063 -0.015027899 0.024384242 -0.013217179 0.061942354
-0.010520966 0.01996518 -0.049540903 0.040153272 0.068582326 -0.015538836 0.011010092 -0.00037762383
0.040758803 -0.106648155 0.015818855 0.14552733 -0.14128746 -0.01822069 -0.09055336 -0.0020028078
-0.032104433 -0.018867325 -0.04358094 -0.04109381 -0.02553422 -0.0068912343 -0.04472097 -0.00400372
0.037974447 -0.0020545644 -0.062121116 -0.007665566 0.04010464 0.033097852 -0.044611447 -0.0019662755
-0.043957017 0.0015534104 0.094097584 -0.038013488 0.0020837388 -0.032881 -0.0133789405 0.042391643
-0.0033415635 0.04250917 0.04286875 -8.836505e-05 -0.009288488 -0.002939317 -0.024028903 -0.0016773865
0.114832796 0.03590805 -0.009024639 0.006037761 -0.09251258 0.02308128 -0.002075963 0.0020227816
-0.007568611 0.010630727 -0.014331926 0.0070523587 -0.026954874 -0.012773382 -0.03132115 -0.03250595
0.07564315 0.019683197 0.018955283 0.043264754 -0.039766848 0.0062412787 -0.099234894 0.0077673476
-0.051742047 0.00073239795 -0.009972157 0.0677547 0.018955382 0.008832328 -0.021345962 -0.10852175
0.010432 0.045675907 -0.05683939 0.0143892355 0.0027908217 0.02055119 -0.06948303 0.015725464
0.06551134 0.045319565 0.002374157 0.015673487 0.008638243 -0.022749193 0.02145525 0.026154349
-0.000766168 0.014011921 0.009432279 -0.10200272 -0.009042697 0.054440677 0.016752232 -0.0058428617
0.014432773 -0.22744447 -0.079565406 0.047256876 0.0011609995 0.15103948 -0.04884734 -0.028345328
0.008393886 -0.010466748 -0.011301503 0.0066351164 0.0020282033 0.01196645 0.010567864 0.0015944871
-0.0027521239 0.009243164 0.014038103 -0.017806008 0.1554186 -0.018982798 0.047245204 0.116119385
0.0027114996 -0.02143941 0.04928229 0.06939293 -0.16565537 -0.08682948 0.0037664147 0.042518884
0.027888183 0.037546255 0.034824036 -0.0040647984 -0.00741945 0.03967143 0.01589674 0.059494503
-0.04083366 -0.02600265 0.005160285 0.01398593 -0.02573073 0.0028346172 -0.03728984 0.010071549
0.0485785 -0.037403468 0.028421132 0.06937142 -0.0011397986 0.031519584 0.016758382 0.011942307
0.026194446 -0.03477073 -0.02313457 -0.04344286 -0.02062584 -0.0063109556 -0.13352294 0.020214994
-0.01234417 -0.043106176 0.014749015 0.0017440612 0.013310719 0.05247865 0.046901383 -0.008514645
0.047275413 0.02759184 0.033263177 -0.006473721 -0.07440294 -0.021517877 -0.13857445 -0.08424227
0.0100458115 0.012409676 -0.018900648 -0.09292471 -0.1128254 -0.018870005 -0.0074689537 0.013985156

layer3.bias f4 [256]
00000000: 9228 9abc b85e ac3c 9acf a83c c8ef 9e3b
00000010: b256 f93b 7af5 af3c 063c 4ebc d907 1c3c
00000020: bc8e 7bbc 934e 163c 3652 9aba 3450 153d
00000030: 28b8 49bc 17e5 86bd c4bc 63ba 844e 723a
00000040: 06a0 ccbd 417e 563c f025 4fbd 2bfc b13c
00000050: 30b3 643d 6335 983c 10b6 57bd de57 7b3c
00000060: a573 99bc d856 05bc 5086 9c39 d4ae c43c
00000070: 1b02 1b3d d4ba 51bc 71e1 d2bb 0f2c d33c
00000080: 3a80 b93c 104f b03c f825 54bc bede b73c
00000090: f69a be3b 1632 fbbc c15f 6f3c 648a 4538
000000a0: 8abe 233c 4e74 e43c daf7 123c 4ac8 1f3c
000000b0: 2864 133d 7856 42bd 1868 26bd 3c4e 853c
000000c0: 7622 f9bb b0ed 28ba 90e6 523d 2f50 573b
000000d0: 429a 8a3b e322 f03c 9927 14bd 24ae da3c
000000e0: 6943 4f3d 4615 e13c 9896 133d 26b8 253d
000000f0: d47d 22bd 6990 ee3c 6876 313d f25b c83c
00000100: e038 a63c d415 603c 93c4 f53c 9da8 a33a
00000110: 72a1 b0bc 2ec4 653d fca6 313c 3c33 b9bd
00000120: ecd3 003c 98c5 c93c 8e52 b1bc 2a0e 34bc
00000130: ac52 2abd d06b 173d fa6b 9f3a c89a 26bc
00000140: 3b92 8a3c 536d d83c f6bf 4abc ff1e 333d
00000150: f4e1 b23c f822 b83b aa26 7a3c f88c 163b
00000160: eec4 dd3c 7434 bebc 2253 c93c a4d3 e43c
00000170: 92a8 10bc 2067 0a3d 3da3 153b bfde 153c
00000180: 0180 06bd 120e 5b3c 8efd 6f3d 8874 b9bb
00000190: 0ecf 843c 7548 5a3a eea6 c53c 85c0 7e3b
000001a0: b1ba e1bb 3c95 fb3c 0a15 503a bcc3 d0bb
000001b0: 5304 a5bc f900 873c 3c1a 7a3d fa76 eb3d
000001c0: 5646 1b3d cce6 823a 0279 be3c 928e d63c
000001d0: 2538 b1bb ca40 cabc 4f4f 373d 1736 8d3d
000001e0: 0a5c f8bd fc89 8ebc 9006 b9bc 96d2 c2bc
000001f0: 307a cf3b a878 253c 511d d03c 34a9 aabb
00000200: ec6e a33c 52ad 773c b281 663c c9db 843c
00000210: 405e a83d b68e 5a3c 4804 473d 67b1 33bc
00000220: 7560 053d 3e5d 243b 14cb 143d ad11 af3c
00000230: 4e13 6dbc fa87 39bc a65f 5abc 6eb6 793d
00000240: 90ea c13c d497 303d 8aef ef3c c085 ae3b
00000250: 8f57 033d cc6e bcba 402b 90bc f762 a13b
00000260: 288d 42bc 33e8 c1bc 1edc 75bc d23b 8e3d
00000270: bc88 553c 38af 56bc ffc0 a9bc d852 f73c
00000280: 2823 24bd 6069 903c 0a92 fdbb 3ab8 8cbc
00000290: 72bd bd3c fd2a a73c e47b d53b 2c3e 0b3d
000002a0: ce01 353b 1563 453d 9eeb 3fbc e02e 1db7
000002b0: bcf3 1a3c 4e37 f33b d8c4 453d 44c4 5e3c
000002c0: 2c37 d7bc c82e 1c3d ea93 adba f000 673c
000002d0: 6984 923c c6ab f8bb a61a 493d 2a73 bb3c
000002e0: 62df 25bc fa58 193c 4a3f 68bb a953 18bd
000002f0: bad6 583d b80f d5bd 8801 483d 1106 673c
00000300: 6042 ae3c 409f ca3b 977f d13c 624d b53c
00000310: d43b 493c 2130 a0bc ae66 e0bc 0641 e2bb
00000320: fa15 773c a8f6 2f3d a029 ce3c 6c22 6e39
00000330: b675 e6bb 0ecf 643b 9ced 003d df96 dabb
00000340: aa95 63bb 70b7 6cbc e777 593d c85b 843c
00000350: 6272 e53c 8319 7dbc c833 3b3c 5415 323c
00000360: 5292 92be 3bbe 77bc 0ef3 9b3b 6a96 b33c
00000370: 6248 d83c 56b2 5abb 4a48 0e3d 9e26 f9bc
00000380: b4d5 7c3d 4bff 0d3d 1441 a13c f208 923d
00000390: f49a 193c ae98 1d3c 6e30 a53c 17a7 393d
000003a0: 36c8 c33c 8f44 f83c 7c0e 0cbd cf33 7fbd
000003b0: d80f 153c 83ae 46bd 412e a43c c0d5 aabc
000003c0: 5cf6 9c3d 78a5 643c a18a 883d c228 71bc
000003d0: 46c6 c9bb 16ff bd3c 290a d73c 2729 863b
000003e0: e857 60bb d800 b9bc abe8 783d 7394 ea3d
000003f0: 7256 c13b 0cd9 983d 9a2f ef3b da21 17bc
-0.018818174 0.02104126 0.020606805 0.0048503615 0.007609212 0.021479357 -0.012587553 0.009523355
-0.015353855 0.009174007 -0.0011773768 0.03645344 -0.012311973 -0.06586664 -0.0008687491 0.0009243267
-0.099914595 0.013091625 -0.05057329 0.021726688 0.05583495 0.018580144 -0.052663863 0.015340773
-0.018731901 -0.008138381 0.0002985471 0.024009146 0.037843805 -0.012800891 -0.006435566 0.025777845
0.022644151 0.021522075 -0.012948506 0.022445079 0.0058168126 -0.030663531 0.014610232 4.7097346e-05
0.0099941585 0.02788749 0.008970225 0.0097523425 0.03598419 -0.047445744 -0.040626615 0.016272657
-0.007602985 -0.00064441096 0.051489413 0.003285419 0.0042298147 0.02931351 -0.036170576 0.026694365
0.050601397 0.027475964 0.03603229 0.04045882 -0.03967078 0.029121595 0.04332581 0.024457905
0.020290792 0.013677079 0.03000096 0.0012486164 -0.021561358 0.056095295 0.010843035 -0.09042975
0.007863026 0.024630353 -0.02164581 -0.010989705 -0.04158275 0.036968052 0.0012162917 -0.010168739
0.016915431 0.026419317 -0.012374869 0.043730732 0.021836258 0.005619403 0.015268007 0.0022972208
0.027071442 -0.023218371 0.024575774 0.02793295 -0.008829253 0.033789754 0.0022832893 0.009147345
-0.032836918 0.013370054 0.058591418 -0.0056596436 0.016212013 0.0008326837 0.02412745 0.0038872075
-0.0068887104 0.030710809 0.00079377054 -0.0063709896 -0.020143664 0.016479956 0.061060175 0.11497302
0.037908874 0.0009986996 0.02325106 0.02619103 -0.0054083043 -0.024689097 0.04475337 0.068950824
-0.1212693 -0.01739978 -0.022586137 -0.023782056 0.0063317046 0.0100995675 0.025404604 -0.005208159
0.019950353 0.015117006 0.014069008 0.016218083 0.08221102 0.013339689 0.048588067 -0.010967589
0.03256269 0.002507999 0.036326483 0.021370733 -0.014469935 -0.011323923 -0.013328468 0.060964994
0.023671418 0.043113545 0.029289026 0.005326003 0.032065924 -0.0014376282 -0.017598748 0.0049251276
-0.011874475 -0.023670292 -0.015006093 0.069450036 0.013033088 -0.013103299 -0.02072191 0.03019087
-0.04007259 0.017628372 -0.0077383565 -0.01717769 0.023161624 0.02040624 0.006515013 0.03399484
0.0027619484 0.048190195 -0.01171389 -9.368843e-06 0.009457525 0.0074223643 0.048283428 0.013596598
-0.026271425 0.03813055 -0.0013242934 0.014099345 0.017885404 -0.0075888364 0.04909768 0.022882063
-0.010124059 0.009359593 -0.0035438114 -0.03718916 0.052939154 -0.10403389 0.048829585 0.014100567
0.021271884 0.006183535 0.025573535 0.022131626 0.012282331 -0.0195542 -0.027392711 -0.006904724
0.015080923 0.04295984 0.025166333 0.00022710272 -0.007033075 0.0034913453 0.031476602 -0.0066708173
-0.0034726658 -0.014448032 0.053092863 0.016157046 0.028008644 -0.015447977 0.01142592 0.010869343
-0.2862726 -0.015121038 0.004759199 0.021922309 0.026401702 -0.0033370457 0.03473691 -0.030413922
0.06172724 0.034667294 0.019684352 0.071306124 0.009375323 0.009618921 0.020164695 0.045325365
0.023899179 0.030306129 -0.0341935 -0.062305268 0.009098016 -0.04850627 0.020041587 -0.020853877
0.07664177 0.013955466 0.06667066 -0.01471919 -0.0061576692 0.023192924 0.026249962 0.004094261
-0.0034232084 -0.02258341 0.060768764 0.11454096 0.0059001977 0.074632734 0.0072993757 -0.009224379

layer4.weight f4 [10, 256]
00000000: a385 80bb 8fa7 a63c 87e9 103c 681a fa3c
00000010: 729c 2abc 363a 6c3b 00fe afbc 1ad7 87bc
00000020: 5aa9 7c3c ba65 ebbb e7ae c3bb 8433 003d
00000030: f026 963b 9982 793c 1868 833b e673 283c
00000040: ccfe 90bd 936b 1ebb a93a 873c f1dc 9bbc
00000050: 3c84 a739 541a 2fbd 90d3 3cbb 9467 0d3d
00000060: f605 383c b4c6 623b fc84 303c 5e2c a03d
00000070: 1ec2 efbc 46d8 d63c de43 a63c deed 5a3c
00000080: d86d 88bb 97ef 62bd 67b7 643c 54a9 23bd
00000090: 42ed 193c 2c01 2d3b e67d 07bc 4be0 95bd
000000a0: e8e8 e4bb cdcd 4f3b 802e 6dbc 1897 5bbc
000000b0: c562 33bc ba24 35bc f4f5 093b 44ea 5ebc
000000c0: 2a70 4ebc deca 29bc decb c53d b646 ac3c
000000d0: 448a 64bb 70d7 6c3d 8892 993c 9df1 97bc
000000e0: 943e b13c 5073 393c 503a 9bba f4fc f5bc
000000f0: d082 1cbd 8656 173d 9844 9dbc 0dc4 44bc
00000100: 6f78 b23c fef7 02bb fd6d a3bc b86d 3dbc
00000110: fbea c3bb 1d88 4ebc 2258 d73c 9025 53bc
00000120: d612 003c e6dd b93c 05a7 ccbb 7800 fbbb
00000130: 018e 28bb 429b 833b 891d 94bc 04c4 643c
00000140: 6cc3 1ebc b7b1 fdbb ae72 573b 2bfa ff38
00000150: 0666 37be 1930 5ebc 0851 29bc 6fca 28bd
00000160: 6a08 503c 2c1e 963c 7630 e33b 1a73 3d3d
00000170: 1eae b33c 8d65 253c 1a7b a43c d664 e63b
00000180: 0770 0dbc fe5f e4bd fa66 893c 7ad4 323d
00000190: 289e b5bb 860b e2bb 6ed3 023c 667f abba
000001a0: 9a4f 0b3c f65e 2e3d be43 99bb 7464 6b3d
000001b0: 6c4e 58bb e8a0 94bc 8a6a b1bc 7204 da3d
000001c0: 4b78 153d a832 663b 48a1 a7b9 68c7 c8bb
000001d0: ce64 0e3c 3b0e 52bc 927f d43b 155b f8bc
000001e0: 331a 51bd fa72 2bbc 448b ef38 4ec8 183d
000001f0: 6073 033c 2d7d 133c 4c0d 59bc a867 203d
00000200: e60d 02bc b049 bbba 6c7a b6bb ee1d aebc
00000210: 1c51 803d f0b5 143c 6f09 c3bd ee49 10bc
00000220: b2c1 943c 38f2 43bb 2e33 933b ca18 dabc
00000230: 8821 b9bc 74a5 09bc 314d afbb ec8d b63c
00000240: f0be bc3b 5004 b6bc ebb1 cd3c f4c4 39ba
00000250: 9f6b d0b9 8cdf 613c 02ae 3bbc 567e 00bd
00000260: 5c9e 1cbc 5e50 19bd 5fa1 643c 5aff 33bc
00000270: 95f1 643c 0c7d 723d 2e9c 80bc 588c b93c
00000280: c8e3 09bd b65a 973c e20d 643c 8e30 e6bb
00000290: 8ab4 913c bfcf 28bc 0b8c e13b e482 143c
000002a0: 525a 83bc 96d5 273c 32b2 d2bc 2ab4 37bc
000002b0: 027c 99bb 9ba5 223c 0825 963c 8aad 6e3b
000002c0: ab6f 8ebc 676a 493b fe88 74bd 5d88 073c
000002d0: 3a4c a0bc 86fa 9d3d 7cab 363d 120e 323c
000002e0: 80f1 cebc 75d7 09bc 3ab5 cbba 6707 a7bc
000002f0: 8860 c4bb 5b6e 95bd b687 5ebc 7ec5 8d3a
00000300: ad72 3dbb d8b0 203c b891 3cbd ede3 683d
00000310: 8d12 23bc 9bd6 5cbc da8e 31bb e22e 8d3c
00000320: adb2 793c f40e a6bc 7857 9fbc ca92 a43b
00000330: d22c c5bb de03 973c 3241 2d3c fcfb 4dbc
00000340: 3a53 16bc 6a06 1bbd 14fa 1ebc 57d6 a13c
00000350: 4ae8 3a3c fb75 f1bc 6e7c 423c 2c08 bf3b
00000360: c8a3 6c3d e49f d83c f682 e1bc 9951 01bd
00000370: 3885 ea3b 3427 c83c b016 79bc 0a44 29bd
00000380: f0d1 0f3d 8c5f 8ebb 4ace 31b9 b132 823c
00000390: deb6 3d3c 3e75 96bb b1e6 d73c b25d ae3e
000003a0: dc9b 903d 1ae7 bebc 4b8f 65bc 5e56 68bc
000003b0: 6704 783c de72 a63c 791d 563d c24d 33bd
000003c0: 20b0 433d c0b7 633d 01d7 15bd c037 ef3a
000003d0: 5886 2bbc da57 14bc eba7 ce3c b2d1 153c
000003e0: f5a3 a43c 1f21 543c 7292 c63b 72d8 36bd
000003f0: 2e01 1db9 c605 0d3d 1446 aa3c a6aa 0b3a
-0.0039221807 0.02034357 0.00884474 0.03053017 -0.010413276 0.0036045439 -0.021483421 -0.01658206
0.015421236 -0.0071837576 -0.0059717777 0.03129913 0.0045822784 0.015228891 0.0040102117 0.010281539
-0.07079849 -0.0024173006 0.016507464 -0.019026252 0.00031951244 -0.042749718 -0.0028812625 0.034522608
0.01123189 0.00346033 0.010773893 0.07820962 -0.029267367 0.026226174 0.020296033 0.013362376
-0.004163485 -0.055404272 0.013959742 -0.039956406 0.009394946 0.0026398404 -0.008269763 -0.07318171
-0.0069857724 0.003170836 -0.0144764185 -0.013402723 -0.010948841 -0.01105612 0.002105114 -0.013605658
-0.012599984 -0.010363309 0.09658025 0.021029811 -0.0034872452 0.057822645 0.01874663 -0.018547827
0.021636285 0.011318997 -0.001184294 -0.030027844 -0.03821069 0.03694775 -0.019197747 -0.012009633
0.021785943 -0.001998424 -0.019949907 -0.0115618035 -0.0059789396 -0.012605694 0.026287142 -0.012887374
0.007816991 0.022688817 -0.006245496 -0.007659968 -0.0025719407 0.004016311 -0.01808049 0.013962749
-0.009690147 -0.0077421325 0.003287475 0.00012205945 -0.17910013 -0.013561272 -0.010334261 -0.04120868
0.012697319 0.018324934 0.006933267 0.046252348 0.021933611 0.010095012 0.02007823 0.0070310635
-0.008632666 -0.111511216 0.016772736 0.043659665 -0.0055425353 -0.0068983464 0.007984979 -0.0013084232
0.008502865 0.04257103 -0.004677265 0.057468846 -0.0033005727 -0.018143132 -0.021657247 0.10645379
0.036491673 0.0035125408 -0.00031972886 -0.0061272867 0.008691026 -0.012820776 0.006484934 -0.030316869
-0.051050376 -0.010464424 0.00011422348 0.0373004 0.008023113 0.009002012 -0.013247799 0.039161354
-0.007937884 -0.0014288928 -0.005568793 -0.021254506 0.062654704 0.00907658 -0.09523284 -0.008806689
0.018158767 -0.0029899012 0.004492185 -0.026623148 -0.022598997 -0.0084012635 -0.005349778 0.02228447
0.005760066 -0.022218853 0.025109252 -0.0007086538 -0.00039753036 0.013786208 -0.011455061 -0.031370483
-0.00955924 -0.03743016 0.0139544895 -0.0109861735 0.013973613 0.059201285 -0.015699472 0.022649929
-0.033664495 0.018475872 0.013919326 -0.007024831 0.017786283 -0.010303437 0.0068831495 0.00906441
-0.016034279 0.010243794 -0.025719736 -0.011212388 -0.0046839723 0.009927179 0.018328205 0.0036419355
-0.017387232 0.0030733587 -0.05970096 0.008272258 -0.019567598 0.07713799 0.044597134 0.010867612
-0.02526164 -0.008413185 -0.0015541681 -0.020389272 -0.0059929527 -0.07296439 -0.013582161 0.0010816304
-0.0028907463 0.009807788 -0.046037406 0.056857992 -0.009953153 -0.0134789 -0.0027093203 0.01723427
0.0152403535 -0.020270802 -0.019450888 0.0050223814 -0.006017306 0.018434461 0.010574626 -0.012572285
-0.009175116 -0.037847914 -0.009703178 0.019755526 0.011407921 -0.029475203 0.011870487 0.0058298316
0.05777338 0.02644343 -0.027528267 -0.03157196 0.007156994 0.024432756 -0.015203163 -0.041324653
0.03511232 -0.004344886 -0.00016956884 0.015893312 0.0115792435 -0.004591613 0.02635512 0.3405586
0.07060978 -0.023303557 -0.0140112145 -0.014180748 0.015137768 0.020318445 0.0522742 -0.043775328
0.047775388 0.05559516 -0.036581997 0.0018250868 -0.010469042 -0.009054149 0.025226554 0.009144234
0.020097712 0.01294735 0.006059938 -0.044640012 -0.00014973126 0.034429334 0.020785369 0.0005327858

layer4.bias f4 [10]
00000000: ac9f 4b3e eefa c43c 124e fe3c b718 343d
00000010: 529a bd3c a622 14be ae8e 1dbe d164 e5bd
00000020: 32ba a2be fb80 a93c
0.19885129 0.024045434 0.031043086 0.043968882 0.023144875 -0.14466342 -0.15386459 -0.1120087
-0.3178268 0.020691385
