target_net.pth (torch, 678637 bytes, 8 tensors)

layer1.weight f4 [256, 135]
0	0x3d98120e	0.07425319
1	0x3d85abf2	0.065269366
2	0x3d072576	0.03299471
3	0x3d1813e1	0.037128333
4	0x3c7cde32	0.015433835
5	0x3d04bc52	0.03240616
6	0x3d953104	0.072847396
7	0xbd1e1ada	-0.038599826
8	0x3c38fa1e	0.011290101
9	0x3d2fca9c	0.042917833
10	0x3d1b958a	0.03798441
11	0xbd420cc8	-0.04737547
12	0x3db149aa	0.086566284
13	0x3c5a4fc6	0.0133246835
14	0x3d4f8592	0.050664492
15	0xbd91b1c8	-0.07113987
16	0xbb4983c0	-0.0030748695
17	0xbcb57a86	-0.02215315
18	0xbda72aa1	-0.08162428
19	0x3d03dbd2	0.03219206
20	0xbcb781d8	-0.022400782
21	0xbb0e47d2	-0.0021710289
22	0xbbfed3c4	-0.0077767093
23	0xbd00abbe	-0.031413786
24	0x3ca2fbf4	0.019895531
25	0xbd527a98	-0.051386446
26	0xbd93776b	-0.072005115
27	0xbd041f9a	-0.0322567
28	0x3dafcd14	0.085840374
29	0xbd7f912e	-0.062394314
30	0x3d62294a	0.055215158
31	0xbd6b3346	-0.057421945
32	0xbd00c6e8	-0.03143969
33	0x3cd80783	0.02637077
34	0x3d1f11a5	0.038835187
35	0xbd5e856a	-0.054326452
36	0x3d1fa30e	0.03897386
37	0x3d914de1	0.07094932
38	0xbd87717a	-0.06613441
39	0x3d174f12	0.03694064
40	0x3da739ea	0.08165343
41	0x3d116b8e	0.035502963
42	0xbd8ec3f3	-0.06970968
43	0xbda76d32	-0.08175124
44	0xbd83b5de	-0.06431173
45	0x3ae5e907	0.0017540761
46	0x3d0ddb61	0.034633044
47	0x3da7b935	0.08189622
48	0x3d76516e	0.06013625
49	0x3c802d46	0.015646588
50	0xbd9b44e0	-0.07581496
51	0xbd685954	-0.056725815
52	0xbda766af	-0.08173882
53	0x3cde42b4	0.027131416
54	0xbd2f4750	-0.04279262
55	0xbd551552	-0.052022286
56	0xbc046f07	-0.008083112
57	0xbd9e8b21	-0.077413805
58	0xbda18d08	-0.07888228
59	0xbda89cd4	-0.082330376
60	0xbd97e710	-0.074171185
61	0xbda351d8	-0.07974595
62	0x3c5d244c	0.013497423
63	0xbd2eccfc	-0.042675957
64	0x3d319c12	0.04336173
65	0xbc42fce2	-0.011901112
66	0x3d53d5cc	0.051717564
67	0xbcecb788	-0.028896108
68	0xbb12d24c	-0.0022403179
69	0x3d3c526f	0.045977052
70	0xbd2ee494	-0.042698458
71	0xbc88d9f6	-0.016705494
72	0xbcf0235c	-0.029313736
73	0x3baaddfe	0.005214452
74	0xbd4050a5	-0.04695191
75	0x3bfdbff3	0.0077438294
76	0xbd0bb125	-0.034104485
77	0x3da759b1	0.08171404
78	0x3d4d7638	0.05016157
79	0x3c4fcea0	0.012683541
80	0xbd2c000f	-0.041992243
81	0xbd4854c4	-0.048908964
82	0xbd8e6265	-0.06952361
83	0xbd8980c6	-0.06714015
84	0xbcb3e408	-0.02195932
85	0xbc5b0c9f	-0.013369708
86	0xbd1c2f2c	-0.038130924
87	0x3db0d617	0.086345844
88	0xbd82f9d0	-0.06395304
89	0x3da75008	0.081695616
90	0x3cec9434	0.028879263
91	0xbd71ac16	-0.059002005
92	0x3d933b1e	0.0718901
93	0x3d6396fc	0.05556391
94	0xbd24e5ae	-0.040258102
95	0x3d87c9f4	0.066303164
96	0xbcfdb16c	-0.03096839
97	0xbb893b65	-0.0041879886
98	0x3d5c6748	0.053809434
99	0xba86af82	-0.0010275694
100	0xbd55f8c2	-0.052239187
101	0x3cc32469	0.023821073
102	0xbcf3c2ed	-0.029756034
103	0xbd880a50	-0.06642592
104	0x3d773088	0.060349017
105	0xbc6a595e	-0.014303533
106	0xbd80c2c2	-0.06287147
107	0xbda9bd9d	-0.08288119
108	0xbd120b22	-0.03565515
109	0xbd2c42c4	-0.04205586
110	0xbd7a54ae	-0.061115913
111	0x3daa448f	0.08313858
112	0x3d50ca16	0.050973974
113	0xbd87bc30	-0.06627691
114	0x3d1b9991	0.03798825
115	0x3d89d302	0.067297
116	0x3d0d9dda	0.034574367
117	0x3d49f4a3	0.04930557
118	0x3d8ca822	0.06868006
119	0x3d36ca52	0.04462654
120	0xbdac7a21	-0.08421732
121	0xbd8f1df3	-0.06988134
122	0xbd8e802e	-0.06958042
123	0xbd9d5d40	-0.07683802
124	0x3d9b5524	0.07584599
125	0x3a86562c	0.001024907
126	0x3ce0d6f8	0.027446255
127	0xbc84b385	-0.016198883
128	0x3ce57810	0.028011352
129	0x3d599601	0.05312157
130	0x3da605b6	0.08106558
131	0xbd3b5a0a	-0.045740165
132	0x3bf2509d	0.0073948638
133	0x3c36ffbc	0.01116937
134	0x3d861ca0	0.065484285
135	0x3d89e4cc	0.06733093
136	0x3c8c8826	0.017154764
137	0x3d92a9a6	0.07161264
138	0x3c18fab0	0.009337112
139	0xbda4d5fc	-0.08048627
140	0xbd62f515	-0.05540951
141	0xbd18c7d4	-0.037299946
142	0xbd8e55a8	-0.069499314
143	0x3d080d1a	0.03321562
144	0x3ce2ec7d	0.027700657
145	0xbcad78b4	-0.02117572
146	0xbc43470c	-0.011918794
147	0x3d117142	0.0355084
148	0x3cf464b4	0.029833175
149	0xbd2cd344	-0.042193666
150	0x3c1a8bf8	0.009432785
151	0x3b34b5bc	0.0027574142
152	0xbcc292a2	-0.02375156
153	0xbc5d1510	-0.013493791
154	0xbda8e110	-0.08246052
155	0xbcfa22bd	-0.030534143
156	0x3d35a4c2	0.04434658
157	0xbd87b4de	-0.066262946
158	0x3d51838c	0.051150844
159	0x3d86d063	0.06582715
160	0xbda69cf5	-0.08135406
161	0x3d7acf10	0.061232626
162	0x3cf5bab6	0.029996257
163	0x3b8d5bea	0.0043139355
164	0xbca2f3e8	-0.019891694
165	0xbd8f48c4	-0.06996301
166	0x3ce9eeaa	0.028556187
167	0x3d6b665a	0.057470657
168	0x3d0741ee	0.03302186
169	0xbdacf36c	-0.084448665
170	0x3d3f7cff	0.046750065
171	0xbca9b7fe	-0.020717617
172	0x3d60ed33	0.05491371
173	0x3d0ecbc6	0.034862302
174	0x3c857279	0.016289936
175	0xbd60f3d6	-0.05492004
176	0x3c3edc86	0.011649257
177	0xbd82383e	-0.063583836
178	0x3c8df3c2	0.017328147
179	0xbd9a1396	-0.07523267
180	0x3c8fa8b6	0.017536502
181	0xbca8e500	-0.020617008
182	0x3b9a3c0e	0.004706866
183	0x3d9d1444	0.07669881
184	0xbcb17bf8	-0.021665558
185	0x3b44f114	0.003005092
186	0xbc9a0c92	-0.018804822
187	0xbcd4ea9e	-0.02599078
188	0x3bd3479c	0.0064477455
189	0x3d60f7a5	0.054923672
190	0xbd57ceba	-0.052687384
191	0x3d24b508	0.040211707
192	0xbbbc6150	-0.0057489052
193	0xbd947fd4	-0.07250944
194	0xbd78cec1	-0.06074405
195	0xbc8a68d5	-0.016895691
196	0xbd68e6f6	-0.056860887
197	0x3cbb9b30	0.022901148
198	0xbdaa5aca	-0.08318098
199	0x3d98b6d4	0.07456747
200	0x3d3996ba	0.04530976
201	0x3d3620d8	0.044464916
202	0x3b6d2c78	0.0036189836
203	0xbd4d6482	-0.05014468
204	0x3cfb0549	0.030642169
205	0xbda989d2	-0.0827824
206	0xbd00e955	-0.031472523
207	0xbd385202	-0.045000084
208	0xbd5195e2	-0.05116833
209	0xbd7081be	-0.05871748
210	0x3cfec7b9	0.031101095
211	0xbdad18de	-0.08452009
212	0x3c154cc6	0.0091125425
213	0x3c059929	0.008154192
214	0xbd22ce25	-0.039747376
215	0x3b30ada0	0.0026958957
216	0x3c4a3eb0	0.012344047
217	0xbd821816	-0.0635225
218	0x3d8cd3af	0.06876313
219	0xbbcd713c	-0.006269602
220	0xbc961026	-0.018318247
221	0x3d80ecce	0.06295167
222	0x3bbec149	0.005821381
223	0x3d8f7bc6	0.0700603
224	0xbca7d339	-0.020486461
225	0xbd812528	-0.06305915
226	0xbd133132	-0.03593559
227	0x3d2dc128	0.042420536
228	0x3d8266e5	0.06367282
229	0xbcf4558e	-0.029825952
230	0x3d745e58	0.059660286
231	0x3d013293	0.031542372
232	0xbd586f82	-0.052840717
233	0xbd9955b0	-0.07487047
234	0xbd871738	-0.065962255
235	0x3b4291cb	0.002968895
236	0xbd8db3f0	-0.06919086
237	0x3d3571be	0.044297926
238	0x3d19508a	0.037430324
239	0xbd78f3d9	-0.060779426
240	0xbd8b271f	-0.06794571
241	0xbda185a9	-0.07886822
242	0xbd361954	-0.04445775
243	0xbd0fb5b0	-0.03508538
244	0xbd876246	-0.06610541
245	0xbd06b40f	-0.03288656
246	0x3d15cf88	0.03657487
247	0x3b83fb02	0.004027725
248	0x3d9e06ae	0.07716118
249	0x3cf2dde6	0.029646825
250	0x3d874bbf	0.06606244
251	0xbd9c11fe	-0.07620619
252	0xbda96504	-0.0827122
253	0xbd4755ba	-0.04866574
254	0x3c95aa9c	0.01826983
255	0x3c7fd9a6	0.015615856

layer1.bias f4 [256]
0	0x3a96994c	0.0011489778
1	0x3d669e5e	0.056303374
2	0xbd88e9f9	-0.06685252
3	0x3d494b50	0.04914409
4	0xbcb5ba2a	-0.022183497
5	0xba71109a	-0.0009195894
6	0xbad1133b	-0.0015951166
7	0x3c8f8714	0.017520465
8	0x3d4cee2c	0.050031826
9	0x3d9cb322	0.07651354
10	0x3d81beba	0.06335206
11	0x3c8f5d30	0.01750049
12	0xbd57be71	-0.052671853
13	0x3da4ab2f	0.08040463
14	0x3d253cf4	0.040341333
15	0x3d9e3e7d	0.077267624
16	0x3c6e8954	0.014559109
17	0x3d0295f7	0.0318813
18	0xbd1b6452	-0.03793747
19	0xbda19830	-0.078903556
20	0x3bbaed1e	0.005704536
21	0x3da3e3c2	0.08002426
22	0x3d1c6dfa	0.03819082
23	0x3d750fde	0.059829585
24	0x3d1bc3f2	0.038028665
25	0xbd70b120	-0.05876267
26	0xbd6a045b	-0.05713306
27	0xbc78f77e	-0.0151957255
28	0xbd0f66bc	-0.035010085
29	0x3d07959c	0.033101663
30	0xbd6a84b8	-0.057255477
31	0xbbce7d2d	-0.006301543
32	0x3d5b0340	0.053469896
33	0x3d697d98	0.05700454
34	0x3d9531a4	0.07284859
35	0x3cdbe2fd	0.026841635
36	0x3c7e8ddd	0.0155367525
37	0x3d9b139a	0.07572098
38	0x3d6b597f	0.057458397
39	0xbd185c9c	-0.037197694
40	0xbceeab88	-0.029134527
41	0x3b8d169e	0.0043056747
42	0xbd5efdda	-0.05444131
43	0x3d8d4947	0.06898742
44	0xbdaf8d46	-0.08571868
45	0xbd553472	-0.05205197
46	0x3cc0f858	0.02355592
47	0x3da11a1a	0.078663066
48	0xbd8db88a	-0.06919964
49	0xbadecc37	-0.0016998117
50	0x3d1bf338	0.03807375
51	0xbd553c44	-0.052059427
52	0xbd8e430e	-0.069463834
53	0x3d5ca0a9	0.053864155
54	0xbc80bed6	-0.015715998
55	0xbd878ef7	-0.06619065
56	0x3d280ff4	0.04103084
57	0xbd81af02	-0.06332208
58	0x3b340353	0.0027467802
59	0x3d032da6	0.032025956
60	0xbd481b26	-0.048854016
61	0xbd584ace	-0.052805714
62	0x3d9f6940	0.07783747
63	0x3bbbdb3e	0.005732923
64	0xbd322783	-0.043494713
65	0xbd9a0116	-0.075197384
66	0x3d86a41a	0.06574269
67	0xbda4433f	-0.08020639
68	0xbd9d5969	-0.07683069
69	0x3c1455f1	0.009053693
70	0xbd50e383	-0.050998222
71	0xbbc62dcd	-0.0060479403
72	0xbd386346	-0.04501655
73	0x3d0f54a4	0.03499283
74	0x3c691c2c	0.014227908
75	0x3d47ac70	0.048748434
76	0x3ca58e93	0.020209586
77	0xbd3540c9	-0.044251237
78	0x3d855bbf	0.0651164
79	0x3d662234	0.056184962
80	0xbce88e64	-0.02838821
81	0x3d9f4dd3	0.07778516
82	0xbdada014	-0.08477798
83	0x3ab856cc	0.0014063953
84	0xbd75bb56	-0.05999311
85	0xbc50b9c3	-0.012739602
86	0xbd5951e0	-0.053056598
87	0xbcdf0425	-0.027223656
88	0x3b79e8e7	0.0038133205
89	0x3d31f6bc	0.043448195
90	0x3c9ac578	0.018892989
91	0x3d7fa258	0.062410682
92	0xbd93e770	-0.072218776
93	0x3c20ce5f	0.009814828
94	0xbd67954e	-0.056538872
95	0xbd9665f6	-0.07343666
96	0xbd6c311a	-0.057664014
97	0xbd9fa044	-0.0779424
98	0x3d20d008	0.039260894
99	0xbd773e2e	-0.060362034
100	0x3d238ab2	0.039927192
101	0xbc80a4c2	-0.015703563
102	0x3d55317f	0.052049156
103	0x3d1d8038	0.038452357
104	0x3d359286	0.04432919
105	0x3b8bb362	0.0042633275
106	0xbd1719c0	-0.03688979
107	0xbd790b33	-0.060801696
108	0x3daf277a	0.085524514
109	0xbd18d732	-0.0373146
110	0xbd598fc7	-0.053115632
111	0xbd020b54	-0.031749085
112	0xbc7179c6	-0.014738506
113	0x3b0d06cb	0.0021518942
114	0xbd2a694a	-0.041604318
115	0xbdaca30f	-0.084295385
116	0x3d1d6502	0.038426407
117	0xbd623238	-0.055223674
118	0xbd8db0ba	-0.069184735
119	0xbd48a00a	-0.04898075
120	0x3d8a7eb4	0.06762448
121	0x3d850138	0.06494373
122	0x3d51c3d8	0.05121216
123	0xbd617063	-0.05503882
124	0xbcd83701	-0.026393415
125	0x3d21dce6	0.039517306
126	0x3d93282c	0.071853966
127	0xbd968dec	-0.07351288
128	0xbd763a14	-0.06011398
129	0x3daa20ee	0.08307062
130	0xbca8ffb9	-0.02062975
131	0x3c404005	0.011734013
132	0xbd5c4b16	-0.053782545
133	0x3c51e0cc	0.012809943
134	0xbd7e5d82	-0.062100895
135	0xbc8c40b0	-0.01712069
136	0x3c631c46	0.013861721
137	0x3d706a1a	0.058694936
138	0x3c3ae160	0.011406273
139	0x3cb6b3f0	0.022302598
140	0x3cfaf5f4	0.030634858
141	0x3d85b441	0.06528521
142	0x3d836e1a	0.064174846
143	0xbd52572b	-0.05135266
144	0xbd82444f	-0.06360685
145	0x3da9d645	0.08292822
146	0x3cc24eb8	0.023719177
147	0xbccf5274	-0.025307871
148	0x3c6ef2e2	0.014584275
149	0xbd8852a0	-0.066563845
150	0xbcbb6eed	-0.022880042
151	0x3c5d89fe	0.013521669
152	0x3d97d9ee	0.07414614
153	0x3d5c96b0	0.053854644
154	0xbba85bda	-0.0051379027
155	0x3d9b756c	0.07590756
156	0x3d810e75	0.063015856
157	0x3d3c67d8	0.04599747
158	0x3cbaec5f	0.022817789
159	0xbd3464b4	-0.04404135
160	0xbd9d751c	-0.076883525
161	0xbd6c4d9c	-0.0576912
162	0x3da991c6	0.08279757
163	0x3dadeb58	0.08492154
164	0xbdae9fca	-0.08526571
165	0x3d43046a	0.04761163
166	0xbd8d5b44	-0.06902173
167	0xbd87dcdd	-0.06633923
168	0xbcb0bd27	-0.02157457
169	0x3d973ee0	0.07385039
170	0x3d951ad4	0.07280508
171	0xbd9ebfc2	-0.07751419
172	0xbd2dcfe4	-0.042434588
173	0xbc9816ac	-0.018565498
174	0xbd277e1c	-0.04089175
175	0x3d43259e	0.047643296
176	0x3d8336e3	0.06406953
177	0x3cd60732	0.026126478
178	0x39d8069a	0.0004120365
179	0xbc89e0f8	-0.016830906
180	0xbd1e6350	-0.03866893
181	0xbd3e8881	-0.0465169
182	0xbd2ff084	-0.042953983
183	0xbbfea5dd	-0.0077712373
184	0xbc994750	-0.018710762
185	0x3d3cb3f8	0.04607007
186	0xbda8224a	-0.08209665
187	0xbcadebd6	-0.02123062
188	0xbd938b5e	-0.072043166
189	0x3b88bbeb	0.004172792
190	0xbd70caf2	-0.058787294
191	0xbd5ad922	-0.05342973
192	0xbc28120d	-0.01025821
193	0x3d535c88	0.051601917
194	0x3d77d16d	0.06050246
195	0xbd8407f4	-0.064468294
196	0xbc495dd5	-0.012290438
197	0xbd137454	-0.03599961
198	0x3d6ca1d4	0.05777152
199	0xbb9e3252	-0.004827776
200	0x3da4dc3d	0.080498196
201	0x3ca64f16	0.020301383
202	0xbc6eb2f0	-0.014569029
203	0xbd12a96a	-0.035806097
204	0xbd9dbc6e	-0.07701956
205	0xbc448f17	-0.011997006
206	0xbd5acfff	-0.053421017
207	0xbd625d8e	-0.055265002
208	0xbd1734a9	-0.036915455
209	0xbc423bfc	-0.011855122
210	0xbbfce7d6	-0.0077180667
211	0xbb2f850a	-0.0026782178
212	0x3d84a558	0.06476849
213	0xbad5a2d8	-0.0016299142
214	0xbd82535e	-0.06363557
215	0xbd9704be	-0.073739514
216	0x3d0ce6d4	0.034399822
217	0xbd8bc5f1	-0.06824864
218	0xbce63cd8	-0.028105184
219	0x3d5553b9	0.052081797
220	0x3da6c787	0.081435256
221	0xbdb47faa	-0.088134125
222	0x3d88b5be	0.066752896
223	0xbda2fda2	-0.07958533
224	0x3c84b90b	0.016201517
225	0x3daeafa0	0.085295916
226	0x3d08bb86	0.03338196
227	0x3d9d075a	0.07667418
228	0x3dac4399	0.08411331
229	0x3da5d9f8	0.08098215
230	0x3da41218	0.080112636
231	0xbd144ffe	-0.0362091
232	0xbc11cb3c	-0.0088985525
233	0xbd28adfe	-0.041181557
234	0xbc977f5e	-0.01849335
235	0x3d829bad	0.06377349
236	0xbd8f219e	-0.06988834
237	0x3c21cc4e	0.00987537
238	0x3d9992c0	0.074986935
239	0xbda5ff6a	-0.08105357
240	0xbd66aee2	-0.056319125
241	0xbd8fac2a	-0.070152596
242	0x3ceec3aa	0.029146034
243	0x3ce2c26a	0.027680594
244	0xbdad5e4e	-0.08465253
245	0xbd893e99	-0.06701393
246	0xbba14854	-0.0049219523
247	0xbc85f3b7	-0.016351564
248	0x3cd5a2a6	0.026078533
249	0xbd8841d8	-0.06653184
250	0x3d4c8bf2	0.04993815
251	0xbc0024d6	-0.007821282
252	0xbd948792	-0.072524205
253	0x3d63fa3c	0.055658564
254	0xbd80f097	-0.06295889
255	0x3c41ed68	0.011836387

layer2.weight f4 [256, 256]
0	0xbd37eb32	-0.044902034
1	0x3c6a57e0	0.014303178
2	0x3cd16a94	0.025563516
3	0x3caef54c	0.021357201
4	0xbc397fb0	-0.011321947
5	0x3d5a3cd4	0.053280666
6	0x3d1e6648	0.03867176
7	0xbd38e956	-0.0451444
8	0xbbbcd534	-0.0057627205
9	0x3c198278	0.009369485
10	0x3c8aa9c0	0.016926646
11	0x3d744bb4	0.05964251
12	0x3d5cc712	0.053900786
13	0x3d60490c	0.054757163
14	0xbd5116e0	-0.051047206
15	0x3d5dc5b6	0.05414363
16	0xbc8b5084	-0.017006166
17	0xbcb12af0	-0.02162692
18	0x3d5fcdd0	0.054639637
19	0xbc8633d4	-0.016382135
20	0xbd35c4d4	-0.044377163
21	0xbd0d5ae6	-0.034510516
22	0xbcc03d5c	-0.023466758
23	0xbd6b9e94	-0.05752428
24	0xbcd96b1c	-0.026540332
25	0xba40b814	-0.00073516485
26	0xbd2e7b8c	-0.042598292
27	0xbd7c7500	-0.061635017
28	0xbbbef7f4	-0.005827898
29	0xbc0fbf10	-0.00877358
30	0x3d510424	0.05102934
31	0x3d3b442a	0.045719303
32	0x3b7e5024	0.0038805092
33	0xbc81698c	-0.015797399
34	0x3cec2708	0.028827205
35	0x3cd79594	0.026316442
36	0x3c6b8088	0.014373906
37	0x3d243d02	0.040097244
38	0x3d61e0b0	0.05514592
39	0xb92fd0b0	-0.00016767043
40	0x3d413394	0.04716833
41	0xbcd401e0	-0.0258798
42	0xbd40e62c	-0.04709451
43	0xbd6c45c0	-0.057683706
44	0xbd0e1d62	-0.03469599
45	0xbb1e2ccc	-0.0024135588
46	0x3b5f8a5c	0.0034109568
47	0xbca07510	-0.01958707
48	0x3d2676e8	0.04064074
49	0x3c25b8d4	0.010114867
50	0x3d265180	0.04060507
51	0xbca54d9c	-0.020178609
52	0xbd70eca4	-0.058819428
53	0x3d4e8ef6	0.050429307
54	0xbd321168	-0.04347363
55	0x3bf33be0	0.007422909
56	0xbc5275f8	-0.012845509
57	0x3d080814	0.03321083
58	0xbd77c77a	-0.06049297
59	0x3d48a322	0.0489837
60	0xbbd5c158	-0.0065232925
61	0xbca50508	-0.020144
62	0x3c8a0070	0.016845912
63	0x3d243034	0.040085033
64	0xbd43c27e	-0.047792904
65	0xbd1c1752	-0.038108177
66	0xbbfdca64	-0.007745074
67	0x3d579392	0.05263097
68	0x3d4f929c	0.050676927
69	0xbd191c64	-0.03738059
70	0xbd414910	-0.04718882
71	0x3d6d8c0a	0.05799488
72	0xbd6acfb4	-0.057326987
73	0x3d28d53a	0.041218974
74	0x3c02cdb4	0.007983614
75	0x3cb286ec	0.021792851
76	0xbd1d491c	-0.0383998
77	0xbd22134a	-0.039569177
78	0xbbc8a174	-0.0061227623
79	0xbd6ac8ba	-0.057320334
80	0xbd6a0a6a	-0.057138838
81	0x3d4cc720	0.049994588
82	0xbd1f4ed6	-0.038893543
83	0x3c4c9330	0.012486264
84	0x3bf5a8a0	0.0074969083
85	0x3c6af788	0.014341243
86	0x3d47a776	0.048743688
87	0x3d38cd12	0.045117445
88	0x3d358da0	0.044324517
89	0xbc32b0f0	-0.010906443
90	0x3c800684	0.015628107
91	0xbd302d02	-0.043011673
92	0xbc24ff94	-0.0100707
93	0xbd069472	-0.032856412
94	0x3cb85f10	0.022506267
95	0xbd2a4af6	-0.041575395
96	0xbd7329fc	-0.05936621
97	0xbceb87dc	-0.028751306
98	0xbc4f7e78	-0.01266443
99	0x3cdc8b94	0.026922025
100	0xbcf46dc8	-0.029837504
101	0xbd702bc8	-0.058635503
102	0xbd7020b0	-0.058624923
103	0x3bf280d0	0.0074006096
104	0xbcbab354	-0.022790588
105	0x3c172630	0.009225413
106	0xbd65ced2	-0.056105442
107	0x3d593a08	0.05303386
108	0xbd7e1e90	-0.062040865
109	0x3d57b448	0.052662164
110	0xbd6746c0	-0.056463957
111	0xbd1541bc	-0.036439642
112	0x3b3b6e30	0.0028599612
113	0xb9034704	-0.00012519589
114	0x3d75061e	0.059820287
115	0x3cdc1578	0.026865706
116	0xbb6eaaa0	-0.0036417618
117	0xbc73ea48	-0.0148874
118	0xbbc84774	-0.0061120335
119	0xbd4526a0	-0.04813254
120	0x3d30cd68	0.04316464
121	0x3c852170	0.016251296
122	0xbd0a2ea2	-0.03373588
123	0x3c1ac700	0.009446859
124	0x3d213e6c	0.03936617
125	0x3d30a08e	0.043121867
126	0x3d0fd226	0.035112523
127	0xbd0b0382	-0.033938892
128	0xbcd590fc	-0.02607011
129	0xbd25d28a	-0.04048399
130	0x3d539b22	0.051661618
131	0xbd2ecac2	-0.042673834
132	0xbd424496	-0.04742869
133	0x3c00a0ec	0.007850867
134	0xbc89acb8	-0.016805992
135	0xbd493ae8	-0.049128443
136	0xbc253224	-0.010082755
137	0xbd0d00fc	-0.034424767
138	0x3cbb5f84	0.022872694
139	0xbcc2d934	-0.023785211
140	0x3d564396	0.05231055
141	0x3d44e324	0.04806818
142	0xbcff9610	-0.031199485
143	0x3d6bd60e	0.057577185
144	0x3d51547a	0.051105954
145	0x3bd75528	0.0065714307
146	0xbd7405c4	-0.05957581
147	0xbd764428	-0.060123593
148	0x3c916594	0.017748632
149	0x3d0c011c	0.034180745
150	0x3b8c6c24	0.0042853523
151	0xbc18df20	-0.009330541
152	0x3b110028	0.0022125337
153	0xbcdc0c18	-0.026861235
154	0x3d0f98e8	0.035057932
155	0xbc9aeefc	-0.018912785
156	0xbd225a66	-0.039636992
157	0x3cde97e0	0.027172029
158	0x3d23b2c8	0.03996542
159	0xbc0377dc	-0.008024182
160	0x3d50cfba	0.050979353
161	0xbb34e810	-0.002760414
162	0x3c9958bc	0.01871907
163	0x3cfae058	0.030624554
164	0xbb5f121c	-0.0034037894
165	0xbcfd0a9c	-0.030888848
166	0xbcf1b404	-0.029504783
167	0x3d3a2c32	0.045452304
168	0xbc3a5f90	-0.011375323
169	0xbc59a380	-0.01328361
170	0x38c11a94	9.207908e-05
171	0xbc0ad06c	-0.008472543
172	0x3ccd42ac	0.025056206
173	0x3cbe6e20	0.023245871
174	0x3c934704	0.017978199
175	0x3d31dba2	0.04342235
176	0x3c816bcc	0.015798472
177	0x3c968ca0	0.018377602
178	0x3c573ad0	0.013136581
179	0x3c597890	0.013273373
180	0x3cd861e0	0.026413858
181	0x3d6e4710	0.05817324
182	0x3c996964	0.018727012
183	0xbc3f9a24	-0.011694465
184	0x3ba157bc	0.004923789
185	0x3d26d9d2	0.040735073
186	0xbce496f4	-0.027904011
187	0xbd2f2060	-0.042755485
188	0x3d417202	0.047227867
189	0xbd50d254	-0.050981835
190	0x3c9c83bc	0.019105785
191	0x3c7f766c	0.015592199
192	0xbd0e22bc	-0.034701094
193	0xbc980b50	-0.018560082
194	0xbaa9f54c	-0.0012966781
195	0xbc99d62c	-0.018778883
196	0xbd278744	-0.040900484
197	0x3d73b140	0.05949521
198	0xbc42b64c	-0.011884283
199	0xbd5e21c0	-0.054231405
200	0xbd7e100e	-0.06202703
201	0xbd26e092	-0.04074151
202	0xbd32d320	-0.043658376
203	0xbd1ab876	-0.037773572
204	0xbc2bd08c	-0.010486733
205	0xbd211c5e	-0.039333694
206	0x3d507cb4	0.050900176
207	0x3d515248	0.05110386
208	0xbcecd4f8	-0.028910145
209	0x3d5e6834	0.054298595
210	0x3cbacad8	0.022801802
211	0xbd1a7070	-0.037704885
212	0xbcf2a5cc	-0.029620074
213	0xbd1522e2	-0.03641022
214	0x3ba7f26c	0.0051253345
215	0x3cfe5840	0.03104794
216	0xbbb685c0	-0.0055701435
217	0x3d061d20	0.03274262
218	0x3d360960	0.044442534
219	0xbcc7f1c4	-0.024407275
220	0xbd249fda	-0.04019151
221	0x3cafea58	0.021474048
222	0x3ca7e034	0.02049265
223	0xbc534140	-0.012893975
224	0xbc07011c	-0.008240011
225	0x3d154f6e	0.036452703
226	0xbc1fad6c	-0.009745937
227	0x3d3d37cc	0.04619579
228	0xbd31ff1e	-0.04345619
229	0xbcecf7f0	-0.02892682
230	0xbd2ab3ee	-0.0416755
231	0xbc90aff4	-0.017662026
232	0x3d5331b6	0.05156108
233	0x3cd43960	0.025906265
234	0x3c80bcc4	0.01571501
235	0x3cf70630	0.030154318
236	0x3be2bf2c	0.006919762
237	0xbd1b979e	-0.03798639
238	0x3ce439b0	0.027859539
239	0xbd009ca8	-0.0313994
240	0xbd7f7c1e	-0.062374227
241	0xbd2a6676	-0.04160162
242	0x3c176ff0	0.009242997
243	0xbc5d0ef4	-0.013492335
244	0xbd637dd6	-0.05553993
245	0xbb61447c	-0.0034373095
246	0xbbd632f8	-0.0065368377
247	0xbc3f5c74	-0.011679757
248	0x3d16e230	0.036836803
249	0xbc8a52cc	-0.016885184
250	0xbc99d368	-0.018777564
251	0x3c15cc98	0.009143017
252	0x3c25674c	0.010095429
253	0x3d2af75a	0.0417398
254	0x3d67e07c	0.05661057
255	0xbcde348c	-0.027124666

layer2.bias f4 [256]
0	0x3c232cb4	0.0099593885
1	0x3d76483c	0.06012748
2	0x3c95c320	0.01828152
3	0x3d0fd8d3	0.03511889
4	0xbd41a174	-0.047273114
5	0x3c3928b8	0.011301212
6	0xbd8011ff	-0.062534325
7	0x3d2962a0	0.04135382
8	0x3d79264a	0.06082753
9	0xbca7306c	-0.020408832
10	0xbce7d198	-0.028298184
11	0x3d15954c	0.036519334
12	0x3d403ad8	0.046931118
13	0x3d62df14	0.055388525
14	0x3cfb0ba4	0.0306452
15	0x3cc5b1ac	0.024132572
16	0x3c82b190	0.015953809
17	0x39982df0	0.00029025925
18	0xbcc73ea6	-0.024321865
19	0xbcc86052	-0.024459992
20	0x3cae9cd4	0.021315016
21	0x3d21f928	0.039544255
22	0x3c987e1e	0.018614825
23	0x3c985114	0.018593349
24	0xbd4bcc40	-0.049755335
25	0x3d149592	0.036275454
26	0xbcb954b4	-0.022623397
27	0x3c2c622c	0.010521453
28	0x3d3ca870	0.046059072
29	0x3cb67068	0.022270396
30	0x3d13d49f	0.036091443
31	0xbd18b9da	-0.037286617
32	0x3acbdff8	0.0015554419
33	0xbd54f152	-0.051987953
34	0x3b50f864	0.0031886334
35	0xbb403d14	-0.002933328
36	0x3c07b7bc	0.008283552
37	0xbd09f1f4	-0.03367801
38	0x3cfea630	0.031085104
39	0xbad64ef8	-0.0016350439
40	0xbbbdadd4	-0.005788544
41	0x3b9d056e	0.004791907
42	0xbd5b0500	-0.053471565
43	0xbd73b5b6	-0.059499465
44	0x3d43e6f6	0.047827683
45	0x3d64d986	0.05587151
46	0x3d6cbf42	0.057799585
47	0x3d2a69dd	0.041604865
48	0xbd215ad0	-0.039393246
49	0xbb257fc9	-0.0025253168
50	0xbcd15c9c	-0.025556855
51	0x3d6f54d9	0.058430526
52	0x3d5fff04	0.05468656
53	0xbd1fdeac	-0.039030716
54	0xbc16f058	-0.009212576
55	0xbcee12d6	-0.029061716
56	0xbc9fb4b8	-0.019495353
57	0x3d1303e2	0.035892375
58	0xbcff1ed0	-0.031142622
59	0xbd34eba2	-0.04417003
60	0x3d157eac	0.036497757
61	0x3d818d46	0.06325774
62	0xb8e92ae8	-0.00011118298
63	0x3be637ec	0.0070257094
64	0x3c3cbc00	0.011519432
65	0xbcc801dc	-0.02441495
66	0xbd008f7c	-0.031386837
67	0x3d2225b0	0.039586723
68	0x3bca3f3a	0.006172088
69	0x3d371ea2	0.044706948
70	0x3d7c9d73	0.061673593
71	0xbce82828	-0.02833946
72	0x3c9225b4	0.017840244
73	0xbd264794	-0.040595606
74	0xbcdaaae8	-0.026692823
75	0x3d171076	0.036880933
76	0x3d1369b2	0.03598947
77	0xbd286cea	-0.041119494
78	0x3d26434a	0.040591516
79	0x3c0bb7cf	0.00852771
80	0xbcdb31a8	-0.026757076
81	0xbc15f154	-0.009151775
82	0xbba6f8cc	-0.005095577
83	0xbce19318	-0.02753596
84	0x3af7bd00	0.0018900931
85	0x3ccd2fc6	0.025047194
86	0x3d2f1352	0.042743035
87	0xbc155dc0	-0.00911659
88	0x3d24cb9b	0.040233236
89	0x3b8bc6f4	0.0042656604
90	0x3ce50f48	0.027961388
91	0x3d6bcf92	0.057571
92	0xbd36f330	-0.044665515
93	0x3d10dee3	0.03536881
94	0xbacec764	-0.0015775976
95	0xbae6195c	-0.0017555165
96	0x3c608aa6	0.013704931
97	0x3cb0276c	0.021503173
98	0xbd471c7e	-0.048611157
99	0x3d339582	0.043843754
100	0xbd489362	-0.04896868
101	0xbd5d2680	-0.053991795
102	0x3c696ed0	0.014247611
103	0xbd3abb6c	-0.045588896
104	0x3d25f8d2	0.040520497
105	0x3d68bfa2	0.05682338
106	0x3d095601	0.033529285
107	0x3d2ccd48	0.04218796
108	0xbcd09428	-0.025461271
109	0xbd18d166	-0.037309073
110	0x3d5666e6	0.052344225
111	0xbce16860	-0.02751559
112	0x3aa1e28c	0.0012350841
113	0x3d7125e6	0.058874033
114	0xbd57e79e	-0.05271112
115	0xbc82db8d	-0.01597383
116	0xbcf921aa	-0.03041156
117	0x3a0935b0	0.00052341353
118	0x3cd4eac0	0.025990844
119	0xbbc01f0b	-0.0058630756
120	0x3c19c490	0.009385243
121	0x3d472aa8	0.048624665
122	0x3d5a86e6	0.053351305
123	0xbcb94644	-0.022616513
124	0x3d20a3da	0.03921876
125	0xbd6b86f8	-0.057501763
126	0xbcacd7a4	-0.02109892
127	0x3cc8644e	0.024461892
128	0xbd46380e	-0.0483933
129	0x3d09b290	0.033617556
130	0xbd126b6b	-0.035746973
131	0x3d2faba2	0.04288829
132	0x3d43ed52	0.04783375
133	0xbcc300e8	-0.023804143
134	0x3d3bc0e1	0.04583824
135	0xbd7eaba4	-0.062175408
136	0x3c5cde4c	0.013480734
137	0x3cb32f04	0.021873005
138	0xbd3cc4e4	-0.046086207
139	0x3c81f1c6	0.015862357
140	0x3ce00e2e	0.027350511
141	0xbc86009c	-0.016357712
142	0xbc25c137	-0.010116867
143	0x3bebc674	0.0071952883
144	0xbc6b7af0	-0.014372572
145	0xbc93098a	-0.017948885
146	0x3cbdcc96	0.023168843
147	0x3b572e53	0.0032834008
148	0x3c08a8e6	0.00834105
149	0xbc48bf74	-0.012252677
150	0x3d0d1231	0.034441177
151	0x3cb2a236	0.021805864
152	0x3b4ed458	0.0031559672
153	0x39c0db94	0.00036784692
154	0x3d233b5f	0.039851543
155	0xbb8a3364	-0.004217552
156	0xbd3a45fa	-0.04547689
157	0x3c860806	0.016361248
158	0xbd168884	-0.036751285
159	0x3d7d0afc	0.061778054
160	0x3bc54de8	0.00602125
161	0x3d1b5b06	0.037928604
162	0x3d579c98	0.052639574
163	0x3d54a744	0.05191733
164	0x3adb192d	0.0016715877
165	0xbc84c1a0	-0.016205609
166	0xbd397de4	-0.045286074
167	0xbd239bac	-0.039943382
168	0x3d76acfe	0.060223572
169	0x3c26d394	0.01018228
170	0xbd41e5ea	-0.047338404
171	0xbcf538ac	-0.02993425
172	0xbc4f3ce8	-0.0126487985
173	0xbc00d4b2	-0.0078632105
174	0x3d028486	0.031864665
175	0xbcdc5544	-0.026896127
176	0x3ca69235	0.020333389
177	0xbb2de8d0	-0.0026536472
178	0xbc9e5ce0	-0.019331396
179	0x3cbdfbe0	0.023191392
180	0xbc92fdbc	-0.017943256
181	0xbc973726	-0.018458914
182	0xbbe00bfc	-0.006837366
183	0xbd05321e	-0.0325185
184	0xbd4f3320	-0.050585866
185	0xbd14732a	-0.03624264
186	0x3cecd4a8	0.028909996
187	0xbb863a04	-0.0040962715
188	0x3d782580	0.060582638
189	0xbba98bad	-0.0051741214
190	0xbc6c152e	-0.0144093465
191	0xbd554f63	-0.052077662
192	0xbd147cb1	-0.036251727
193	0x3d4b4c18	0.049633116
194	0x3d469b92	0.048488207
195	0xbd3bb5a7	-0.045827534
196	0x3d18ade6	0.037275217
197	0xbcd1b9dc	-0.02560132
198	0xbd7a3113	-0.061081957
199	0x3d01f316	0.031725965
200	0x3b4b4b88	0.0031020362
201	0x3d7a1f14	0.061064795
202	0x3c1e4715	0.009660502
203	0xbb865885	-0.004099908
204	0x3cee447c	0.02908539
205	0x3d70e803	0.058815014
206	0x3d3114fa	0.043232895
207	0x3b764d60	0.003758274
208	0x3d172e66	0.036909483
209	0xbd48b6c6	-0.04900243
210	0xbd4c71a0	-0.04991305
211	0x3d279296	0.04091128
212	0xbce00a88	-0.027348772
213	0x3c3b6b5a	0.011439169
214	0xbc97d638	-0.018534765
215	0x3ccb5cd1	0.024824532
216	0x3c830f7b	0.015998593
217	0xbd454836	-0.04816457
218	0xbb6093f4	-0.0034267874
219	0xbd629e34	-0.055326656
220	0xbcddac8b	-0.027059814
221	0x3c2d7137	0.010586075
222	0xbcf36b98	-0.02971439
223	0x3d07348c	0.033009097
224	0xbd6fd576	-0.05855318
225	0xbcc26edd	-0.023734504
226	0x3d5263e4	0.051364794
227	0xbd7b2e6a	-0.06132356
228	0xbce4ba70	-0.027920932
229	0xbd1bb3dc	-0.038013324
230	0xbd357650	-0.044302285
231	0x3a1b5b92	0.0005926426
232	0xbd63ea1a	-0.05564318
233	0xbd60f4d2	-0.05492098
234	0x3cf4c873	0.029880738
235	0xbd16e5ac	-0.036840126
236	0x3ce5d89c	0.028057389
237	0xbcd7ec8d	-0.026357913
238	0x3c4b24aa	0.012398878
239	0x3d614882	0.05500079
240	0x3ceeb8ac	0.029140793
241	0xb9be7594	-0.00036327227
242	0x3d18e7fa	0.037330605
243	0xbcfb0a92	-0.030644689
244	0xbd17a9f8	-0.03702733
245	0x3d7bc9a8	0.06147161
246	0xbd42cac0	-0.04755664
247	0x3cc1d3b4	0.023660518
248	0x3cdb25c8	0.026751414
249	0x3b5a12a2	0.0033275266
250	0x3d6b569e	0.05745565
251	0x3d3c30e1	0.045945052
252	0xbb9237a0	-0.0044621974
253	0xbd5ae394	-0.05343969
254	0x3d4f3bb3	0.050594043
255	0xbceb573a	-0.028728116

layer3.weight f4 [256, 256]
0	0xbd54b40e	-0.051929526
1	0x3a89f984	0.0010526632
2	0xbd746cfe	-0.059674256
3	0x3d329e46	0.043607973
4	0x3d104038	0.035217494
5	0x3d41a736	0.047278605
6	0xbd023a5e	-0.031793945
7	0x3a531af8	0.000805303
8	0xbc9ad3e8	-0.018899873
9	0xbbb25820	-0.005442634
10	0x3d57af0c	0.052657172
11	0xbd389d3c	-0.045071825
12	0xbd014f4a	-0.031569757
13	0xbcc98be4	-0.024602838
14	0xbd511a92	-0.05105073
15	0xbb9e4afc	-0.004830716
16	0xbce42b4c	-0.027852677
17	0x3cef1d40	0.029188752
18	0xbd31e54a	-0.043431558
19	0x3be605cc	0.007019734
20	0xbd542c18	-0.051799864
21	0x3c004b4c	0.007830452
22	0x3d146c1c	0.036235914
23	0x3d423f54	0.047423676
24	0xbcd25e70	-0.025679797
25	0xbd19123c	-0.037370905
26	0x3d04f576	0.032460652
27	0x3d7a0a7e	0.061045162
28	0x3cc2e868	0.02379246
29	0xbce8dba8	-0.028425053
30	0xbcde5ba0	-0.0271433
31	0x3d624a9e	0.05524694
32	0x3d21b314	0.039477423
33	0xbd288658	-0.041143745
34	0x3d1e90c6	0.038712285
35	0xbd377a1a	-0.04479418
36	0x3ae1f01c	0.0017237696
37	0xbcc2b148	-0.023766175
38	0x3d61071c	0.05493842
39	0xbd72be4a	-0.059263505
40	0x3d793e58	0.06085047
41	0x3d26d56c	0.04073088
42	0x3d7a07fc	0.06104277
43	0xbd1ae7ee	-0.03781884
44	0x3c90acdc	0.01766055
45	0xbcf2f2e8	-0.029656842
46	0x3d621656	0.055197082
47	0xbd77c61e	-0.060491674
48	0x3d0aa0f6	0.03384491
49	0x3b85cf34	0.0040835384
50	0x3a25e04c	0.00063276733
51	0x3a95df28	0.0011434304
52	0x3c7e6b14	0.015528459
53	0xbc0a208c	-0.008430611
54	0x3c22b364	0.009930465
55	0xbc1c23d0	-0.009530023
56	0xbd669830	-0.05629748
57	0x3b7d89a4	0.0038686777
58	0xbd57c23a	-0.052675463
59	0x3d2363b6	0.039890014
60	0xbaa0990c	-0.0012252643
61	0xbcd622fc	-0.026139729
62	0xbc332ea0	-0.010936409
63	0xbb86e314	-0.0041164253
64	0xbc67b4bc	-0.0141422115
65	0xbd5daea0	-0.054121614
66	0x3cbad64c	0.022807263
67	0x3d6cd066	0.05781593
68	0x3d75632a	0.059909023
69	0xbd344ac0	-0.0440166
70	0x3d29ebde	0.041484706
71	0x3bf47100	0.0074597597
72	0xbc94c380	-0.018159628
73	0xbcc9c5d8	-0.024630472
74	0x3d0d06d8	0.034430355
75	0x3d718ef4	0.05897422
76	0x3b9baec8	0.00475106
77	0xbc8a8474	-0.016908862
78	0x3b471b14	0.003038113
79	0x3d00dd18	0.03146085
80	0xbd21d6d8	-0.03951153
81	0xbca20d28	-0.019781664
82	0x3d5b8168	0.05359021
83	0xbd4e95ba	-0.05043576
84	0xbccf31f8	-0.025292382
85	0xbd4c5ce0	-0.04989326
86	0xbd1441e0	-0.036195636
87	0xbd7e6fb2	-0.06211824
88	0x3ce09fe8	0.02742
89	0xbd6bbc38	-0.057552546
90	0x3d3ccfba	0.04609654
91	0xbd329afe	-0.043604843
92	0xbcffe42c	-0.03123673
93	0xbd2d9006	-0.04237368
94	0xbd668f3a	-0.056288935
95	0xbaac6c8c	-0.0013154908
96	0xbd6663e0	-0.056247592
97	0xbd48a87a	-0.048988797
98	0xbb9871d8	-0.004652243
99	0x3d523446	0.051319383
100	0x3ba4529c	0.0050147306
101	0x3c96f9a0	0.018429577
102	0xbd18bf40	-0.037291765
103	0xbcafc158	-0.021454498
104	0x3d6fbd02	0.05852986
105	0x3d2090e2	0.03920067
106	0x3d733f02	0.05938626
107	0xbd0c8780	-0.03430891
108	0xbca79fc8	-0.020461932
109	0x3d24c9b0	0.040231407
110	0xbd46e176	-0.04855486
111	0x3ca215bc	0.019785754
112	0x3c0af9fc	0.0084824525
113	0xbcded66c	-0.027201854
114	0x3d089748	0.033347398
115	0x3cfb0ee8	0.030646756
116	0xbd298bc8	-0.04139307
117	0x3d0a6d64	0.03379573
118	0x3d0c4e48	0.034254342
119	0xbd422b26	-0.04740443
120	0xbd7dd1ba	-0.06196759
121	0xbd779934	-0.06044884
122	0x3cb997c0	0.022655368
123	0x3c54cc40	0.01298815
124	0xbccb9190	-0.024849683
125	0x3d7a5cf2	0.061123796
126	0xbcb70120	-0.022339404
127	0xbc2aa104	-0.010414366
128	0xbc83fd40	-0.01611197
129	0xbd539912	-0.05165965
130	0xbcab22d4	-0.02089063
131	0xbc23fb94	-0.010008711
132	0x3be9661c	0.007122768
133	0xbd313878	-0.043266743
134	0xbd64f750	-0.055899918
135	0xbcbdc26c	-0.023163997
136	0x3d78720e	0.060655646
137	0xbd6ccf14	-0.057814673
138	0x3c113b58	0.008864246
139	0x3c812648	0.015765324
140	0xbcd71244	-0.026253827
141	0x3c0f96a0	0.008763939
142	0xbd34fdac	-0.044187233
143	0xbd4076e0	-0.046988368
144	0x3d41b322	0.047289975
145	0xbd19455c	-0.037419662
146	0x3c9152ec	0.017739736
147	0xbc94e454	-0.018175282
148	0xbd294bf4	-0.0413322
149	0xbc09ea64	-0.0084176995
150	0xbd626ce0	-0.055279613
151	0x3c33e378	0.010979526
152	0xbc8b6fd0	-0.01702109
153	0xbd06267a	-0.032751538
154	0x3c90e28c	0.017686151
155	0xbd5cc8ce	-0.05390244
156	0xbb6b7c60	-0.0035932288
157	0xbb6f2420	-0.0036490038
158	0xbb92f8f8	-0.004485246
159	0xbbef3c50	-0.007300891
160	0x3cf99a64	0.030469127
161	0xbc855ac8	-0.01627864
162	0xbd22dc28	-0.03976074
163	0xbc207fec	-0.009796124
164	0x3d4684d4	0.04846652
165	0x3c994690	0.018710405
166	0x3ca944a8	0.02066262
167	0x3c59ec48	0.013300963
168	0x3d0b0736	0.033942424
169	0xbd55fa1c	-0.052240476
170	0xbb1fddec	-0.002439375
171	0xbd201e94	-0.03909166
172	0x3d2cdb74	0.042201474
173	0x3d519c9c	0.051174745
174	0x3bb83d10	0.0056225136
175	0x3c40bc2c	0.011763614
176	0xbd623510	-0.055226386
177	0xba9f8f0c	-0.0012173369
178	0xbad99af8	-0.001660197
179	0x3bd8eb58	0.006619852
180	0x3d399f7a	0.045318104
181	0xbce770c8	-0.02825202
182	0x3d05de7c	0.03268288
183	0xbc24bd7c	-0.010054942
184	0xbd61195a	-0.054955818
185	0x3c4f67a0	0.0126589835
186	0x3b85a0e4	0.0040780175
187	0xbce4e010	-0.027938873
188	0xbd349768	-0.044089705
189	0xbd7c2dce	-0.06156712
190	0xbd53ff94	-0.05175741
191	0x3c9abba8	0.01888831
192	0xbcf95544	-0.030436166
193	0x3d7c29b8	0.061563224
194	0x3d7ae0f2	0.06124968
195	0x3d00a4d0	0.031407177
196	0xbd27e484	-0.040989414
197	0x39aa15cc	0.00032441167
198	0x3d488560	0.04895532
199	0x3c99d750	0.018779427
200	0x3d15155e	0.03639733
201	0xb8c12294	-9.209398e-05
202	0x3d1986f2	0.03748221
203	0x3a7c4ba4	0.00096243084
204	0xbd49d0bc	-0.04927133
205	0x3b8fd8c8	0.004389856
206	0xbcd92b00	-0.026509762
207	0xbd37d6ee	-0.044882707
208	0xbd234836	-0.039863788
209	0xbd0d4360	-0.034488082
210	0x3d5ae920	0.05344498
211	0x3d63251a	0.055455305
212	0xbd644830	-0.055732906
213	0x3d33eb44	0.04392554
214	0x3ceca96c	0.02888938
215	0xbd522200	-0.051301956
216	0x3d4ceb16	0.050028883
217	0x3d5eb27e	0.054369442
218	0x3c1e42ec	0.00965951
219	0x3c8fe818	0.017566726
220	0xbd757df2	-0.059934564
221	0xbbb68880	-0.0055704713
222	0xbd379dae	-0.04482811
223	0x3d31f808	0.04344943
224	0xbcf02ad4	-0.029317297
225	0x3bb89ce0	0.0056339353
226	0xbafa5ee4	-0.0019101766
227	0x3d1cc0be	0.03826975
228	0xbd13f71e	-0.03612434
229	0x3ca0b060	0.019615352
230	0xbc30dbe0	-0.01079461
231	0xbce58adc	-0.028020315
232	0x3d6322b6	0.055453025
233	0xbd7d8370	-0.061892927
234	0xbd7463a4	-0.059665337
235	0xbc9c049c	-0.019045167
236	0xbcf07d80	-0.029356718
237	0xbd14bdb6	-0.036313735
238	0xbce81250	-0.028329045
239	0x3d70e51c	0.058812246
240	0xbd7f8000	-0.06237793
241	0x3bb6c390	0.005577512
242	0xbc20a45c	-0.009804811
243	0x3c7c6f34	0.015407372
244	0x3cf6c5f4	0.030123688
245	0xbca7fad8	-0.020505354
246	0x3d2e5fde	0.042571895
247	0xbd494c86	-0.049145244
248	0x3d6a2db0	0.057172477
249	0xbb307470	-0.002692487
250	0x3c588d20	0.013217241
251	0x3cfaa160	0.030594528
252	0xbd2adb28	-0.04171291
253	0x3d605df6	0.054777108
254	0x3d02db12	0.031947203
255	0x3d57b970	0.05266708

layer3.bias f4 [256]
0	0xbd2a376e	-0.041556768
1	0xbd1bd464	-0.03804435
2	0x3d1f801c	0.038940534
3	0x3c36f828	0.0111675635
4	0xbd1298c0	-0.035790205
5	0xbd25df58	-0.0404962
6	0x3cfda180	0.030960798
7	0xbcdbace8	-0.026815847
8	0xbd0addc6	-0.033902906
9	0xbc4840ce	-0.012222482
10	0xbca21a2a	-0.019787867
11	0xbc39fb9c	-0.011351492
12	0x3d1ccb51	0.038279835
13	0xbd701401	-0.058612827
14	0xbc93c5f7	-0.018038733
15	0x3d35c7ba	0.044379927
16	0xbd704baa	-0.05866591
17	0xbd63ee16	-0.05564698
18	0xbce48d0c	-0.027899288
19	0xbd1ffa90	-0.039057314
20	0x39d07178	0.00039757392
21	0x3d069570	0.03285736
22	0x3b7861e0	0.0037900135
23	0x3d3e8df0	0.04652208
24	0x3d6ceef2	0.057845064
25	0x3cd8d18c	0.026467107
26	0xbce36c42	-0.027761582
27	0xbd322a84	-0.043497577
28	0x3ceaa69e	0.028643902
29	0xbbd86982	-0.0066043744
30	0xbd6a47cc	-0.057197377
31	0xbd0ead20	-0.034833074
32	0x3cdca53d	0.02693426
33	0x3d648124	0.05578722
34	0xbce803c2	-0.028322104
35	0x3d45055b	0.04810081
36	0xbd0649ba	-0.032785155
37	0x3d6425ba	0.05570004
38	0x3c68b0f4	0.014202345
39	0xbd216852	-0.03940613
40	0x3d1e1cea	0.038601793
41	0xbd613f2f	-0.054991897
42	0x3c6657a0	0.014058977
43	0x3c5a1378	0.013310306
44	0xbcc510e6	-0.02405591
45	0xbcc895eb	-0.024485549
46	0x3cd63e1a	0.02615266
47	0xbd6e3640	-0.058157206
48	0x3b4b9eb6	0.003106994
49	0xbd13daa4	-0.036097184
50	0xbcd7837e	-0.026307818
51	0x3d0b1be6	0.033962153
52	0x3d0b1b00	0.033961296
53	0x3b3d8314	0.002891724
54	0xbd0219e4	-0.031762972
55	0xbd5b1c89	-0.05349401
56	0x3d29509b	0.041336637
57	0x3d113066	0.035446547
58	0xbc013a02	-0.007887365
59	0xbd5a2bb3	-0.05326433
60	0x3d262395	0.040561277
61	0xbc848840	-0.01617825
62	0xbd120332	-0.03564758
63	0x3cb391ca	0.021920104
64	0xbd5f3a1a	-0.05449877
65	0xbcdc90a0	-0.026924431
66	0x3bddd53c	0.0067698043
67	0x3d60e2b4	0.0549037
68	0x3c4407c8	0.011964746
69	0xbd1ce258	-0.038301796
70	0x3d0da79a	0.034583665
71	0xbd1c4e49	-0.038160596
72	0xbd653292	-0.05595643
73	0xbccf6caa	-0.02532037
74	0x3c023f3f	0.007949649
75	0x3c80a31f	0.015702782
76	0xbc4983ea	-0.012299517
77	0xbc911d71	-0.017714234
78	0xbd562118	-0.052277654
79	0xbccbbdfc	-0.024870865
80	0x3d4b31ca	0.04960803
81	0xbcea3e36	-0.028594118
82	0x3cd267f0	0.025684327
83	0x3d0660f2	0.032807298
84	0xbd470f78	-0.048598737
85	0x3d01e710	0.0317145
86	0xbd060c54	-0.0327266
87	0xbbe1d88c	-0.0068922695
88	0xbcc342a0	-0.02383548
89	0x3d579082	0.052628048
90	0x3cc90178	0.024536833
91	0xbcbad258	-0.022805378
92	0x3d66b453	0.056324314
93	0xbc50ec89	-0.012751707
94	0xbcffb042	-0.031211976
95	0xbd01502f	-0.03157061
96	0x3c59f081	0.0133019695
97	0xbccf94ca	-0.025339503
98	0xbd7d7c44	-0.061886087
99	0xbc8fa6ae	-0.017535534
100	0xbcf8336c	-0.030297957
101	0x3cc94339	0.024568187
102	0xbd70bdde	-0.05877482
103	0xbd63b7de	-0.05559527
104	0x3d6bb322	0.05754388
105	0x3bc666a4	0.006054716
106	0x3cc64a2c	0.02420529
107	0x3c090b10	0.008364454
108	0xbd2c92e6	-0.04213228
109	0xbd03b137	-0.032151427
110	0x3c46c682	0.012132289
111	0x3cfec031	0.031097503
112	0x3ce607db	0.028079918
113	0xbd19ddd2	-0.03756506
114	0x3c677bd8	0.014128648
115	0xbc36bc76	-0.011153331
116	0xbcf2c102	-0.029633049
117	0x3cf03544	0.029322274
118	0xbc2d3c64	-0.01057348
119	0xbd806d10	-0.06270802
120	0x3d3a1942	0.045434244
121	0xbd300e54	-0.042982414
122	0x3c1f210c	0.009712469
123	0xbb14fd2d	-0.0022733912
124	0xbd1d29c2	-0.0383699
125	0x3d218cc6	0.039440893
126	0x3c725841	0.014791549
127	0xbd5fe7f9	-0.054664586
128	0x3ca0b058	0.019615337
129	0x3cad51a4	0.021157093
130	0x3d67ff40	0.05663991
131	0x3c89c72b	0.016818604
132	0x3ca6ea74	0.020375468
133	0xbd20f3e8	-0.039295107
134	0x3d3f6d9c	0.04673539
135	0xbc2d9e34	-0.010596801
136	0xb990eb0c	-0.00027640944
137	0x3b15693a	0.0022798316
138	0xbcdac0a0	-0.026703179
139	0x3d198004	0.0374756
140	0xbcd04af2	-0.025426362
141	0x3cd1bb67	0.025602056
142	0x3d4cfa70	0.050043523
143	0x3cd26b9a	0.025686074
144	0xbcab0654	-0.02087704
145	0x3cf08020	0.02935797
146	0x3d196e96	0.03745898
147	0x3d0d9da7	0.034574177
148	0xbd7a61b9	-0.06112835
149	0x3c0e0d64	0.008670185
150	0x3d74a03e	0.05972313
151	0xbc0cd794	-0.00859632
152	0x3d3d3708	0.04619506
153	0x3d6b00ec	0.057373926
154	0xbd716d8a	-0.058942355
155	0xbcc734ac	-0.024317108
156	0xbc3d5caa	-0.011557737
157	0xbcb8b2f2	-0.022546265
158	0xbd7a3f54	-0.06109555
159	0x3c08d966	0.008352613
160	0x3d2a4e82	0.041578777
161	0x3d506541	0.050877813
162	0x3d2a5116	0.041581236
163	0x3c0e6e28	0.0086932555
164	0x3d1370b0	0.03599614
165	0xbc7a0cf4	-0.015261877
166	0x3cabaac7	0.020955456
167	0xbd362bd4	-0.04447539
168	0xbc5c0fa4	-0.013431463
169	0x3cdf037e	0.027223345
170	0xbc301ef6	-0.010749569
171	0x3c32a495	0.010903497
172	0x3d3be8d2	0.04587633
173	0xbb33f110	-0.0027456917
174	0xbca1bda2	-0.019743744
175	0xbd331c1a	-0.04372797
176	0xbd05f55c	-0.032704696
177	0x3b9ba075	0.0047493526
178	0xbd06750e	-0.032826476
179	0xbd376852	-0.044777222
180	0xbc685ac4	-0.014181796
181	0x3d319c2c	0.043361828
182	0xbd0ea41e	-0.034824483
183	0x3d38447f	0.044987198
184	0xbd5a6a88	-0.053324252
185	0x3cfba2e0	0.030717313
186	0xbd3cdfb3	-0.046111774
187	0xbcdcbfd4	-0.02694694
188	0x3d6a8d3a	0.05726359
189	0xbd457d4c	-0.048215196
190	0xbd1e17d0	-0.038596928
191	0x3cf6b764	0.030116744
192	0xbbfce446	-0.007717642
193	0x3ca371fc	0.019951813
194	0xbd6817de	-0.056663387
195	0x3d048838	0.03235647
196	0x3cb3d3a4	0.021951504
197	0x3c41b8fd	0.01182389
198	0xbceb0d58	-0.028692886
199	0xbd4643b4	-0.04840441
200	0x3d823f36	0.06359713
201	0x3c4d6140	0.012535393
202	0xbd1c0e2c	-0.038099453
203	0x3c076801	0.008264543
204	0xbd28839e	-0.041141145
205	0xbd79dc87	-0.061001327
206	0xbd72e8b2	-0.059303947
207	0x3b9a0e4a	0.0047014104
208	0xbc901450	-0.01758781
209	0x3c62002e	0.013793988
210	0xbd4502d8	-0.048098415
211	0xbd4ef994	-0.050530985
212	0xbcb869c9	-0.02251138
213	0x3cf21e45	0.02955545
214	0x3ca4a7ef	0.020099608
215	0x3d2c37be	0.042045347
216	0x3d6de7a4	0.058082238
217	0xbc4ede2d	-0.012626213
218	0xbcc9ea36	-0.024647813
219	0xbd4d1fe8	-0.050079256
220	0x3d419d06	0.04726889
221	0xbd7691be	-0.060197584
222	0xbcaaa30e	-0.020829704
223	0x3d57e0ac	0.0527045
224	0x3d5fac4c	0.054607674
225	0xbd33e9e0	-0.043924212
226	0x3d4fb0db	0.050705772
227	0x3d7bf34a	0.061511315
228	0x3d4f45d9	0.05060372
229	0xbd295fd5	-0.04135116
230	0x3beccc81	0.007226527
231	0x3d12077a	0.03565166
232	0xbcbedbb0	-0.023298115
233	0x3b022962	0.0019861092
234	0x3d108dfc	0.035291657
235	0xbd7c2db0	-0.06156701
236	0x3c512ad0	0.012766555
237	0x3d008b40	0.0313828
238	0xbd1422b0	-0.036165893
239	0xbab29978	-0.001362606
240	0x3d7044a6	0.05865922
241	0x3d4271cc	0.047471806
242	0x3d789dd0	0.060697377
243	0xbc375998	-0.011190794
244	0x3ca774a7	0.020441366
245	0xbc3f0374	-0.011658538
246	0x3cd2329d	0.0256589
247	0x3be30b66	0.006928849
248	0xbd5e9efe	-0.054350846
249	0xbc455a18	-0.012045406
250	0xbd0be248	-0.034151345
251	0x3d20b4fc	0.0392351
252	0x3d2378a4	0.039909974
253	0x3c7e0776	0.0155047085
254	0x3c8c3f2a	0.017119963
255	0xbd0c1d52	-0.03420765

layer4.weight f4 [10, 256]
0	0x3d27feb2	0.04101438
1	0xbcf099da	-0.029370237
2	0xbcef4125	-0.029205868
3	0x3d370b82	0.04468871
4	0xbbdf845c	-0.0068211984
5	0xbd440c9c	-0.047863588
6	0x3ca247d0	0.019809633
7	0xbcc4e514	-0.024035014
8	0x3cbadfca	0.022811789
9	0x3ae7c2d8	0.0017681969
10	0xbc7b1739	-0.015325361
11	0xbd4c78df	-0.04991996
12	0xbd0d3361	-0.034472827
13	0x39fe0ebc	0.00048457633
14	0x3d7adcd0	0.06124574
15	0xbc20df0e	-0.009818805
16	0x3d76be51	0.060240094
17	0xbc480a21	-0.012209446
18	0x3c4b6556	0.012414297
19	0xbc991580	-0.01868701
20	0xbd44462c	-0.047918484
21	0x3d642888	0.055702716
22	0xbcccebb4	-0.025014736
23	0x3cf66b4c	0.03008046
24	0xbc139075	-0.009006609
25	0xbcb2b10c	-0.021812938
26	0x3c6292a9	0.013828912
27	0xbcaf8600	-0.0214262
28	0xbcf71973	-0.030163502
29	0x3d239334	0.039935306
30	0xbc99660d	-0.01872542
31	0xbd27dc8c	-0.040981814
32	0xbc9ae4ca	-0.018907923
33	0x3d3314de	0.043721072
34	0xbcdec152	-0.027191792
35	0xbcf0dca4	-0.029402085
36	0x3d5bad78	0.05363223
37	0xbcc5d4c4	-0.024149306
38	0xbc6fef20	-0.014644414
39	0xbc4d835f	-0.012543528
40	0xbccf70ec	-0.0253224
41	0xbd4cf208	-0.050035506
42	0x3b441f8e	0.0029926035
43	0xbb60877c	-0.0034260442
44	0x3cbf8a5a	0.0233814
45	0xbd4ca3f8	-0.04996106
46	0x3cdaaec8	0.02669467
47	0x3cf96d96	0.030447762
48	0xbd614064	-0.05499305
49	0xbd19a654	-0.03751214
50	0x38b6faf8	8.725183e-05
51	0x3c8291a0	0.01593858
52	0x3ca3c44c	0.019991063
53	0xbd559216	-0.05214127
54	0x3c411d5c	0.011786785
55	0xbd2b2565	-0.04178371
56	0xbcd9976b	-0.02656146
57	0x3acebd38	0.0015772944
58	0xbd2950ce	-0.041336827
59	0xbd1dafd0	-0.038497746
60	0x3d0e3d78	0.03472659
61	0xbce2231a	-0.027604628
62	0xbd5bfd1a	-0.053708173
63	0xbbc07415	-0.005873213
64	0xbca98364	-0.020692535
65	0x3c05066c	0.008119207
66	0x3d3f4d58	0.04670462
67	0x3d0b7798	0.0340496
68	0xbd0b499a	-0.03400574
69	0x3d60bd58	0.054868072
70	0xbc444b7d	-0.011980888
71	0xbd66306c	-0.056198522
72	0x3bced473	0.006311947
73	0xbc87e450	-0.01658836
74	0xbd4f62e4	-0.05063142
75	0xbc3cc348	-0.011521168
76	0xbb0eb6a5	-0.0021776345
77	0xbcd79986	-0.026318323
78	0xbd6e53a4	-0.058185235
79	0xbd36b3cc	-0.04460506
80	0xbc946dd4	-0.018118776
81	0xbc4a3036	-0.012340596
82	0xbd38d586	-0.045125507
83	0x3c8d2ab8	0.017232284
84	0xbc6ea120	-0.014564782
85	0x3c62c224	0.013840232
86	0x3bedd660	0.0072582215
87	0xbd5e5b44	-0.054286256
88	0xbc82c644	-0.015963681
89	0x3d4ee31a	0.05050955
90	0x3d0ff598	0.035146326
91	0x3a90cfa8	0.0011048215
92	0x3cdbb858	0.0268213
93	0x3c1dbd30	0.009627625
94	0xbd47a218	-0.04873857
95	0xbd517faa	-0.05114714
96	0xbbc23097	-0.0059262025
97	0xbd3e69e8	-0.04648772
98	0x3d208316	0.039187513
99	0x3d6bd6ed	0.057578016
100	0xbc87a0c8	-0.016556159
101	0x3d7fda41	0.062464003
102	0xbcc1ec74	-0.02367232
103	0x3c05d804	0.008169178
104	0xbc8af834	-0.016964056
105	0x3c05cc88	0.00816644
106	0xbd249c62	-0.0401882
107	0x3ccec631	0.02524099
108	0xbcc526c2	-0.024066333
109	0xbd05d5e0	-0.03267467
110	0xbd54314b	-0.051804822
111	0xbd1df672	-0.038565107
112	0xbd664355	-0.056216557
113	0xbc1ca167	-0.009559966
114	0xbc8fc498	-0.017549798
115	0x3c0a571a	0.008443618
116	0xbd18a785	-0.037269134
117	0xbce558e8	-0.027996495
118	0x3d2966b8	0.041357726
119	0xbd573238	-0.052538127
120	0x3d385f56	0.045012794
121	0x3cb3a80a	0.021930713
122	0x3cb66fa4	0.022270031
123	0xbb599e84	-0.0033206055
124	0xbb8a4cb9	-0.004220572
125	0x3d641a22	0.055688985
126	0x3b5882a6	0.0033036857
127	0x3d524f20	0.05134499
128	0xbd37d7e2	-0.044883616
129	0xbd66ad36	-0.05631753
130	0x3c08fb17	0.008360646
131	0xbcf39e62	-0.029738609
132	0x3d2f28f0	0.04276365
133	0x3d37ee56	0.04490503
134	0x3d677452	0.056507416
135	0xbcef1a80	-0.02918744
136	0x3d7e82a5	0.06213631
137	0xbc3a8015	-0.011383076
138	0x3cfc48fc	0.03079652
139	0xbd73b98c	-0.059503123
140	0x3d00d0cc	0.031449124
141	0x3b7f2f8b	0.003893825
142	0xbc1b01d8	-0.009460889
143	0xbd3dc819	-0.046333406
144	0xbb6d675c	-0.0036224937
145	0xbb80e1d4	-0.003933171
146	0xbd5294d2	-0.051411457
147	0x3c4068ec	0.011743765
148	0xbd2a9f34	-0.041655734
149	0x3d664ffc	0.056228623
150	0x3d02f474	0.03197141
151	0x3bd18728	0.0063942857
152	0x3d323254	0.043505028
153	0xbd64d908	-0.05587104
154	0xbd67a6ec	-0.056555673
155	0xbcfe0b78	-0.031011328
156	0xb9bd8f90	-0.00036155852
157	0x3ce85064	0.028358646
158	0x3a2bda52	0.00065556646
159	0xbc22332b	-0.009899895
160	0x3d2b582e	0.04183214
161	0x3c3a0ebc	0.011356052
162	0xbce068d7	-0.027393742
163	0x3d05c892	0.032661982
164	0xbd42c5f6	-0.04755207
165	0xbd415038	-0.047195643
166	0x3c225262	0.009907337
167	0x3ca79224	0.020455427
168	0xbd5ce746	-0.053931497
169	0xbc80c4fe	-0.015718933
170	0xba123284	-0.00055769854
171	0x3d8298b8	0.06376785
172	0xb9a02fcc	-0.0003055319
173	0x3cb16648	0.021655217
174	0xbcda9031	-0.026680084
175	0x3d816120	0.06317353
176	0x3c130fb0	0.008975908
177	0x3ce0902a	0.027412493
178	0x3cefa5f3	0.029253935
179	0xbd6d418c	-0.05792384
180	0xbd4f1208	-0.050554305
181	0x3d677c3b	0.05651496
182	0x3d480d0e	0.048840575
183	0x3d1dd378	0.03853175
184	0x3d505930	0.050866306
185	0xbd725080	-0.059158802
186	0xbcdfaf88	-0.02730538
187	0xbd15168c	-0.036398456
188	0xbca2acb6	-0.019857746
189	0x3ce2c91d	0.027683789
190	0x3b527f36	0.003211928
191	0x3a93f888	0.0011289278
192	0x3caac2ea	0.020844895
193	0xbd67eb1e	-0.05662071
194	0xbcaa34c2	-0.02077711
195	0x3d35c2a4	0.044375077
196	0xbc33fa98	-0.010985039
197	0xbd73074a	-0.059333123
198	0xbd4b7ca4	-0.049679413
199	0xbc03257c	-0.008004542
200	0x3c62986e	0.013830287
201	0xbc196708	-0.0093629435
202	0x3d0d3310	0.034472525
203	0x3c9e563e	0.019328233
204	0x3ceebfd0	0.029144198
205	0xbc01a668	-0.0079132095
206	0x3d3dae1c	0.04630862
207	0x3cfdcfb4	0.03098283
208	0xbd14e50e	-0.036351256
209	0x3d7077b8	0.058707923
210	0x3d5c138e	0.053729586
211	0xbd5d0a3e	-0.053964846
212	0xbb58e493	-0.0033095225
213	0x3d6f5b47	0.05843666
214	0x3c843e1d	0.0161429
215	0x3cf632bf	0.030053494
216	0x3d2e2538	0.042515963
217	0xbc04ad98	-0.008098029
218	0xbd4321f2	-0.047639795
219	0xbd38ec40	-0.04514718
220	0x3d5786f4	0.052618936
221	0x3c89e3fc	0.016832344
222	0x3d235404	0.039875045
223	0x3c8199a6	0.015820336
224	0xbc05e51c	-0.0081723
225	0xbcaa9ae4	-0.02082581
226	0xbbea4d9d	-0.0071503655
227	0x3d761b82	0.060084827
228	0xbd12661b	-0.035741907
229	0x3cfd6fde	0.030937131
230	0x3d7a4ccc	0.061108395
231	0xbd413e60	-0.047178626
232	0xbd2bc830	-0.04193896
233	0xbd74231f	-0.059603807
234	0x3ca81877	0.020519478
235	0xbcedb314	-0.029016055
236	0xbce55da4	-0.027998753
237	0xbd6e1a88	-0.05813077
238	0x3bb8501c	0.005624784
239	0x3d712bcc	0.05887966
240	0xbc84ea6d	-0.016225064
241	0xbca14494	-0.01968602
242	0x3ca27d00	0.019834995
243	0x3c7151b0	0.0147289485
244	0x3bb38792	0.0054788077
245	0xbb85bf34	-0.004081631
246	0xbcc674b4	-0.02422557
247	0xbd4587f2	-0.04822535
248	0xbc6c0e00	-0.014407635
249	0x3d42302d	0.047409225
250	0xbd3b4c6a	-0.04572717
251	0x3d7d35bd	0.061818827
252	0x3ceaadc9	0.02864732
253	0x3c7e85e3	0.015534851
254	0x3d783b1a	0.06060324
255	0x3d5d16c0	0.053976774

layer4.bias f4 [10]
0	0x3d69dffa	0.057098366
1	0x3c29e6e7	0.010369993
2	0x3c810192	0.01574782
3	0xbc866ee7	-0.016410304
4	0x3d7d9e48	0.061918527
5	0x3d483bbd	0.048885096
6	0xbcb35503	-0.021891123
7	0x3d572514	0.052525595
8	0xbbc677ce	-0.0060567623
9	0xbd028112	-0.031861372
