target_net.pth (torch, 678637 bytes, 8 tensors)

layer1.weight f4 [256, 135]
0	0x3c0f5b89	0.008749851
1	0x3ca8c1b7	0.020600183
2	0xbd0527fc	-0.032508835
3	0xbcbb28b0	-0.02284655
4	0x3d6da6d4	0.058020428
5	0x3b4a520e	0.0030871662
6	0xbcbe4eaa	-0.02323087
7	0x3caccd50	0.021093994
8	0xbc9f2af8	-0.019429669
9	0x3d4c9d81	0.049954895
10	0xbbf1220f	-0.0073587964
11	0xbdd6a03f	-0.10479783
12	0x3d198898	0.03748378
13	0xbd427a8e	-0.04748016
14	0x3d43ab88	0.047771007
15	0x3d05fa98	0.032709688
16	0x3cc6d76e	0.024272647
17	0xbd1a19c6	-0.037622236
18	0xbd468394	-0.048465326
19	0x3d2bcb56	0.041941963
20	0xbd1eaebd	-0.038740862
21	0xbd1466a2	-0.03623069
22	0xbd010906	-0.031502746
23	0xbd99ad3d	-0.07503746
24	0x3d35e366	0.044406317
25	0x3bbebfc5	0.0058212006
26	0xbda3ee6d	-0.080044605
27	0xbcbe4d1c	-0.023230128
28	0x3d8d5af9	0.06902117
29	0xbd43816a	-0.04773084
30	0xbdad71d6	-0.08468978
31	0x3d46230c	0.048373267
32	0xbcd5513a	-0.026039708
33	0xbc88108e	-0.016609456
34	0x3d89d3dc	0.06729862
35	0xbda43564	-0.08017996
36	0xbd9f7055	-0.077850975
37	0xbd09f62a	-0.033682026
38	0x3d88bf32	0.066770926
39	0x3be58b81	0.0070051556
40	0xbcfe4871	-0.031040402
41	0xbcb721c3	-0.022354966
42	0xbcf426ec	-0.029803716
43	0x3c894185	0.016754875
44	0xbdb20260	-0.08691859
45	0x3c173043	0.009227815
46	0x3d52da60	0.05147779
47	0xbd6c6f0a	-0.057723083
48	0xbc15f31d	-0.009152201
49	0xbb95c686	-0.004570785
50	0xbb955c6a	-0.0045581358
51	0xbd2afddc	-0.041746005
52	0xbd0f4ca0	-0.034985185
53	0x3d11df54	0.035613373
54	0xbd9621d7	-0.07330673
55	0xbd98a7d6	-0.07453887
56	0x3c44b5ba	0.012006218
57	0x3daf7562	0.08567311
58	0x3cceca16	0.025242846
59	0xbc71d789	-0.01476086
60	0x3d0c7edd	0.034300674
61	0xbda32fd6	-0.07968108
62	0x3ceb65ec	0.028735124
63	0xbba09114	-0.004900107
64	0xbcbd5c66	-0.023115348
65	0xbd2d7342	-0.042346247
66	0xbd2bfb72	-0.041987844
67	0xbc849772	-0.016185496
68	0x3d01781e	0.031608693
69	0xbd5a69a0	-0.053323388
70	0xbd3c2a26	-0.045938633
71	0x3daeccb2	0.08535136
72	0x3d0ca707	0.034338977
73	0xbd1eea99	-0.03879795
74	0xbd6edc24	-0.05831541
75	0xbbd25766	-0.00641911
76	0x3d9900da	0.074708655
77	0x3ce5dbc4	0.028058894
78	0xbb9102fa	-0.0044254037
79	0xbd35978c	-0.04433398
80	0xbc8b43dd	-0.017000133
81	0x3c175f86	0.009239083
82	0xbd7e2d51	-0.062054936
83	0xbd9375b0	-0.072001815
84	0xbd91802e	-0.071045265
85	0x3b8d0dbc	0.004304616
86	0x3d9d6a38	0.07686275
87	0xbb6d7858	-0.003623506
88	0xbd478d5a	-0.048718788
89	0x3daf552e	0.085611686
90	0xbcc434a1	-0.023950877
91	0x3d936cfe	0.07198523
92	0x3b90264c	0.0043990966
93	0x3d1bb6e0	0.0380162
94	0xbd98912a	-0.07449563
95	0x3daa77ff	0.08323669
96	0x3caf68fe	0.021412369
97	0xbd283d28	-0.04107395
98	0x3d9a05fd	0.075206734
99	0xbda396c5	-0.079877414
100	0xbda45ec8	-0.080258906
101	0xbc3eb640	-0.0116401315
102	0xbd2c3faa	-0.042052902
103	0x3d9a9a36	0.07548945
104	0x3d7473c4	0.059680715
105	0xbda61159	-0.081087776
106	0x3da69678	0.081341684
107	0x3ba35a7a	0.004985151
108	0xbda1b311	-0.07895482
109	0xbd1f3ca4	-0.03887619
110	0xbd9277bb	-0.07151743
111	0xbaab966a	-0.0013091092
112	0x3d706680	0.0586915
113	0x3d679027	0.05653396
114	0x3cf8da9d	0.03037768
115	0xbd4310c1	-0.0476234
116	0x3cab50da	0.020912576
117	0x3cf8c86c	0.030369006
118	0x3d7cadaa	0.061689056
119	0x3d16ff24	0.036864415
120	0xbd9770f3	-0.0739459
121	0xbc7890bc	-0.015171226
122	0xbd83b610	-0.0643121
123	0xbb900d50	-0.004396118
124	0x3c84413c	0.016144387
125	0xbcbbc2ae	-0.022919979
126	0xbb714322	-0.0036813696
127	0xbd76163f	-0.06007981
128	0x3cb35d4c	0.021895073
129	0xbdf6500e	-0.12026988
130	0xbc81c2b1	-0.015839906
131	0x3d9ac4fc	0.07557103
132	0x3d708636	0.058721744
133	0xbdcc76a4	-0.099835664
134	0x3d398e98	0.045302004
135	0xbd222c76	-0.039593183
136	0x3da368ac	0.07978949
137	0x3c35e235	0.011101295
138	0x3d382927	0.04496112
139	0x3d4415c2	0.047872312
140	0x3d19fefd	0.03759669
141	0xbcdd7c99	-0.027036952
142	0x3d6b3474	0.05742307
143	0xbd2cba65	-0.042169947
144	0xbd979abc	-0.0740256
145	0xbcfb9b0e	-0.030713584
146	0x3b089bca	0.002084481
147	0x3d83ae60	0.06429744
148	0xbd82169e	-0.0635197
149	0x3d97ce06	0.07412343
150	0x3d941cea	0.072320774
151	0x3da14e2c	0.07876238
152	0xbca9d275	-0.020730237
153	0x3d86b426	0.06577329
154	0xbdab122b	-0.08353075
155	0xbce47a50	-0.027890354
156	0xbd4b9500	-0.049702644
157	0xbbfc801e	-0.0077057024
158	0x3d8653a0	0.06558919
159	0x3d8f224c	0.069889635
160	0x3c2c305d	0.010509578
161	0x3da1541c	0.07877371
162	0xbd2d02b3	-0.042238902
163	0xbd83fc72	-0.064446345
164	0x3c3c0b1e	0.01147726
165	0xbd4b174b	-0.04958276
166	0xbd42e09d	-0.04757749
167	0xbd1c3e8c	-0.038145587
168	0xbd79f5bb	-0.061025362
169	0x3d6975b4	0.056997016
170	0xbd32a8c2	-0.04361797
171	0x3d6e3a4a	0.058161058
172	0xbc451bbd	-0.012030539
173	0xbd4cb3e4	-0.049976245
174	0xbd0a275e	-0.03372895
175	0xbd96843b	-0.0734944
176	0x3dadd6b6	0.084882185
177	0x3bb651cc	0.00556395
178	0xbd57361e	-0.052541845
179	0x3d469206	0.048479103
180	0x3d265699	0.04060993
181	0x3d64743c	0.055774912
182	0x3d3f9229	0.04677025
183	0xbda96abe	-0.082723126
184	0x3be82972	0.007085019
185	0x3d2fd4cc	0.04292755
186	0xbd5bf661	-0.053701762
187	0x3d648101	0.05578709
188	0x3c0a6f5d	0.008449403
189	0x3d98e544	0.07465604
190	0x3d8b641c	0.06806204
191	0xbd3f8a33	-0.046762656
192	0x3d9fd4da	0.0780427
193	0xbda0d4ec	-0.078531116
194	0xbc87a475	-0.016557911
195	0xbd129f7a	-0.03579662
196	0x3d334790	0.04376942
197	0xbd55475c	-0.052070007
198	0xbd9b5d02	-0.07586099
199	0xbd3b130e	-0.04567247
200	0xbd8290e6	-0.063752934
201	0x3d81eeee	0.063444
202	0x3d211b04	0.039332405
203	0x3dae6e84	0.08517173
204	0xba0ea922	-0.0005442073
205	0x3dab1080	0.083527565
206	0xbd117822	-0.03551496
207	0x3c845d1d	0.016157681
208	0x3ca735e0	0.020411432
209	0xbd7a0b95	-0.0610462
210	0x3d63382d	0.055473495
211	0x3d083c6a	0.03326074
212	0x3ccd3cfa	0.02505349
213	0xbd87d6bf	-0.066327564
214	0x3bd7bc28	0.0065837093
215	0x3d434380	0.047671795
216	0x3b96d562	0.004603074
217	0x3d77697e	0.06040334
218	0xbcbf8fcb	-0.023383996
219	0xbcc6320e	-0.02419379
220	0xbd07f7eb	-0.033195417
221	0x3ba7a4fc	0.005116103
222	0x3beb55ae	0.0071818447
223	0x3c8ca5a9	0.017168837
224	0x3c9c1d5c	0.019056968
225	0x3c88d609	0.016703622
226	0xbd5fac9d	-0.054607976
227	0x3d815213	0.063144825
228	0x3da31a14	0.079639584
229	0xbd24eecc	-0.040266797
230	0x3d5899fe	0.052881233
231	0x3d93804e	0.072022066
232	0x3dac7d96	0.08422391
233	0x3d5a61f6	0.05331608
234	0xbca3f694	-0.020015039
235	0xbce59336	-0.028024297
236	0x3d88c4c4	0.06678155
237	0x3d8bd88e	0.06828414
238	0x3d563d92	0.05230481
239	0x3d96e909	0.07368667
240	0x3cfd0841	0.030887725
241	0x3c722530	0.014779374
242	0x3d08e8b3	0.033425044
243	0xbd8b9ad6	-0.06816642
244	0xbd1157b8	-0.035484046
245	0x3d9a53ef	0.0753554
246	0x3b4621a8	0.0030232463
247	0x3c4fd3c2	0.012684764
248	0xbd3e07e7	-0.046394255
249	0x3d15c6d8	0.036566585
250	0xbd311552	-0.043233223
251	0xbcbe3021	-0.023216309
252	0x3d08545a	0.03328357
253	0xbda85a5c	-0.0822036
254	0x3cb4b0a4	0.022056885
255	0xbda18a36	-0.0788769

layer1.bias f4 [256]
0	0x3c945abd	0.018109674
1	0xbd6012f0	-0.05470556
2	0x3cc7dd10	0.024397403
3	0x3d466a28	0.048441082
4	0x3b2a8620	0.0026019886
5	0x3dbffbd5	0.09374205
6	0xbcbcf341	-0.023065211
7	0x3d752d0e	0.05985742
8	0xbcf08f28	-0.029365137
9	0x3d1d7a96	0.038446985
10	0x3d865132	0.065584555
11	0x3d6d588c	0.057945773
12	0x3c3fbfcf	0.011703446
13	0xbd76e3ee	-0.060275964
14	0xbd59b913	-0.053155016
15	0x3d9bf16e	0.076144084
16	0xbd577258	-0.05259928
17	0xbd2f5f54	-0.04281552
18	0x3d591637	0.0529997
19	0xbd6eb3e8	-0.05827704
20	0xbcc1c01c	-0.023651175
21	0x3c91faac	0.017819725
22	0xbccad7fe	-0.024761196
23	0x3c6653e2	0.014058085
24	0x3d975ae0	0.0739038
25	0x3c737ede	0.01486179
26	0xbc680a44	-0.014162604
27	0x3d1bf527	0.038075592
28	0xbd98838e	-0.07446967
29	0xbd92b778	-0.071639
30	0xbd294ee6	-0.04133501
31	0x3b9e1fd0	0.0048255697
32	0x3d0ed977	0.03487536
33	0x3d002818	0.031288236
34	0xbc149ed0	-0.009071067
35	0x3c5577d0	0.013029054
36	0x3d86ec54	0.06588045
37	0xbdad6e68	-0.08468324
38	0xbd9a4f16	-0.07534616
39	0xbb23b451	-0.0024979303
40	0x3d914146	0.07092528
41	0xbd730912	-0.059334822
42	0x3d2632b2	0.04057569
43	0xbd849e30	-0.06475484
44	0x3d981614	0.07426086
45	0x3d761675	0.06008001
46	0xbcd8ea91	-0.026479037
47	0xbd6da11e	-0.05801498
48	0x3d25694a	0.040383615
49	0xbcccbd96	-0.024992745
50	0xbd9dffab	-0.077147804
51	0xbb6a172c	-0.0035719378
52	0x3cee02c4	0.029054053
53	0x3d005eba	0.03134034
54	0x3cfe719c	0.031060033
55	0x3d481317	0.04884633
56	0x3bb0a726	0.0053910194
57	0x3cb804b2	0.022463176
58	0xbd920068	-0.07128984
59	0x3d9772a8	0.07394916
60	0x3d70b83e	0.058769457
61	0x3d717a4a	0.058954515
62	0x3d45af87	0.0482631
63	0x3d86edcc	0.06588325
64	0x3d427304	0.04747297
65	0x3d7ce21e	0.06173908
66	0x3c1e2224	0.009651694
67	0xbd3fb2ee	-0.0468015
68	0xbc65b2c9	-0.0140196765
69	0xbd3238d4	-0.043511227
70	0x3d406d4d	0.046979237
71	0x3d57cf6d	0.05268805
72	0x3d5e89b4	0.054330543
73	0xbda19f9a	-0.0789177
74	0xbcc7e624	-0.024401732
75	0x3cfe0ee9	0.03101297
76	0x3d368fce	0.044570737
77	0xbd9d55df	-0.07682394
78	0xbadc5976	-0.0016811329
79	0x3d88a31c	0.06671736
80	0x3da77b5c	0.08177826
81	0xbd08a824	-0.033363476
82	0x3dc8b790	0.09800637
83	0x3d353642	0.044241197
84	0x3cb2fa84	0.02184797
85	0xbbf7b196	-0.0075590117
86	0xbd240f0e	-0.04005342
87	0xbd315102	-0.043290146
88	0xbd1bab2e	-0.038005047
89	0xbd82adbc	-0.063807935
90	0x3ce4a35e	0.02790993
91	0xbdadff8b	-0.084960066
92	0x3dac2160	0.08404803
93	0x3c5cec5a	0.013484085
94	0x3d6c70d8	0.057724804
95	0x3cbf49a2	0.02335054
96	0xbd32f5fa	-0.043691613
97	0xbd2efc6e	-0.042721204
98	0xbd0a7836	-0.03380605
99	0x3d3eac79	0.0465512
100	0x3d4b8fe4	0.04969777
101	0x3d58bba4	0.052913323
102	0xbd35c522	-0.044377454
103	0xbd8ec014	-0.0697023
104	0xbcb6409c	-0.022247605
105	0x3d419e09	0.047269855
106	0x3d3bc434	0.04584141
107	0xbda4e872	-0.08052148
108	0x3cf17fe0	0.02947992
109	0xbd8ac4ba	-0.06775804
110	0x3d56e2a2	0.052462228
111	0x3d9d1e88	0.07671839
112	0xbd8f9b32	-0.07012023
113	0x3d241472	0.04005856
114	0x3d5644d8	0.05231175
115	0xbd9b951a	-0.07596798
116	0x3d1d18a9	0.038353596
117	0x3d629f8e	0.055327944
118	0xbdc08740	-0.09400797
119	0xbd69d8ee	-0.057091646
120	0x3d579c10	0.052639067
121	0x3d9de25b	0.077091895
122	0xbaf4238e	-0.0018626319
123	0x3d25b42a	0.04045502
124	0xbd0c9d3f	-0.03432965
125	0x3c878e77	0.016547425
126	0xbd90bd96	-0.07067411
127	0xbda59a93	-0.08086123
128	0x3d50d652	0.05098564
129	0x3da9f336	0.08298342
130	0x3cb1bfa7	0.021697832
131	0xbd001a9a	-0.03127537
132	0x3d65c354	0.056094483
133	0x3d1bde12	0.03805358
134	0x3d97d667	0.07413941
135	0x3da4415a	0.08020277
136	0x3d99a05c	0.07501289
137	0xbdaa44b4	-0.08313885
138	0xbda1e64c	-0.07905254
139	0xbd908d64	-0.07058218
140	0xbda09195	-0.078402676
141	0xbd18f798	-0.0373455
142	0x3d643011	0.055709902
143	0xbb18f224	-0.0023337686
144	0x3c77e21d	0.015129593
145	0x3d67d2e2	0.056597598
146	0x3c0032e4	0.007824633
147	0xbd1e8492	-0.038700648
148	0x3c44891b	0.011995579
149	0x3d399a10	0.04531294
150	0x3cf17766	0.029475879
151	0x3d472f2a	0.048628964
152	0x3d9fd03a	0.07803388
153	0xbce713c2	-0.028207663
154	0x3d345f8e	0.04403644
155	0x3d8ec248	0.0697065
156	0xbd884a22	-0.06654765
157	0x3b98b16c	0.004659822
158	0x3d78a8c8	0.060707837
159	0x3ca0f20c	0.019646667
160	0xbd224cdb	-0.039624076
161	0x3d0d4748	0.034491807
162	0xbcbb213c	-0.022842996
163	0xbd248b3a	-0.04017184
164	0x3d58b4f8	0.05290696
165	0x3dac6c52	0.08419098
166	0xbd2f12ee	-0.042742662
167	0x3d9d3cc8	0.07677609
168	0xbce53b73	-0.02798245
169	0x3c96777b	0.01836752
170	0x3d79690a	0.06089119
171	0x3d369c51	0.04458267
172	0xbd19691f	-0.037453767
173	0xbcf079ca	-0.029354949
174	0xbda154ca	-0.078775
175	0xbd927f44	-0.0715318
176	0xbd9ceb28	-0.0766204
177	0xbc5d7d8e	-0.013518704
178	0x3ce728d7	0.028217716
179	0xbd862912	-0.06550802
180	0xbc8f312e	-0.017479505
181	0x3d794e3e	0.060865633
182	0x3d224f93	0.03962667
183	0xbd9453ee	-0.07242571
184	0x3dc19579	0.09452338
185	0x3d6e2fc6	0.05815103
186	0x3cb35d6d	0.021895135
187	0x3c9ee51e	0.019396361
188	0x3daeb49c	0.08530542
189	0x3d151c32	0.036403842
190	0xbd1aa269	-0.037752543
191	0xbc3c0e04	-0.011477951
192	0x3cb8b868	0.02254887
193	0x3ce56922	0.028004233
194	0x3da34e30	0.079738975
195	0xbca20daa	-0.019781906
196	0xbcd5f870	-0.02611944
197	0x3d822b23	0.06355884
198	0xbd51944c	-0.051166818
199	0x3ce611d2	0.02808467
200	0xbc53bcb2	-0.012923406
201	0x3d4a824f	0.04944068
202	0x3c459afa	0.012060875
203	0x3d7b55be	0.061361067
204	0x3db939cb	0.09044226
205	0x3d97e01f	0.074157946
206	0xbd4ae5d6	-0.049535595
207	0x3d62b4c4	0.055348173
208	0xbdad9360	-0.08475375
209	0x3c0dc90f	0.008653893
210	0xbd8d883b	-0.069107495
211	0xbd5bb6bc	-0.053641066
212	0x3d52f7b2	0.051505752
213	0xbd7bf498	-0.06151256
214	0x3cea1fe6	0.028579663
215	0xbd186838	-0.037208766
216	0xbccf2178	-0.025284514
217	0xbd13a75c	-0.03604828
218	0xbdaf243e	-0.085518345
219	0x3c71fb1a	0.01476934
220	0x3dad0172	0.08447541
221	0x3d7e0854	0.06201966
222	0xbd620b6b	-0.05518667
223	0x3d39b951	0.045342747
224	0xbda97be6	-0.08275585
225	0xbcafc684	-0.021456964
226	0xbd6c76b8	-0.057730407
227	0xbd8a04c7	-0.067391925
228	0x3cf01046	0.029304635
229	0xbb789679	-0.0037931486
230	0x3d4a620e	0.04940992
231	0x3d5d2881	0.053993706
232	0x3c0e0c29	0.008669891
233	0x3c6c2528	0.014413156
234	0x3db37d4a	0.08764131
235	0xbcff14ce	-0.03113785
236	0x3d96a551	0.0735575
237	0xbd3ae8d3	-0.045632195
238	0x3d56ae0b	0.052412074
239	0xbcdf2cd6	-0.02724306
240	0x3c8cc0aa	0.017181713
241	0xbd854e3a	-0.06509061
242	0xbd9fc173	-0.078005694
243	0x3db5d014	0.088775784
244	0x3d1aba39	0.037775252
245	0x3bbe9c84	0.005816998
246	0x3d5f3123	0.05449022
247	0xbcd18bc4	-0.02557934
248	0x3da1fce0	0.0790956
249	0x3d914be9	0.07094557
250	0x3d9d6714	0.07685676
251	0x3da54272	0.08069314
252	0x3d27aaee	0.040934496
253	0xbd6e3613	-0.058157038
254	0xbd860325	-0.065435685
255	0xbcbf7710	-0.023372203

layer2.weight f4 [256, 256]
0	0x3d0d6296	0.034517847
1	0xbc15918a	-0.0091289375
2	0xbca5a949	-0.020222323
3	0x3d849f72	0.06475724
4	0xbd93a1aa	-0.07208569
5	0x3d58c86f	0.052925523
6	0x3d608ea2	0.054823525
7	0x3d35c430	0.044376552
8	0x3c21932a	0.009861747
9	0xbb0fbef5	-0.0021933888
10	0xbd49bb38	-0.04925081
11	0x3a88f1d0	0.0010448042
12	0x3d794314	0.060854986
13	0x3bbfb4b2	0.005850398
14	0x3d5763b8	0.052585334
15	0xbd3de3b0	-0.046359718
16	0x3d760678	0.060064763
17	0x3b94dc34	0.004542852
18	0x3b50d30c	0.0031864075
19	0x3c22f486	0.009945994
20	0xbc8332c2	-0.016015414
21	0x3c74afe3	0.014934513
22	0x3d7b5364	0.061358824
23	0xbc8b56a6	-0.01700909
24	0x3cc8fe8c	0.02453544
25	0x3ba19c89	0.0049319905
26	0x3a1be06c	0.0005946222
27	0x3d98123e	0.074253544
28	0xbd158f5f	-0.036513682
29	0x3d8e0714	0.06934944
30	0x3d187a0f	0.03722578
31	0x3d15ec99	0.03660259
32	0xbd45425a	-0.04815898
33	0x3d47da76	0.048792325
34	0xbd36cae2	-0.044627078
35	0x3c9805f0	0.018557519
36	0x3cf0b9a0	0.029385388
37	0x3c4719b2	0.012152122
38	0x3bda8bb6	0.006669487
39	0xbda0f2fc	-0.078588456
40	0xbd3afe2a	-0.045652546
41	0xbc0e0c7d	-0.00866997
42	0xbd80d998	-0.06291503
43	0x3cd1c1e8	0.025605157
44	0x3aa01b15	0.0012215102
45	0xbb19513f	-0.0023394374
46	0xbd3f7052	-0.046737976
47	0xbcc1dac6	-0.02366389
48	0xbd2ccb44	-0.042186037
49	0x3b9ca7fc	0.0047807675
50	0xbd58a4f0	-0.05289167
51	0x3d645a06	0.055749916
52	0x3ca9389a	0.020656873
53	0xbd14aa08	-0.036294967
54	0x3d99027e	0.074711785
55	0x3d1d30fe	0.0383768
56	0xbd8413ac	-0.064490646
57	0xbc92d6ac	-0.01792463
58	0x3d25b568	0.040456206
59	0xbc22886e	-0.009920223
60	0xbbd73448	-0.0065675117
61	0x3d82871d	0.06373427
62	0xbd32ac30	-0.043621242
63	0x3b2db690	0.002650652
64	0x3cac76d4	0.021052755
65	0x3de1ff19	0.11034984
66	0xbc25c00e	-0.01011659
67	0xbd5ea214	-0.05435379
68	0x3d5938f6	0.053032838
69	0x3c9999e2	0.018750135
70	0xbd7d169a	-0.061789133
71	0x3d46142e	0.04835909
72	0xbc2333f6	-0.009961119
73	0xbcf0c024	-0.029388495
74	0xbd437456	-0.04771837
75	0x3d70e67c	0.058813557
76	0x3d5404c7	0.05176237
77	0xbd39763e	-0.04527878
78	0x3bbc6d12	0.005750307
79	0x3c53dbc0	0.01293081
80	0x3b1ed4f7	0.0024235824
81	0xbd2d4328	-0.042300373
82	0x3d2fadb5	0.04289027
83	0xbd175df2	-0.036954828
84	0x3ceb581c	0.028728537
85	0xbcdd7676	-0.027034026
86	0x3d0e9a21	0.034814958
87	0xbd1ae262	-0.03781355
88	0x3d5a78ba	0.05333779
89	0x3c86b718	0.016444728
90	0xbd467462	-0.048450835
91	0xbd2ae161	-0.041718844
92	0xbd54265c	-0.051794395
93	0x3cf065e4	0.02934546
94	0xbc5320fc	-0.012886282
95	0xbc8b7546	-0.017023694
96	0x3d02567f	0.03182077
97	0x3d5bb638	0.053640574
98	0x3d77ae50	0.06046897
99	0xbc606d7f	-0.013697981
100	0x3d142e16	0.036176763
101	0x3c8fd8e8	0.017559484
102	0xbcf414c6	-0.029795062
103	0xbcebfbfc	-0.028806679
104	0x3d890fac	0.06692442
105	0xbbb40e38	-0.005494859
106	0x3d94b648	0.0726133
107	0x3d60b084	0.05485584
108	0xbd68927c	-0.056780323
109	0x3c929e66	0.017897796
110	0x3d6a3dfe	0.057188027
111	0xbd1e1a06	-0.038599037
112	0x3c8fb358	0.017541572
113	0xbc9c6efa	-0.019095886
114	0xbca2175a	-0.019786526
115	0xbd7dba9a	-0.061945535
116	0x3d5f01b8	0.054445
117	0x3d281041	0.041031126
118	0x3cfae373	0.030626034
119	0x3ccd8432	0.02508745
120	0xbcaf0910	-0.021366626
121	0x3dab06e9	0.083509274
122	0xbcf8976d	-0.030345643
123	0xbda0311a	-0.078218654
124	0xbd303d10	-0.043026984
125	0xbd1513fa	-0.036396004
126	0xbcb0d7f0	-0.021587342
127	0x3d81f9ee	0.063464984
128	0xbd82a68c	-0.063794225
129	0xbd355ef6	-0.044280015
130	0xbc08637b	-0.008324499
131	0x3d303720	0.04302132
132	0x3d8f0480	0.0698328
133	0x3d1e80c5	0.038697023
134	0xbc8aa7c8	-0.016925707
135	0xbd257ea2	-0.04040397
136	0x3c90a2e0	0.01765579
137	0xbd554576	-0.052068196
138	0x3b080a33	0.0020758032
139	0xbd3aac9c	-0.04557477
140	0x3d379b5e	0.044825904
141	0xbd6972f0	-0.05699438
142	0x3cc0131d	0.023446614
143	0xbc72e270	-0.014824495
144	0x3d05bf44	0.03265311
145	0x3dac291a	0.08406277
146	0x3c70933d	0.014683542
147	0x3bf1c6e4	0.007378446
148	0x3d0308c4	0.03199078
149	0xbcaa3942	-0.020779256
150	0x3ba95c0e	0.0051684445
151	0xbc85b4f6	-0.01632164
152	0x3cdb7208	0.026787773
153	0xbce0bb91	-0.027433189
154	0xbd8ebe20	-0.06969857
155	0x3d1a96e1	0.037741546
156	0xbc9cd63a	-0.01914512
157	0x3d11bab4	0.035578445
158	0xbddd78c6	-0.10814051
159	0xbd2f51b6	-0.042802535
160	0xbd215dba	-0.039396025
161	0xbd0ad774	-0.03389688
162	0x3d0cd44a	0.034382142
163	0xbd0ce2d8	-0.034396023
164	0x3c5d2912	0.013498561
165	0xbd3521dc	-0.044221744
166	0x3b55e83a	0.0032639639
167	0x3cc53848	0.024074689
168	0x3d25258c	0.04031901
169	0xbd48cd40	-0.049023867
170	0xbd44fb80	-0.04809141
171	0x3c266abd	0.010157284
172	0x3ce21078	0.027595744
173	0x3d89c893	0.067277096
174	0xbd14d8ae	-0.036339454
175	0xbc2805f6	-0.010255327
176	0x3d78b12c	0.06071584
177	0x3d05aa48	0.032633096
178	0xbd69250c	-0.056920096
179	0x3ce468de	0.027882036
180	0xbd56b17f	-0.052415367
181	0x3a56fd57	0.0008201203
182	0xbd7aa223	-0.061189782
183	0x3c3d3732	0.011548804
184	0xbd2c10fa	-0.042008378
185	0x3d11c99b	0.035592657
186	0x3c97f8ae	0.018551197
187	0x3d901b72	0.07036485
188	0xbbfc4ca6	-0.007699567
189	0xbd452e62	-0.048139937
190	0xbcb3a053	-0.021927034
191	0x3d24b2cc	0.040209576
192	0x3d56e9da	0.052469112
193	0x3cd64c12	0.02615932
194	0x3d615710	0.05501467
195	0xbcc85a30	-0.024457067
196	0x3ce58ab4	0.02802024
197	0x3d99e5ba	0.0751452
198	0xbb085332	-0.0020801541
199	0xbc67807d	-0.014129755
200	0xbcf46b54	-0.029836334
201	0x3d8471df	0.06467032
202	0xbc2357d1	-0.0099696675
203	0xbcadf034	-0.021232702
204	0xbd3e25d2	-0.046422787
205	0xbd211d06	-0.03933432
206	0xbd816571	-0.063181765
207	0x3d47b3fa	0.048755623
208	0xbbb424ca	-0.0054975497
209	0x3c8853ae	0.016641464
210	0x3cf5c2f2	0.030000184
211	0xbd02bb3a	-0.031916834
212	0xbc80604d	-0.01567092
213	0x3d12241e	0.035678975
214	0x3d7ea372	0.062167592
215	0x3d38e7b8	0.04514286
216	0x3dc781e6	0.09741573
217	0x3c1d118c	0.009586703
218	0x3d55dc30	0.05221194
219	0xbd566b6a	-0.05234853
220	0x3b421dbc	0.0029619774
221	0xbd1f78e2	-0.038933642
222	0xbc04f85a	-0.008115852
223	0xbd7094f0	-0.058735788
224	0xbc9b9e32	-0.018996332
225	0x3dfc01ed	0.12305055
226	0x3d26a91c	0.04068862
227	0xbcf3acf0	-0.029745549
228	0x3d2c74fa	0.042103745
229	0x3c8bcb4c	0.017064713
230	0x3d92868e	0.071545705
231	0xbd948a56	-0.07252948
232	0xbd2ca501	-0.042149547
233	0xbcb021c3	-0.021500474
234	0xbd498d4e	-0.049207024
235	0xbc3a53b2	-0.011372494
236	0xbc459bdf	-0.012061088
237	0xbd59be80	-0.05316019
238	0xbc834664	-0.016024776
239	0xbc231952	-0.009954767
240	0xbd4b5d32	-0.049649425
241	0x3c9b6839	0.018970596
242	0x3c84bfd0	0.016204745
243	0x3d6bb85a	0.05754886
244	0xbd70b454	-0.058765724
245	0xbbc62c4e	-0.006047762
246	0xbd7ac60e	-0.061224036
247	0x3d389e6c	0.045072958
248	0xbd0a9daa	-0.033841766
249	0xbc9fd09a	-0.019508649
250	0xbd3eafbf	-0.046554323
251	0x3cc4d3f6	0.024026852
252	0xbd8112b4	-0.063023955
253	0x3c73b82e	0.014875455
254	0x3c034182	0.008011224
255	0x3d653828	0.055961758

layer2.bias f4 [256]
0	0xbc2c271b	-0.01050737
1	0xbce298ad	-0.027660692
2	0x3c1be2ea	0.00951455
3	0x3adcf8a8	0.0016858773
4	0xbcf34960	-0.029698074
5	0xbd5a5df6	-0.053312264
6	0xbcca167a	-0.02466892
7	0xbcc749dc	-0.024327211
8	0x3c98c790	0.018649846
9	0xba18055a	-0.0005799137
10	0x3d589001	0.052871708
11	0xbcdce6b8	-0.026965484
12	0x3d6aa9ae	0.057290725
13	0xbcafc6b7	-0.02145706
14	0xbd4af7e6	-0.04955282
15	0xbd2d137b	-0.042254906
16	0x3b87d4aa	0.0041452246
17	0x3d21b862	0.03948248
18	0x3d47e6ee	0.048804216
19	0xbd8195b6	-0.06327383
20	0x3c7b5b0a	0.01534153
21	0xbc36082c	-0.011110347
22	0xbd57f6d8	-0.052725643
23	0x3d47cc7a	0.04877899
24	0x3d37816a	0.044801153
25	0xbc8abe55	-0.01693646
26	0x3c877652	0.016535912
27	0xbc5fd0ed	-0.013660652
28	0x3d4314bc	0.047627196
29	0x3c75f048	0.015010901
30	0xbcb39f83	-0.021926647
31	0x3c2497be	0.010045944
32	0xbc52572c	-0.012838166
33	0x3b6482a6	0.0034867912
34	0xbd417ec8	-0.04724005
35	0x3ccdb870	0.02511236
36	0xbce0990a	-0.027416725
37	0x3cd9c28c	0.026582025
38	0x3d770981	0.060311798
39	0xbd122802	-0.035682686
40	0xbcbd7d9e	-0.023131188
41	0x3cca99af	0.024731485
42	0xbd403ea4	-0.04693474
43	0x3d819244	0.06326726
44	0xbcd5fa09	-0.026120203
45	0x3d28348c	0.041065738
46	0xbcb339a2	-0.021878067
47	0xbbe7ada1	-0.0070702587
48	0x3cdd0dcf	0.026984124
49	0x3d227232	0.039659686
50	0x3d30d5ba	0.043172576
51	0xbcc8f2ba	-0.024529804
52	0xbbb68418	-0.005569946
53	0x3c0ab7b3	0.008466649
54	0x3b119c7a	0.0022218511
55	0x3c810984	0.015751608
56	0x3d1cef9c	0.038314447
57	0x3d6c4dbe	0.05769133
58	0xbcec60e3	-0.028854793
59	0x3c7a13a2	0.01526347
60	0xbcfd884c	-0.03094878
61	0x3bc95d8e	0.006145186
62	0x3c27846a	0.010224441
63	0xbd2899a0	-0.041162133
64	0xbd06a0ec	-0.03286831
65	0x3d771284	0.060320392
66	0x3d8ced24	0.068811685
67	0x3970b9ec	0.00022957445
68	0x3cddd99f	0.027081309
69	0x3d3019f1	0.04299349
70	0xbca85502	-0.020548347
71	0x3d76e7e0	0.060279727
72	0x3d434d58	0.047681183
73	0x3d5b57e6	0.053550623
74	0x3d3159a6	0.043298386
75	0xbcd74dee	-0.026282277
76	0x3d05270c	0.03250794
77	0xbd4ab202	-0.049486168
78	0xbd103106	-0.035203002
79	0x3d55459f	0.05206835
80	0xbcd00e6c	-0.025397502
81	0xbba74783	-0.0051049604
82	0xbc635300	-0.013874769
83	0x3c60bda3	0.013717088
84	0xbcbb938c	-0.022897504
85	0x3cf693d4	0.030099787
86	0xbb412bb2	-0.0029475507
87	0xbd1d65a2	-0.038427003
88	0xbd6e79c0	-0.05822158
89	0x3ca705da	0.020388532
90	0x3b7cefce	0.0038595083
91	0xbd290954	-0.04126866
92	0xbd4f37ce	-0.05059033
93	0x3d2a02d6	0.04150661
94	0x3d509890	0.050926745
95	0xbd50072a	-0.050788082
96	0x3bc8c771	0.006127291
97	0x3a818e98	0.0009884415
98	0x3d7dccce	0.061962895
99	0x3a4e42ec	0.00078682485
100	0x3d64f560	0.05589807
101	0x3c7b2fb2	0.015331196
102	0xbd045c6e	-0.03231471
103	0xbd80a941	-0.062822826
104	0x3ceb0e4a	0.028693337
105	0xbc6c1830	-0.014410064
106	0xbd436dcb	-0.04771213
107	0x3cabb4d1	0.020960243
108	0x3a8d9fe0	0.0010805093
109	0x3d1b0c60	0.0378536
110	0x3d2d4f23	0.0423118
111	0x3cbb0830	0.022831053
112	0x3cabcf99	0.020973014
113	0x3d0ae0ec	0.03390591
114	0xbd598b64	-0.05311145
115	0x3cd0d8e8	0.025494054
116	0xbcc38e1f	-0.02387148
117	0x3c1d0390	0.009583369
118	0xbd12d032	-0.03584308
119	0xbcc2be66	-0.02377243
120	0xbccceee2	-0.025016252
121	0x3cae4187	0.02127148
122	0x3ce70b9c	0.028203778
123	0x3ca11d5c	0.01966732
124	0x3d3224ba	0.043492056
125	0x3cc09aec	0.023511373
126	0x3bd9d81c	0.0066480767
127	0x3d3dc054	0.046325997
128	0x3d656840	0.056007624
129	0xbd02fdc4	-0.03198029
130	0x3d801c6e	0.062554225
131	0x3c838f3e	0.016059514
132	0xbc81d47d	-0.015848393
133	0x3d5c94ac	0.053852722
134	0x3d4961fd	0.049165715
135	0x3d8181aa	0.063235596
136	0xbba125f9	-0.004917857
137	0xbc60904a	-0.013706276
138	0x3d8af513	0.067850254
139	0xbc7a057a	-0.015260095
140	0xbd7d067c	-0.061773762
141	0x3d8971d2	0.067111626
142	0xbc00cb5e	-0.0078609865
143	0x3c9f4ea8	0.019446686
144	0xbd31eb4c	-0.043437287
145	0x3d0bb284	0.034105793
146	0xbd3cab0a	-0.046061553
147	0x3d0c0446	0.034183763
148	0x3d3c2628	0.045934826
149	0xbd3663a4	-0.04452862
150	0x3d6685ec	0.05628006
151	0x3b6dd518	0.0036290344
152	0xbc8ca49e	-0.01716834
153	0xbca516b4	-0.020152427
154	0xbaf82d5a	-0.0018934414
155	0x3d069ac8	0.032862455
156	0x3b48a878	0.0030617993
157	0xbc8e8f8f	-0.017402438
158	0x3bf158b6	0.0073653115
159	0x3d34692e	0.04404562
160	0xbd209602	-0.03920556
161	0x3cc4d620	0.024027884
162	0x3bf3a2ad	0.007435164
163	0xbd007be6	-0.03136816
164	0xbcc2325f	-0.02370566
165	0xbcb51b4d	-0.022107745
166	0xbb8c2e7a	-0.0042780014
167	0x3d4854a9	0.048908863
168	0x3c748eaa	0.014926592
169	0xb83bb896	-4.4756183e-05
170	0xbcf793c8	-0.030221835
171	0xbd5822fc	-0.05276774
172	0x3d696f34	0.056990817
173	0x3adaf61b	0.0016705425
174	0x3d5cd1da	0.053911068
175	0xbd447bc2	-0.047969587
176	0x3d46202d	0.04837053
177	0x3cec29c8	0.028828517
178	0xbd48eb08	-0.04905227
179	0x3c6b2d0c	0.014354002
180	0xbd65924d	-0.056047726
181	0xbccd155c	-0.025034599
182	0xbd441698	-0.04787311
183	0x3c238d4d	0.009982419
184	0x3d6bb11c	0.05754195
185	0x3d5e08be	0.054207556
186	0x3d408660	0.04700315
187	0x3ae3ac0e	0.0017370002
188	0x3bcdc09c	0.0062790643
189	0x3d041fec	0.032257006
190	0x3c36c760	0.011155933
191	0xbcd89c06	-0.026441585
192	0xbc0155c0	-0.00789398
193	0x3be5dd0e	0.007014877
194	0x3d2bca70	0.041941106
195	0xb83d85d2	-4.518574e-05
196	0xbccd4750	-0.025058419
197	0x3cf06cba	0.02934872
198	0x3cb5f37c	0.022210829
199	0xbcb5ab10	-0.022176296
200	0xbca22e5a	-0.019797493
201	0x3d407894	0.046989992
202	0xbd0312a6	-0.032000206
203	0xbaa2271e	-0.0012371277
204	0xbcad6929	-0.021168308
205	0x3ca8386a	0.020534713
206	0x3d5ceee7	0.053938773
207	0x3d429c78	0.0475125
208	0xbd55c386	-0.05218842
209	0xbccac66a	-0.024752814
210	0x3ca8a230	0.02058515
211	0x3d64abb7	0.055827823
212	0x3bcbd614	0.0062205885
213	0xbd85a416	-0.065254375
214	0x3d3a95e0	0.04555309
215	0xbc3e298e	-0.011606587
216	0xbc47c0f2	-0.012191998
217	0xbd161bea	-0.036647715
218	0xbd1c8562	-0.03821314
219	0x3c3671cf	0.0111355325
220	0xbd0bc197	-0.03412017
221	0xbc4b450f	-0.012406602
222	0x3cf583d0	0.02997008
223	0xbd7f7bef	-0.06237405
224	0x3d76c84e	0.06024962
225	0xbd2929e9	-0.041299734
226	0xbc609178	-0.013706557
227	0xbbe492bc	-0.0069755
228	0xbd750b36	-0.059825145
229	0x3c8e6488	0.017381921
230	0xbd30d0fe	-0.04316806
231	0x3c8b2609	0.01698591
232	0xbc56e7f3	-0.013116824
233	0xbc8bde36	-0.017073732
234	0x3d5e47c4	0.05426766
235	0x3b7e2238	0.003877772
236	0x3d74c9df	0.05976283
237	0x3d83e12d	0.06439433
238	0xbc51c79e	-0.01280394
239	0x3d6486ae	0.055792503
240	0x3c756db0	0.014979765
241	0x3d22cd7a	0.03974674
242	0xbc8869a0	-0.016651928
243	0xbba50aae	-0.0050366735
244	0xbd433d56	-0.047665916
245	0xbcb5a864	-0.022175021
246	0x3d350cf0	0.04420179
247	0xbd541e20	-0.051786542
248	0x3d5d788d	0.054070044
249	0x3caca4ec	0.021074735
250	0xbd458cfd	-0.04823016
251	0xbc6009e9	-0.013674238
252	0xbd3440fe	-0.044007294
253	0x3d803c52	0.06261505
254	0xbcf4fca7	-0.02990563
255	0x3cdd0e2a	0.026984293

layer3.weight f4 [256, 256]
0	0xbd187fb9	-0.03723118
1	0xbd5d14a9	-0.05397478
2	0x3d61ef1a	0.055159666
3	0x3cf38537	0.029726608
4	0x3d62d0f6	0.055375062
5	0x3d2accee	0.041699342
6	0xbd4c7a7e	-0.049921505
7	0xbd61cf38	-0.05512926
8	0xbd2d52d6	-0.042315327
9	0x3b53c810	0.0032315291
10	0xbcba2762	-0.022723857
11	0x3d4a8abe	0.04944872
12	0xbcd87de8	-0.026427224
13	0xbd87b1c8	-0.06625706
14	0x3d676211	0.056490008
15	0x3d6d9ec2	0.05801273
16	0xbd6580cc	-0.056031033
17	0x3d373314	0.044726446
18	0x3b26d096	0.0025453917
19	0x3d1d53fc	0.038410172
20	0xbce4139a	-0.027841378
21	0xbcac662e	-0.021044817
22	0xbd28e0cd	-0.04123001
23	0x3a411352	0.00073652447
24	0xbd6ede96	-0.058317743
25	0x3d726b60	0.059184432
26	0x3cbba57c	0.022906058
27	0xbca7ecde	-0.02049869
28	0xbd398e08	-0.045301467
29	0x3d2f534c	0.042804047
30	0xbd15c19c	-0.036561593
31	0xbd6b6ba2	-0.057475694
32	0xbc0372b6	-0.008022955
33	0x3d279ba4	0.040919915
34	0xbd2c113a	-0.042008616
35	0x3d402cd8	0.046917766
36	0x3c921fea	0.017837483
37	0x3c9a3530	0.01882419
38	0xbcc773bd	-0.02434718
39	0x3d509f40	0.050933123
40	0xbd48deaa	-0.049040474
41	0x3cd61b75	0.02613614
42	0xbd00b7e4	-0.03142537
43	0x3d48bbd6	0.04900726
44	0x3d866296	0.065617725
45	0xbcab1759	-0.020885156
46	0x3cb0c2a9	0.021577196
47	0x3d32ee74	0.043684438
48	0xbd831643	-0.064007305
49	0xbd08df75	-0.03341623
50	0xba92c4c4	-0.0011197557
51	0x3d46a836	0.048500262
52	0xbd416df8	-0.047224015
53	0xbd270316	-0.040774427
54	0xbceb6fd4	-0.028739847
55	0xbd3aabb9	-0.045573924
56	0x3c681ee4	0.014167521
57	0xbd8682fa	-0.065679505
58	0x3d10bcaa	0.035336174
59	0xbcbadc04	-0.02280999
60	0xbd64cabf	-0.055857416
61	0x3d772d52	0.060345955
62	0xbbc281b0	-0.00593587
63	0xbcd251e0	-0.025673807
64	0xbd24e224	-0.040254727
65	0x3d3ebf6e	0.04656928
66	0xbd3f51db	-0.046708923
67	0xbc399e9a	-0.011329317
68	0xbd0c4614	-0.03424652
69	0xbb49c64e	-0.0030788365
70	0xbd6a0564	-0.057134047
71	0x3c941f05	0.018081198
72	0x3ce5986e	0.028026786
73	0xbcfe718a	-0.031059999
74	0x3ce7aaae	0.028279629
75	0xbd0cb336	-0.034350596
76	0x3d14fe86	0.036375545
77	0x3ca49051	0.020088347
78	0xbc0ae882	-0.008478286
79	0x3d4aa718	0.04947576
80	0xbc0d350a	-0.0086186025
81	0x3d61445e	0.05499684
82	0xbd47e679	-0.04880378
83	0xbb59eb36	-0.003325177
84	0xbd41b8cb	-0.047295373
85	0xbd51d014	-0.05122383
86	0xbd54eae4	-0.05198182
87	0xbd7ecbc8	-0.06220606
88	0x3cd81f90	0.026382238
89	0x3d293eaa	0.041319527
90	0x3b9843b9	0.004646745
91	0x3d6a6952	0.057229348
92	0x3c0f25f7	0.008737079
93	0xbd251e3c	-0.040312037
94	0x38d8fc6c	0.000103467
95	0x3d41b7b0	0.04729432
96	0x3d128a4f	0.035776433
97	0xbc80f680	-0.01574254
98	0x3c9293c0	0.017892718
99	0x3d4c165c	0.04982601
100	0xbb1c3f3e	-0.0023841406
101	0x3c5baf0e	0.0134084355
102	0xbd60a6ea	-0.05484668
103	0xbcac06e0	-0.020999372
104	0x3c0dfd1a	0.008666301
105	0xba03b86a	-0.0005024733
106	0x3c926e0c	0.01787474
107	0x3d77d360	0.060504317
108	0xbcf6d795	-0.030132094
109	0x3bdc59f3	0.00672459
110	0xbd1c453d	-0.03815197
111	0x3d798762	0.060920127
112	0x3d21fdc6	0.039548658
113	0x3d240a36	0.0400488
114	0xbd02ee18	-0.031965345
115	0x3cbaa0c8	0.022781745
116	0xbc7b14a0	-0.015324742
117	0x3d083ce0	0.03326118
118	0x3d0c93af	0.03432053
119	0x3af1d8a0	0.00184514
120	0xbd5fe86c	-0.054665014
121	0xbd613763	-0.05498446
122	0x3d3d6bed	0.046245504
123	0xbcdf22d4	-0.027238287
124	0xbc16bb41	-0.009199918
125	0x3b8322b6	0.0040019406
126	0x3d905e67	0.07049256
127	0x3d2e9984	0.042626873
128	0xbd9dcd94	-0.077052265
129	0x3cca9bb2	0.024732444
130	0x3d0a02e5	0.033694167
131	0xbcdb414a	-0.02676453
132	0x3c76f46c	0.015072923
133	0xbb51ddec	-0.0032023145
134	0x3d60aa2e	0.054849796
135	0xbc1d8933	-0.00961523
136	0x3b054ee4	0.0020341212
137	0x3d02a67e	0.03189706
138	0x3d1e4dcc	0.03864841
139	0xbd4db68c	-0.05022292
140	0x3c3c4722	0.011491569
141	0x3d1d6ba3	0.03843273
142	0xbd85297c	-0.06502053
143	0x3cbace2e	0.022803392
144	0x3cd92568	0.026507095
145	0x3cda01ac	0.026612125
146	0x3c90d360	0.017678916
147	0x3cfcfe34	0.030882932
148	0xbd122aa0	-0.03568518
149	0xbccd489c	-0.025059037
150	0xbbcf8d30	-0.0063339695
151	0xbd38c844	-0.045112863
152	0xbcc63a7e	-0.024197813
153	0x3d1bf074	0.03807111
154	0x3af739b2	0.0018861799
155	0xbd332193	-0.04373319
156	0x3d0d098a	0.034432925
157	0x3d14a7e4	0.036292925
158	0x3d550330	0.052004993
159	0x3d2b94ac	0.04188983
160	0x3b90400c	0.004402166
161	0xbc9f70d9	-0.01946299
162	0x3d319490	0.04335457
163	0xbd034970	-0.032052457
164	0x3d714b16	0.0589095
165	0x3d19c6f8	0.037543267
166	0x3c38e035	0.011283924
167	0x3cfb4338	0.0306717
168	0xbc7bee16	-0.015376588
169	0xbce1852b	-0.02752932
170	0xbd308308	-0.04309371
171	0x3d25031a	0.04028616
172	0x3ca207fc	0.019779198
173	0x3d1c781a	0.038200475
174	0x3cc8451c	0.024447016
175	0xbd14ff72	-0.036376424
176	0x3c5089f4	0.012728203
177	0xbc226bde	-0.009913413
178	0x3d30ef2a	0.043196835
179	0xbc1472a4	-0.009060536
180	0xbd466cee	-0.048443727
181	0x3d358040	0.04431176
182	0xbc689eb6	-0.014197996
183	0x3c78dad3	0.0151888905
184	0xbcd99fd7	-0.026565475
185	0xbd3fbebe	-0.046812765
186	0x3b1fbc1e	0.0024373601
187	0x39a21437	0.0003091411
188	0x3bc06b12	0.005872139
189	0xbd99ae49	-0.075039454
190	0xbb507cec	-0.003181274
191	0xbd63a71a	-0.055579282
192	0xbd57b656	-0.052664123
193	0x3c52a5e4	0.012856934
194	0x3c61bc39	0.013777786
195	0xbd7a29b0	-0.061074913
196	0xbb046d0a	-0.0020206594
197	0x3cfa37a6	0.030544113
198	0x3cb04a4a	0.021519799
199	0xbd10458e	-0.035222583
200	0xbd389404	-0.045063034
201	0x3d20ce3a	0.039259173
202	0xbc9224b7	-0.017839773
203	0xbd6c4362	-0.05768145
204	0xbd6ff0e2	-0.058579333
205	0xba977ee8	-0.0011558207
206	0x3d14852a	0.036259808
207	0x3cece690	0.028918535
208	0x3b1b8958	0.0023732986
209	0xbc981d48	-0.01856865
210	0xbc17a0dc	-0.00925466
211	0xbc4a53ce	-0.012349082
212	0xbc81bcc2	-0.015837077
213	0xbbc77bd2	-0.0060877586
214	0xbd5cd086	-0.0539098
215	0xbd892fc2	-0.06698562
216	0xbc49905a	-0.0123024825
217	0xbd892526	-0.066965386
218	0xbb199dcc	-0.0023440002
219	0x3d9efd6c	0.0776318
220	0xbd400e40	-0.04688859
221	0xbd552f4c	-0.05204706
222	0xbd428ca9	-0.047497425
223	0xbd7992c4	-0.060930982
224	0xbd5c9da8	-0.05386129
225	0x3c62139e	0.013798622
226	0xbc15da0a	-0.009146223
227	0x3cc7083c	0.024295919
228	0xbd160098	-0.03662166
229	0x3b4d351f	0.003131218
230	0x3b84d9aa	0.004054268
231	0x3d7f3ed4	0.062315777
232	0xbd78be80	-0.06072855
233	0xbd0fff7c	-0.03515576
234	0xbd666899	-0.056252096
235	0x3c04a3b2	0.008095669
236	0xbd5848e4	-0.05280389
237	0xbc9bf772	-0.01903889
238	0xbcdf73df	-0.027276931
239	0xbd1e6aac	-0.03867595
240	0x3d277d64	0.040891066
241	0xbcb8d040	-0.022560239
242	0xbd4ee040	-0.05050683
243	0x3be1be16	0.006889115
244	0x3d608b42	0.054820307
245	0xbd622280	-0.055208683
246	0x3b581b0c	0.0032975106
247	0xbcd79904	-0.02631808
248	0xbcbb99ac	-0.022900425
249	0x3cad4e00	0.021155357
250	0x3bdb83b9	0.006699052
251	0x3cf35c90	0.029707223
252	0xbd2f5f7f	-0.04281568
253	0xbb1ed032	-0.002423298
254	0xbbe1e3a8	-0.006893594
255	0x3cf61c6c	0.03004285

layer3.bias f4 [256]
0	0x3d5c9dba	0.053861357
1	0x3c49f4af	0.0123264035
2	0xbd77acec	-0.060467646
3	0xbcfebafe	-0.031095024
4	0xbc7e1526	-0.015507972
5	0x3bf9bffc	0.0076217633
6	0x3d5a4540	0.0532887
7	0xbd40d3e6	-0.047077082
8	0xbd25a6a4	-0.040442124
9	0xbcd62999	-0.026142882
10	0xbba09487	-0.0049005183
11	0xbc1d7b1c	-0.009611871
12	0xbc9644f4	-0.018343426
13	0x3d4cbc7e	0.049984448
14	0x3b081af9	0.002076803
15	0x3d4d6851	0.050148312
16	0xbb391050	-0.0028238483
17	0xbc84b3ab	-0.016198954
18	0x3d188897	0.037239637
19	0x3d37ef5c	0.044906005
20	0xba9e631e	-0.0012083983
21	0x3d1aabeb	0.03776161
22	0x3d363ba6	0.04449048
23	0x3d52dfc4	0.05148293
24	0x3d508ed6	0.05091747
25	0x3d7dd56a	0.061971106
26	0xbd064cde	-0.03278815
27	0x3d1ae914	0.037819937
28	0xbd004cf6	-0.031323396
29	0x3d5d801a	0.054077245
30	0x3d5b14e8	0.053486735
31	0xbaf4251e	-0.0018626784
32	0xbd202c21	-0.039104585
33	0x3bfbba15	0.007682095
34	0xbce7b240	-0.028283238
35	0xbd1ece33	-0.038770866
36	0x3d4a4856	0.04938539
37	0xbd28faca	-0.041254796
38	0xbd1bb378	-0.03801295
39	0x3d16a8d0	0.036782086
40	0x3cb66908	0.02226688
41	0xbce52662	-0.027972404
42	0xbbeaf8ea	-0.007170786
43	0xbc834cce	-0.016027834
44	0x3d75fbf6	0.06005474
45	0xbd700edc	-0.05860792
46	0xbc556120	-0.013023645
47	0xbd14a036	-0.0362856
48	0x3d81977e	0.06327723
49	0x3c4a7566	0.0123570915
50	0x3c315d94	0.010825533
51	0x3d3e2f63	0.04643191
52	0xbcb94b2c	-0.022618853
53	0xbd73c60c	-0.059515044
54	0xbd5a37b9	-0.053275798
55	0xbcf973b5	-0.030450681
56	0xbd7c871a	-0.06165228
57	0x3c29c4e6	0.010361886
58	0xbc816242	-0.015793923
59	0x3bcb8f52	0.0062121535
60	0xbd03b2de	-0.032153003
61	0x3d427f95	0.047484953
62	0x3c6f221c	0.014595535
63	0x3c211b2e	0.00983314
64	0xbca5b489	-0.020227687
65	0xbd601554	-0.05470784
66	0x3d444cd0	0.047924817
67	0x3ca7e162	0.020493213
68	0x3cb88fb7	0.022529466
69	0x3d6980c6	0.057007574
70	0xbce1a042	-0.027542237
71	0x3d50fbe0	0.051021457
72	0xbd6f5654	-0.05843194
73	0x3beafd36	0.0071712984
74	0x3d8845f5	0.06653968
75	0x3c7031af	0.014660283
76	0xbcd82384	-0.026384123
77	0xbc09bbda	-0.008406604
78	0xbd3663b2	-0.04452867
79	0x3cfa6a51	0.030568274
80	0x3c531928	0.012884416
81	0x3d288a1a	0.04114733
82	0xbd299adc	-0.04140745
83	0xbd557874	-0.052116826
84	0xbc9da8a6	-0.019245457
85	0x3d0ee01f	0.034881707
86	0x3c035b19	0.008017325
87	0xbb22adc8	-0.002482282
88	0xbcfacf3a	-0.030616391
89	0x3d34214b	0.043977063
90	0xbcfc0e56	-0.030768555
91	0x3ca54ef8	0.020179257
92	0x3d9050a8	0.07046634
93	0x3ce2bfba	0.027679313
94	0x3d637ec8	0.05554083
95	0x3d0dfe82	0.034666546
96	0xbd6cf0be	-0.057846777
97	0xbd06278e	-0.032752566
98	0x3ceed114	0.02915243
99	0x3d4642d6	0.048403583
100	0x3d6c34d6	0.057667576
101	0x3d4fb34c	0.0507081
102	0x3c62abec	0.013834935
103	0x3c45dd42	0.012076678
104	0xbd5c881b	-0.053840738
105	0x3d1bde6c	0.038053915
106	0xbbae5972	-0.0053207213
107	0xbb24ef54	-0.0025167065
108	0x3d633642	0.055471666
109	0x3d916fd0	0.07101405
110	0xba96d4e6	-0.001150754
111	0xbd3f66bc	-0.046728835
112	0x3d1bf3ce	0.038074307
113	0xbc722360	-0.014778942
114	0xbd3e21b2	-0.046418853
115	0xbc560a16	-0.013063928
116	0xbd1049f7	-0.03522679
117	0x3d89ec02	0.06734468
118	0xbb836c86	-0.0040107397
119	0x3d0a907c	0.033829197
120	0xbcc0bf86	-0.023528825
121	0x3d3a25e3	0.045446288
122	0xbc8d812e	-0.017273512
123	0x3d6befaf	0.057601627
124	0xbc2c5ba2	-0.010519894
125	0xbd1a0eb7	-0.03761169
126	0xbd141ed0	-0.036162198
127	0x3c161a2c	0.009161513
128	0xbd3655d4	-0.044515446
129	0x3d880b62	0.06642796
130	0xbd2ac8b0	-0.041695297
131	0x3c49f088	0.0123254135
132	0x3cd83512	0.026392493
133	0xbc9d4152	-0.019196186
134	0xbcdcbe7c	-0.026946299
135	0x3c4645fa	0.012101645
136	0x3ca02632	0.019549463
137	0xbcfcbe93	-0.030852592
138	0xbd4b3304	-0.0496092
139	0xbd285645	-0.041097898
140	0xbd24b1ac	-0.040208504
141	0x3c4709ba	0.012148315
142	0x3d5d9b8e	0.054103427
143	0x3d1e13f0	0.038593233
144	0xbb72f1a9	-0.003707031
145	0x3d7c6598	0.061620325
146	0x3d1f2634	0.038854793
147	0x3d5244e6	0.051335238
148	0x3c9451f0	0.018105477
149	0x3c938e32	0.01801214
150	0x3d2d9c52	0.042385407
151	0x3d39386a	0.045219816
152	0xbd828eae	-0.0637487
153	0x3d6c366a	0.05766908
154	0x3d29f83f	0.04149651
155	0xbcc90cc4	-0.02454222
156	0xbbd69ea6	-0.006549674
157	0x3b5fb456	0.0034134588
158	0x3d5b2d9e	0.0535103
159	0xbc346163	-0.011009547
160	0xbce1ad7e	-0.027548548
161	0xbd29abac	-0.041423485
162	0xbb8b53ca	-0.004251932
163	0xbd2b7fb4	-0.041869834
164	0xbd2a84b5	-0.041630466
165	0x3baf7f44	0.0053557474
166	0xbc90bbbe	-0.017667647
167	0x3d21195c	0.039330825
168	0xbbbf7256	-0.0058424873
169	0xbcbfc193	-0.023407733
170	0xbcf89e8d	-0.03034904
171	0x3d43b730	0.047782123
172	0x3d369df2	0.044584222
173	0xbd285380	-0.041095257
174	0x3d1ba350	0.037997544
175	0x3d925cf2	0.07146634
176	0x3af87340	0.0018955246
177	0xbcf2eb6e	-0.029653277
178	0x3cb57d8c	0.022154592
179	0xbd44597a	-0.047936894
180	0xbd604c4a	-0.054760255
181	0xbd5e8975	-0.054330308
182	0xbd02ace0	-0.031903148
183	0x3d3021ef	0.04300111
184	0x3d1a2394	0.037631586
185	0x3cb16a10	0.02165702
186	0x3b6416b6	0.0034803576
187	0xbc9f07c6	-0.019412886
188	0xb9b994f4	-0.00035396928
189	0x3d7d9f02	0.06191922
190	0x3cb22a58	0.021748707
191	0x3c861ae3	0.016370242
192	0x3c900d32	0.017584417
193	0x3cbea500	0.023272038
194	0x3c869798	0.016429707
195	0x3cd82fde	0.026390012
196	0x3d4f040c	0.05054097
197	0xbd346592	-0.044042177
198	0xbc386136	-0.011253646
199	0x3d6c3070	0.05766338
200	0x3d0f46e3	0.034979712
201	0x3d1f8406	0.038944267
202	0xbd184f30	-0.037184894
203	0x3d36e24a	0.0446494
204	0x3cf5c194	0.029999532
205	0xbc85cdfe	-0.016333576
206	0x3c977959	0.01849048
207	0xbd23ec16	-0.04002007
208	0xbd1bbe7e	-0.038023464
209	0x3ce6dc7c	0.028181307
210	0xbd349edc	-0.044096813
211	0xbd5f4683	-0.054510605
212	0xbd3669dc	-0.04453455
213	0xbd009e8c	-0.031401202
214	0x3d34a534	0.044102862
215	0xbcadca7c	-0.021214716
216	0x3d79e8b8	0.061012954
217	0xbcd1f733	-0.02563057
218	0x3d886ab6	0.066609785
219	0xbc31456e	-0.010819776
220	0xbd5cc01a	-0.05389414
221	0x3c808aad	0.015691126
222	0xbd1d6524	-0.038426533
223	0x3cdab716	0.02669863
224	0x3d269b34	0.040675357
225	0xbd6814f9	-0.056660626
226	0x3cc74766	0.024326038
227	0xbd4fab5a	-0.050700523
228	0x3c46768a	0.012113223
229	0x3be45524	0.0069681574
230	0xbbe5e280	-0.0070155263
231	0x3c44bcae	0.012007875
232	0xbd3c9c1a	-0.046047308
233	0xbcedd3a9	-0.029031591
234	0xbc8100ca	-0.015747447
235	0x3d13a976	0.036050282
236	0xbd50d0c6	-0.050980352
237	0xbd0fe57b	-0.03513096
238	0xbd234388	-0.039859325
239	0x3cba44b1	0.022737833
240	0x3d430ec6	0.04762151
241	0x3bc80175	0.0061036893
242	0x3d7bd930	0.061486423
243	0x3d25f7aa	0.040519394
244	0xbc9d98fc	-0.019237988
245	0xbd38cf5b	-0.045119625
246	0xbc554fdc	-0.013019528
247	0xbcf8e41d	-0.03038221
248	0xbd26a1c9	-0.040681634
249	0xbc95bc5c	-0.018278293
250	0x3bfcad64	0.0077110995
251	0x3d0c3a2e	0.034235172
252	0xbd48d62a	-0.049032368
253	0x3d0b3bc2	0.033992536
254	0xba7e7e35	-0.00097081374
255	0x3d5e2a29	0.054239426

layer4.weight f4 [10, 256]
0	0xbd3ad03a	-0.045608737
1	0x3cb583d4	0.022157587
2	0xbccb5c90	-0.02482441
3	0xbd26057c	-0.040532574
4	0x3cd36128	0.025803164
5	0xbd0bef45	-0.034163732
6	0x3cc59a3e	0.0241214
7	0x3d22aefa	0.039717652
8	0xbce244e2	-0.027620737
9	0xbcacc5ef	-0.021090476
10	0xbd4f0508	-0.050541908
11	0xbd39a15c	-0.0453199
12	0x3c04bef1	0.008102165
13	0xbcc0a20e	-0.023514774
14	0x3d37265c	0.044714317
15	0x3cc17160	0.023613632
16	0xbcad0838	-0.021122083
17	0x3cd205e8	0.025637582
18	0xbcd9b2da	-0.02657454
19	0x3cd6f1f6	0.026238423
20	0xbc7751a8	-0.015095152
21	0x3d54f86a	0.05199472
22	0x3cc72bef	0.024312941
23	0x3d590f3c	0.052993044
24	0x3ce94225	0.028473923
25	0x3bef71bc	0.0073072594
26	0xbce78f8c	-0.02826669
27	0x3d34ff06	0.04418852
28	0xbc263c5a	-0.010146225
29	0x3d0938ef	0.03350156
30	0xbc7c29c3	-0.015390816
31	0x3c8de112	0.017319236
32	0xbd502ee6	-0.050825976
33	0xbda1cea6	-0.07900743
34	0x3d7df3fa	0.062000252
35	0xbc396f88	-0.011318095
36	0x3d36c655	0.044622738
37	0xbd468759	-0.04846892
38	0xbd0c1528	-0.034199864
39	0xbd3098ec	-0.043114588
40	0xbd482000	-0.048858643
41	0xbb2e2c20	-0.0026576594
42	0xbd115086	-0.035477184
43	0x3ccf0c52	0.02527443
44	0x3d55e8d4	0.052223995
45	0xbd036d7e	-0.03208684
46	0x3d05983a	0.032615878
47	0x3d4b7eba	0.049681403
48	0xbd1f25e8	-0.03885451
49	0xbd66994c	-0.05629854
50	0x3d393c3b	0.045223456
51	0xbadce40b	-0.001685263
52	0x3a7c1855	0.0009616663
53	0xbd4d25c1	-0.050084833
54	0x3d45ec94	0.04832132
55	0x3b5b28e2	0.0033441116
56	0xbd3da2f4	-0.046297982
57	0x3d1dd914	0.0385371
58	0xbd3dcb06	-0.046336196
59	0xbba7611f	-0.0051080133
60	0x3cb2407b	0.021759262
61	0x3d1c637d	0.038180817
62	0xbc31ff60	-0.010864109
63	0x3d1da370	0.038485944
64	0x3c9eb586	0.019373666
65	0xbd88997e	-0.06669901
66	0x3c13a9dc	0.009012666
67	0xbc7fc1dc	-0.0156101845
68	0xbd11fcb8	-0.035641402
69	0x3d0b96d0	0.034079373
70	0xbcae2dd8	-0.021262094
71	0xbca0ea1a	-0.019642878
72	0xbcf2af14	-0.0296245
73	0x3cdbdcc0	0.02683866
74	0xbd0efbc6	-0.03490808
75	0xbd794d04	-0.060864463
76	0x3d27ce21	0.040968064
77	0x3b8acaee	0.004235617
78	0x3d6036ba	0.05473969
79	0x3c4d8310	0.012543455
80	0xbd33e739	-0.043921683
81	0xbaa6c5de	-0.0012723764
82	0x3cb166bc	0.021655433
83	0xbd571454	-0.05250962
84	0xbccfec20	-0.025381148
85	0x3c9890a8	0.018623665
86	0xbd6c3320	-0.057665944
87	0xbd2a72be	-0.041613333
88	0x3cd5c3ec	0.0260944
89	0xbccfa718	-0.025348231
90	0xbd10dfd2	-0.0353697
91	0x3c7851ae	0.015156193
92	0xbb23bafa	-0.0024983273
93	0x3c0fee24	0.0087848045
94	0x3d282d85	0.041059036
95	0x3d3afb24	0.045649663
96	0xbc11f98c	-0.008909594
97	0x3c90e730	0.017688364
98	0x3d667e26	0.05627265
99	0x3da09ac6	0.07842021
100	0x3d5ae0e0	0.053437114
101	0xbc90f588	-0.017695203
102	0x3d68edc4	0.056867376
103	0xbd6270d9	-0.0552834
104	0xbd3687d4	-0.04456313
105	0xbd242c28	-0.040081173
106	0xbcb1f528	-0.021723345
107	0xbd49c772	-0.04926247
108	0xbc72f86a	-0.014829734
109	0x3d1cb979	0.038262818
110	0x3ccf1c32	0.025282
111	0xbd5ef9a6	-0.054437302
112	0x3d5d37d7	0.05400833
113	0x3d8052f4	0.06265822
114	0xbcb140c6	-0.021637332
115	0x3d843346	0.06455092
116	0x3cbc18de	0.022961076
117	0xbc4cb41a	-0.012494111
118	0xbdf86c78	-0.12130064
119	0x3d8d48f6	0.06898682
120	0x3d224d01	0.039624218
121	0xbc0e8a34	-0.008699942
122	0x3d7b5bd6	0.06136688
123	0xbb58d08e	-0.0033083293
124	0xbcd2c5fb	-0.02572917
125	0xbd3dc3cc	-0.046329305
126	0x3c737218	0.014858745
127	0xbd4ad2c0	-0.049517393
128	0x3c198f5c	0.009372558
129	0x3d624cb2	0.055248924
130	0x3d7ca55f	0.061681148
131	0xbcd8c155	-0.026459375
132	0x3c6d5e47	0.0144878095
133	0xbcc1bf68	-0.02365084
134	0x3d7c2c9c	0.06156598
135	0xbc023af4	-0.007948626
136	0x3d748448	0.059696466
137	0xbd801ac0	-0.06255102
138	0x3bb486b8	0.005509224
139	0xbd6592ee	-0.056048326
140	0x3ce91530	0.028452486
141	0x3ca9f2fe	0.02074575
142	0x3d20e2b0	0.039278686
143	0xbd568b58	-0.052378982
144	0xbc9fc43e	-0.019502755
145	0xbd0b5780	-0.034018993
146	0x3d1fa788	0.03897813
147	0x3c60e7a6	0.013727104
148	0x3c0c8c9a	0.008578444
149	0xba17ae4b	-0.00057861645
150	0x3d3b45fe	0.045721047
151	0xbd153356	-0.03642591
152	0xbd370070	-0.04467815
153	0x3d66936e	0.056292944
154	0xbd5ed416	-0.05440148
155	0xbd7211b2	-0.059098907
156	0x3b3fda6a	0.0029274472
157	0x3c0cc250	0.00859125
158	0x3bb35040	0.005472213
159	0x3d27e4b2	0.040989585
160	0x3d6a8480	0.057255268
161	0xbb8456ca	-0.0040386664
162	0x3d55ebe4	0.052226916
163	0xbd0804bc	-0.03320764
164	0x3d682d10	0.0566836
165	0x3d7896a2	0.06069053
166	0x3dfe3d94	0.12414089
167	0x3d5be872	0.053688474
168	0xbd7924db	-0.060826164
169	0xbd0aa846	-0.033851884
170	0xbd702cc0	-0.058636427
171	0x3d4188f6	0.047249757
172	0x3c43c178	0.011947982
173	0xbd4ca6d6	-0.049963795
174	0xbcfa358e	-0.030543115
175	0x3d298de5	0.041395087
176	0x3d6db9d6	0.058038555
177	0xbd335d2b	-0.043790024
178	0xbd7d5c74	-0.06185575
179	0xbd875900	-0.06608772
180	0x3d3a900e	0.045547538
181	0xbd4d3993	-0.050103735
182	0xbcd1985c	-0.025585346
183	0x3d14b7c8	0.03630808
184	0x3b9589b0	0.004563533
185	0x3b4d2762	0.0031303992
186	0xbd5d9660	-0.054098487
187	0x3d2f18f6	0.042748414
188	0xbc8d5e3d	-0.01725685
189	0x3d27ac89	0.040936027
190	0x3d5e84a8	0.05432573
191	0x3d6306fa	0.055426575
192	0xbd4dc780	-0.050239086
193	0xba1a9e82	-0.00058982533
194	0x3d1ad561	0.03780115
195	0xbd15b124	-0.036545888
196	0xbc7efa35	-0.015562584
197	0x3c8838dc	0.016628675
198	0xbc2e94a2	-0.010655554
199	0xbd1ab4c4	-0.037770048
200	0x3d0d473e	0.03449177
201	0xbd2210c6	-0.039566778
202	0xbd222efa	-0.03959558
203	0xbd2b671a	-0.041846372
204	0xbd651e0b	-0.055936854
205	0xbcda60be	-0.026657458
206	0xbbdb8bb2	-0.0067000026
207	0xbccd2aec	-0.02504488
208	0xbd3de78f	-0.04636341
209	0xbd46d635	-0.048544127
210	0xbda6c64e	-0.08143292
211	0x3cdb1409	0.026742952
212	0xbd3b33df	-0.045703765
213	0x3cbed208	0.02329351
214	0xbb9ba404	-0.004749777
215	0x3d227172	0.03965897
216	0x3cad30b4	0.021141388
217	0xbd4084c1	-0.047001604
218	0xbda68c0a	-0.08132179
219	0x3d4a7482	0.049427517
220	0xbc370458	-0.011170469
221	0x3d5d76d6	0.05406841
222	0x3ca45e50	0.020064503
223	0xbc93a471	-0.018022748
224	0xbd4d9f14	-0.050200537
225	0xbd5622b0	-0.052279174
226	0xbd341b3f	-0.043971296
227	0xbd7c063d	-0.061529387
228	0xbc2a64f4	-0.010400046
229	0x3cce42d6	0.025178354
230	0xbc800086	-0.01562525
231	0xbd748e60	-0.059706092
232	0x3c9df4f1	0.019281836
233	0x3c98c16e	0.018646922
234	0x3c34d9f2	0.01103829
235	0x3d20be4c	0.03924398
236	0x3d48cde2	0.04902447
237	0xbd54f584	-0.051991954
238	0xbd592511	-0.053013865
239	0x3d2c926c	0.042131826
240	0x3c40f592	0.0117772985
241	0x3c679151	0.014133767
242	0xbb4f8276	-0.0031663454
243	0xbcfdd0ef	-0.030983416
244	0xbca3f0c6	-0.02001227
245	0x3cc2a0da	0.02375834
246	0xbd10c630	-0.035345256
247	0x3c98afba	0.01863848
248	0xbd872096	-0.06598012
249	0x3c37d990	0.011221305
250	0xbc8b0e25	-0.016974518
251	0xb9fca4f9	-0.000481881
252	0x3d0744f2	0.033024736
253	0x3d42d77e	0.04756879
254	0xbd0469e0	-0.032327533
255	0x3d59262a	0.05301491

layer4.bias f4 [10]
0	0x3d60f616	0.054922186
1	0x3d3e5ad8	0.046473354
2	0xbd139334	-0.036029056
3	0xbd1c2584	-0.038121715
4	0x3c2743ae	0.010209007
5	0xbd2628e4	-0.04056634
6	0xbd3af9aa	-0.045648254
7	0xbcd74ec5	-0.026282677
8	0x3ce9b2a0	0.028527558
9	0x3cba9440	0.02277577
