target_net.pth (torch, 678637 bytes, 8 tensors)

layer1.weight f4 [256, 135]
000000 9b ad 03 bc 34 38 d8 3d f3 f2 a0 bd c2 88 5d bd
       -0.008036996 0.10557595 -0.07858839 -0.0540855
000010 82 2c 9e 3c fc 46 86 bd de 25 a5 bd 06 f7 9c 3d
       0.019308332 -0.06556508 -0.08063863 0.076643035
000020 40 04 f8 3c d8 e1 6b 3c 04 e8 cd 3c ac 1f b7 bc
       0.030275464 0.014397107 0.025135048 -0.02235397
000030 62 b5 44 3d 48 ae 9d 3d 2e d3 84 3d 7f d0 66 3d
       0.048024543 0.07699257 0.06485592 0.05635118
000040 14 72 2d bc c3 54 82 bd c4 1f 6f 3d 60 3c 13 3d
       -0.01058628 -0.06363823 0.058379903 0.03594625
000050 b4 ac 5c bd 96 1b 8a bd 27 ea 5f bc 73 9e 0f bd
       -0.05387564 -0.06743543 -0.013666666 -0.03506322
000060 f1 80 3d 3d e4 da 7e 3d e7 44 91 3c f0 42 11 3d
       0.046265546 0.06222047 0.01773305 0.035464227
000070 0c 08 78 bd 70 ba 10 bd 0e 69 25 bd bc c6 89 3d
       -0.06055455 -0.03533405 -0.04038339 0.06727359
000080 48 b3 75 bd 52 52 46 3d bd 2b ee bc b8 bd 13 bc
       -0.05998543 0.04841835 -0.02907359 -0.0090174
000090 32 18 93 3d 01 b4 1a bd e0 3f 66 bd 42 d5 01 bd
       0.07182349 -0.03776932 -0.05621326 -0.03169752
0000a0 c8 49 08 3d c6 78 7e 3d a1 21 96 bb 50 b2 8e 3d
       0.03327349 0.062126897 -0.0045816456 0.06967604
0000b0 86 19 96 3d 2a 08 9b 3d 3c 23 a5 3c b8 04 51 3d
       0.07329087 0.075699165 0.020158403 0.05102989
0000c0 79 86 28 3b 52 82 2c bd f4 02 c5 3c 82 41 a1 bd
       0.0025714918 -0.04211647 0.02404926 -0.07873823
0000d0 ee 39 43 3d 5a 8d 4f 3c 42 8c 4b bd 26 34 03 bd
       0.047662668 0.012667978 -0.049694307 -0.032032155
0000e0 30 2e 51 bd 82 5a d8 3c 22 c0 1f bd 92 88 a5 3d
       -0.05106944 0.026410345 -0.03900159 0.08082689
0000f0 b2 ec 31 3c 3c 29 3a 3d 32 3c 2d 3d 38 19 71 bc
       0.010859655 0.04544948 0.042293735 -0.014715485
000100 f8 cd 94 bd 76 f1 93 bd d1 2f 7a 3c 9a fa 6d 3b
       -0.07265848 -0.072237894 0.015270189 0.00363127
000110 a9 57 ac bd 6f c2 a4 3d 3e 94 90 bc db 5a 2a ba
       -0.08415157 0.08044898 -0.017648812 -0.0006498524
000120 e6 7b 9d 3d 94 24 59 3d d2 49 f6 bb f1 c5 a2 bd
       0.076896474 0.0530134 -0.0075161243 -0.079479106
000130 34 d5 5b 3d 74 cd 66 bd 6e b3 15 bd 77 78 23 bd
       0.053670123 -0.05634828 -0.03654807 -0.039909806
000140 86 be 9b bd 34 5c ae 3d e4 ac d7 3c 0d 36 a3 bd
       -0.07604699 0.0851368 0.026327558 -0.07969294
000150 40 9e 48 bd be 88 59 3d 41 b4 62 bc 58 80 ea bc
       -0.048979044 0.053108923 -0.013836921 -0.028625652
000160 44 f1 86 bd 82 4d 9c bd f4 7c 9d bd 7c 4f 93 bd
       -0.065889865 -0.07631971 -0.076898485 -0.07192895
000170 7a 86 a6 3c 7e 6f 22 bd dc df c4 3c 6f 98 02 bd
       0.020327795 -0.03965711 0.024032526 -0.031883653
000180 86 94 58 bc ec c9 e5 3c b7 a6 cd bc cc 7d 64 bd
       -0.0132190045 0.028050385 -0.02510391 -0.05578403
000190 44 0f 39 3d 78 a6 1d 3d 94 12 8a bc 9e be 14 bd
       0.045180574 0.038488835 -0.016854562 -0.0363146
0001a0 9e d2 b0 bd 68 93 a8 bd 96 8e ad 3d e4 8e a7 3c
       -0.08633922 -0.082312405 0.08474462 0.020453878
0001b0 8c 84 25 bb fe 4d 43 bd ff 9a 62 3b 1a ac 9c bd
       -0.0025256006 -0.0476818 0.0034577248 -0.07650013
0001c0 26 5f 96 bd f0 4f 3d 3d 9a 58 17 3b b5 66 65 bd
       -0.07342367 0.046218812 0.0023093582 -0.056006152
0001d0 62 5c 06 3d d2 bc b6 bc b4 c8 3d 3d 9c 87 79 bd
       0.032802947 -0.022306833 0.046333984 -0.060920343
0001e0 ee c3 ab bd 28 3f 94 39 12 1e e6 bc 2a ae 36 3d
       -0.0838698 0.00028275815 -0.02809051 0.04459969
0001f0 62 0d 82 3c 9c 53 b5 bd f2 46 a6 bc b6 d0 8b be
       0.015875522 -0.08853838 -0.020297501 -0.2730767
000200 70 d3 b4 bb dc 3a bb be d4 2d 94 bd 08 27 1f be
       -0.0055183694 -0.36568344 -0.072353035 -0.15542233
000210 b9 22 06 39 ac cf 32 bd ef ef 97 3d 5b ba 00 3c
       0.00012792171 -0.043655083 0.074188106 0.007856931
000220 f6 e7 94 bd 20 8c 96 bd fa b9 a9 ba 94 8f 02 be
       -0.072708055 -0.073509455 -0.0012949102 -0.12750083
000230 d5 71 af bd a6 a4 08 3d 00 25 3f 3d 9a e0 0b 3d
       -0.085666336 0.033360146 0.046666145 0.034149744
000240 48 b8 ba 3d 2c d2 0b be 78 d6 70 3d ca 16 20 3d
       0.0911718 -0.13654393 0.058798283 0.039084233
000250 0e a5 2a 3d f6 c4 91 3d c2 94 f6 3d ec 6e 8c bd
       0.041661315 0.071176454 0.12040092 -0.06857094
000260 1e bc 65 3d 17 30 8a bb a7 31 47 bd 48 f2 76 3d
       0.056087606 -0.0042171585 -0.048631337 0.06028965
000270 e4 df 97 bd 5c 51 40 3d bf ca 46 bd 5d 52 29 3d
       -0.074157506 0.04695259 -0.048533197 0.041338313
000280 e0 7d 31 3d d8 78 9c 3d 2e 78 37 3c fa 62 9c 3d
       0.043332934 0.076402366 0.011198087 0.07636066
000290 33 71 7b bd 3f e6 86 3d ae 94 2f 3d 58 38 14 3c
       -0.061387252 0.06586885 0.0428664 0.0090466365
0002a0 17 85 a9 3d 97 c8 86 3d de c2 bd bb da 4e 4b 3d
       0.08277338 0.06581228 -0.0057910522 0.049635746
0002b0 a6 81 ca 3d b8 ae 63 3d ba b9 76 3d 89 30 9b 3d
       0.0988801 0.055586547 0.060235716 0.07577617
0002c0 93 22 a9 3d 68 f6 4c bd 23 74 ce 3d c7 a9 27 3d
       0.08258548 -0.05003968 0.10080745 0.040933397
0002d0 5e 93 c2 3d ef 80 62 3d c2 14 6f 3d d2 f4 af 3d
       0.09500764 0.055298742 0.058369406 0.08591618
0002e0 d7 dc b9 3d 7a 54 f9 3c be ee 0c bb 17 11 8a bd
       0.09075325 0.03043579 -0.0021504606 -0.06741541
0002f0 de 64 a3 3d c3 28 bd 3d b4 c5 94 bd 8e 3e a3 3d
       0.07978223 0.0923629 -0.072642714 0.07970916
000300 6c 71 19 bd 4d 04 63 bd 3a 7c 0b bc 6e e6 14 3d
       -0.037461683 -0.055424023 -0.008513505 0.036352567
000310 b6 3b 20 bd a4 49 78 bd 04 51 2c 3c da 27 30 3d
       -0.039119445 -0.060617104 0.0105173625 0.043006755
000320 da 93 4a 3d a8 58 98 bb 74 09 35 3d a7 9a 2a bd
       0.04945741 -0.0046492405 0.04419847 -0.041651394
000330 4a 71 99 bd 05 d3 40 bd 0e 82 99 3d e1 ae 00 bd
       -0.07492311 -0.047076244 0.07495509 -0.031416778
000340 4d 13 81 3d 00 a9 4f bd 3a 1d 8f bd 07 2d 62 bd
       0.063025095 -0.05069828 -0.069879964 -0.055218723
000350 6e 67 59 bc 40 36 98 3d 9a 86 70 3d 5d c3 a1 3d
       -0.013269288 0.07432222 0.058722116 0.07898591
000360 3e 5a 05 3c ce 4e 0d 3d 94 4b 17 bd f6 1f 97 bd
       0.008139191 0.034498982 -0.03693731 -0.07379143
000370 4c dd a2 3d 62 83 d7 3c 97 88 3d 3d 4a 5c a5 3d
       0.07952365 0.026307765 0.04627284 0.08074243
000380 a5 f6 89 bd 0d 90 c3 bc 09 db a3 3d 10 a9 b5 3b
       -0.06736497 -0.0238724 0.08000762 0.0055438355
000390 2c dc 5d bb d6 49 ce 3c 9e 30 99 bd 2a 56 42 3a
       -0.0033853156 0.025181692 -0.07479976 0.0007413352
0003a0 1a 22 f8 bc 9f b1 5c 3d 34 aa f5 bc 8b 5e 9f 3d
       -0.030289698 0.05388033 -0.029988386 0.077817045
0003b0 48 55 f5 3c 48 77 5c bc 4c 96 31 3d 28 ad 4b bd
       0.029947892 -0.013456173 0.043356225 -0.04972568
0003c0 38 88 f7 bc f1 80 5f 3d 3d 71 5d bd 72 69 91 bc
       -0.030216321 0.054566327 -0.05406307 -0.017750476
0003d0 67 d7 5e bd 5b d0 b8 3d 27 8d 9e bd 6e ba 17 bd
       -0.054404642 0.09024116 -0.077417664 -0.037043028
0003e0 fe fe 77 3d 7f 15 44 3d 82 64 2d bd 34 bd 7c bc
       0.060545914 0.047872063 -0.04233218 -0.015425969
0003f0 69 9c 62 bd c8 13 99 3d 47 03 8c 3d a6 21 72 bd
       -0.055324946 0.07474476 0.068365626 -0.05911412

layer1.bias f4 [256]
000000 f9 a1 2c 3c 1e 02 06 bc d4 3a 9b bd a6 03 2b 3d
       0.010536664 -0.008179216 -0.0757958 0.041751526
000010 fe 08 ec bc 28 62 a6 3b 9a c4 4f bd b8 c1 12 bd
       -0.028812882 0.005077619 -0.050724603 -0.035829276
000020 ca c0 1c 3c 22 eb 85 3d 34 f1 41 bd 45 b9 88 3d
       0.009567449 0.06538989 -0.04734917 0.06675962
000030 f4 0e 9c 3c 68 e0 13 3d b6 77 81 3d f0 d6 96 3d
       0.019050099 0.036102682 0.06321661 0.07365215
000040 b5 2c 81 bd a8 84 aa 3d c6 4c 19 3c 98 c4 14 3c
       -0.06307355 0.083260834 0.009356683 0.009080075
000050 01 5e 4b 3d c8 34 c4 bb cb a3 50 bd d0 8e a9 bd
       0.049650196 -0.0059877373 -0.050937455 -0.082791924
000060 d6 4e 87 3c 28 8a 8b bd c6 bd 6c 3d c8 15 3b bd
       0.016517084 -0.068134606 0.05779817 -0.04567507
000070 e1 05 89 3d 0d 57 8b bc 07 34 9c bd b3 af 5c 3b
       0.066905744 -0.017009282 -0.07627111 0.003367406
000080 37 cd 60 bc 4c 32 bd bc 00 d3 35 3d 9a 4a ae bd
       -0.013720802 -0.023095272 0.04439068 -0.08510323
000090 5a 74 3f 3d de 46 0e bd a0 f5 c3 3b c5 b4 aa bc
       0.04674182 -0.034735553 0.0059802085 -0.02083815
0000a0 64 05 2b 3d 84 68 88 3d 87 f5 45 3d da 8a b0 3d
       0.041753188 0.0666056 0.048329856 0.08620234
0000b0 a3 5c 27 3d 0c 71 0f 3d 88 7d a3 3d 43 29 be 3d
       0.04085983 0.03501992 0.079829276 0.09285214
0000c0 30 60 d4 3d c2 cf 64 3d fb d0 1b bd 84 20 32 bd
       0.10369909 0.055862196 -0.038041096 -0.04348804
0000d0 62 b9 4c bc 35 e1 29 3c 3a 13 a7 3c 04 ba 57 bd
       -0.012495371 0.010368635 0.02039491 -0.052667633
0000e0 d4 a8 93 bd aa f6 f2 3c 8b 41 95 bd 0e 63 39 3b
       -0.07209936 0.029658634 -0.07287892 0.00282878
0000f0 40 97 8d bd 4f 76 85 3d 32 a6 22 3d 26 67 0f bd
       -0.06913614 0.06516706 0.039709277 -0.03501048
000100 ea d6 c1 3c bc d0 9b 3d 38 69 87 3d c0 e2 cb 3d
       0.02366205 0.07608172 0.06611866 0.099553585
000110 fe 25 f8 3d 9a b1 3a bd de 57 3f bc d8 e5 a0 3d
       0.121166214 -0.04557953 -0.011678664 0.07856339
000120 23 b8 44 bd 72 84 1e 3d e2 c3 a7 bd 77 f9 a7 3d
       -0.04802717 0.03870053 -0.081916586 0.082018785
000130 f7 cb 94 bd 42 73 db 3b cc 96 7f 3d 38 f6 a4 3d
       -0.07265466 0.0066970894 0.06239967 0.08054775
000140 52 78 65 3d fb bc 8c bd 6f a8 6b 3d 6d 65 16 bd
       0.05602295 -0.06871983 0.057533678 -0.03671782
000150 c5 c2 a3 bc 18 fb 5b 3d 1c 00 d3 3d 48 de c8 3d
       -0.019990334 0.05370626 0.10302755 0.09808022
000160 40 f0 43 3d 66 e7 4e 3d 45 9a db 3c 72 01 3a 3d
       0.047836542 0.050513647 0.02680696 0.045411535
000170 fc c3 b2 bd cc 8e 00 bc d3 73 ae 3d 16 50 ad 3c
       -0.08728787 -0.007846545 0.085181855 0.021156352
000180 4b 12 fa 3b 58 ed 94 bd 62 10 27 bd f4 4c f5 bc
       0.007631575 -0.07271832 -0.04078711 -0.02994392
000190 05 12 d2 bd 7d 18 bf bc 36 2a 51 3d 73 5d 5c 3b
       -0.10257343 -0.023327107 0.051065646 0.0033625036
0001a0 bc e0 37 bc 15 6b 6c bd 5a 3c 01 bc 80 c7 8e 3c
       -0.011223014 -0.05771931 -0.007887924 0.017429113
0001b0 5f a8 34 bd 44 a8 02 bd a2 41 31 bd b0 62 89 bd
       -0.044105884 -0.03189875 -0.043275483 -0.06708276
0001c0 de 58 9f 3d 92 af a7 bc dc f4 85 bd ad 2e 0e 3d
       0.07780622 -0.02046946 -0.06540844 0.034712482
0001d0 8a 9f 64 3c e6 98 ad 3d 7e 4f fe ba da 61 9a bd
       0.013954053 0.08476429 -0.0019402353 -0.07538195
0001e0 54 5f 8e 3d 60 a8 f2 3c f3 19 19 bc ce 79 da bc
       0.06951776 0.029621303 -0.009344566 -0.02666941
0001f0 f6 6b c9 bc 02 79 96 3c 5f 90 26 bd ca 2c ea bc
       -0.024587613 0.018368248 -0.040665027 -0.02858581
000200 a9 98 eb bb 6a 4c b1 bd 94 5c 90 3d ae cb 08 bd
       -0.0071898294 -0.08657153 0.07048908 -0.03339737
000210 18 44 41 3c a2 e2 37 3d 54 ba 99 bc f7 72 46 3c
       0.01179602 0.04489387 -0.018765606 0.012112371
000220 10 13 b0 3b 9e 13 9b bd d8 1a 84 bd ec 80 45 bc
       0.005373366 -0.07572101 -0.064504325 -0.012054663
000230 1a ef 58 3d 86 a0 41 3d 6a 6a bc 3c 9b 4b 7c 3b
       0.0529624 0.047272228 0.02299996 0.0038497213
000240 6f 92 9f 3d 62 23 92 3d 27 59 5b bd 09 5b 94 3d
       0.07791602 0.07135655 -0.05355182 0.07243926
000250 c5 0e 20 bb bc 1c 09 3d b6 6b ce 3d 6a 2a 6d 3d
       -0.0024422866 0.03347467 0.10079138 0.057901777
000260 8a 9d cf 3c d3 97 52 3d d2 a8 a1 3c a0 94 80 3d
       0.025343675 0.051414322 0.01973382 0.06278348
000270 f4 22 98 3d ec 4e 74 3d 8b 88 4e 3d 1f e7 da bc
       0.07428542 0.05964558 0.050423186 -0.026721535
000280 dd f1 c3 3c 00 5c 74 bc f7 c6 cb 3c a0 ba 15 3c
       0.02391904 -0.014914513 0.024875147 0.009138733
000290 03 48 81 3d 5a b5 77 3d bc f6 0c 3c 2a fa a9 3c
       0.06312563 0.060475685 0.008603748 0.02074917
0002a0 58 d4 8a bd 42 6c 53 3d 52 f2 85 3d 1a a0 ab 3d
       -0.067787826 0.051616915 0.065403596 0.08380146
0002b0 1c 09 90 bd c2 4f 23 bd 1a 7d b0 3d 60 85 82 bd
       -0.070329875 -0.039870985 0.08617611 -0.063730955
0002c0 58 27 73 3d 90 d8 81 3d 10 10 eb bc 7a 97 56 bd
       0.059363693 0.06340134 -0.028694183 -0.052390553
0002d0 52 a5 94 bd bc 31 8f bd 24 10 c4 bc 1c c2 f5 3c
       -0.07258095 -0.06991908 -0.023933478 0.029999785
0002e0 16 81 4d bd c0 dd 47 3d 32 72 80 3d 68 cb 67 3d
       -0.050171934 0.04879546 0.06271781 0.056590468
0002f0 65 26 8c 3d d5 78 1e 3d fc 58 97 3d 3c 68 41 3d
       0.06843261 0.038689453 0.07390019 0.047218546
000300 26 59 05 bd ae 45 98 bd 9e b0 10 3d 72 af 69 bd
       -0.03255572 -0.07435165 0.035324685 -0.057052083
000310 3a b0 ca 3c a0 78 11 3c 3c c8 8f 3d d8 1e 9c bd
       0.024742234 0.008878857 0.070206136 -0.076230705
000320 05 8d 75 3d 49 d5 c7 3c ae f6 b4 bc fc 54 96 3d
       0.05994894 0.024393694 -0.022090282 0.07340428
000330 8e 24 32 bd be c8 17 3d 24 88 a5 3c a2 7c d1 bb
       -0.043491893 0.037056677 0.020206518 -0.006393031
000340 cb de 80 bd a0 1f 62 bd db f3 a5 bc 8c 59 5a 3d
       -0.062924944 -0.05520594 -0.02025788 0.053308055
000350 f2 9a 9e 39 4c 14 18 3c 12 19 8d 3d d5 5a 9e 3d
       0.00030251552 0.009282183 0.068895474 0.077321686
000360 e6 7b c1 3d 04 fc f4 bb a2 d2 35 bd 0e 6e aa bc
       0.0944746 -0.0074763317 -0.04439033 -0.020804431
000370 48 f9 67 3d 84 ee b5 bb 26 8d 85 3d 10 6a 7a 3d
       0.056634218 -0.005552115 0.065210626 0.061136305
000380 20 67 42 bd 4b 62 72 3d 24 f4 2a bc 9a 20 0b bd
       -0.04746163 0.05917577 -0.010434184 -0.03396664
000390 92 35 5b 3d e6 27 a7 3d cc 8a 95 3d a7 32 a4 3c
       0.053517886 0.08161907 0.07301864 0.020043684
0003a0 ce d0 4a bd dc 85 67 bd c4 bf d9 bc 33 b1 a7 3d
       -0.049515538 -0.056524143 -0.026580699 0.08188095
0003b0 bc 2f a3 3d ac a9 9d bc 5a f1 8d bd 8d d4 d0 bc
       0.07968089 -0.019245945 -0.069308 -0.025491977
0003c0 a8 97 c3 3c 76 e1 23 bd 40 de 10 bd 72 13 9f 3b
       0.023876026 -0.04000994 -0.035368204 0.004854613
0003d0 6a b9 cf bd 48 44 5a 3d ca 93 32 bd 0c 97 e3 3c
       -0.10142787 0.053287774 -0.043597974 0.027781986
0003e0 56 15 a3 bc 1f 86 48 3d 75 88 66 bd b0 b0 da 3c
       -0.019907635 0.048956033 -0.05628248 0.02669558
0003f0 a2 bc d6 bc d2 22 69 bd 8e 1e 50 3d e8 dc b5 3d
       -0.026212994 -0.056917973 0.05081039 0.08880025

layer2.weight f4 [256, 256]
000000 42 86 b9 3d a0 0d 14 3d 42 07 32 3d 3a c6 b8 3b
       0.09058811 0.036145806 0.043463953 0.005638865
000010 f2 ef 38 bd 78 2a 77 bd a2 c4 e0 bc d0 f6 46 3c
       -0.045150705 -0.060343236 -0.027437512 0.012143806
000020 ff 73 e5 3c 52 08 6c 3d e4 39 1d 3c 31 fc 01 3d
       0.028009413 0.057625122 0.009596322 0.03173465
000030 59 89 88 3d db 6f fa bb f6 b7 23 3d 82 b3 5d bd
       0.06666822 -0.0076427287 0.03997036 -0.05412627
000040 dc ef 1b bb 58 4c 28 3d eb 63 c1 bc f8 be 24 bc
       -0.002379409 0.041088432 -0.023607215 -0.010055296
000050 4e 66 33 3d 4a ce 17 bd 88 39 39 bd 33 7a 2c bd
       0.043798737 -0.037061967 -0.04522088 -0.042108726
000060 06 51 7d 3c de 50 77 3d 9e d4 48 3d 6c 63 47 bd
       0.015461212 0.060379855 0.049030893 -0.0486788
000070 cc ad 0f 3d bb c2 ed bc 08 37 8b bd 64 a0 36 3d
       0.035077855 -0.029023519 -0.06797606 0.044586554
000080 c2 40 5f bd b8 82 5b bd f8 e7 74 3d 18 3e 5e bd
       -0.054505117 -0.05359146 0.059791535 -0.054258436
000090 9a b8 ac 3a bc b7 4b 3d b2 5c 2f bd a0 08 8d 3d
       0.0013177574 0.04973577 -0.04281301 0.06886411
0000a0 5e 04 68 3c 46 6d 25 bc 55 84 3e 3d e2 b7 6b bc
       0.0141611975 -0.010096854 0.04651292 -0.014387103
0000b0 26 ba 7e bd 55 e3 84 3c 1b 74 85 bd 7a 67 2e 3d
       -0.062189244 0.016221682 -0.06516286 0.04257915
0000c0 ca a8 20 3d e0 ec 96 ba c0 19 83 3d 6e 86 06 3c
       0.03922347 -0.0011514686 0.06401396 0.0082107615
0000d0 6e 53 75 3c da 6f 11 3d 22 07 3c bc 76 d9 51 bd
       0.0149735045 0.03550706 -0.01147631 -0.051232778
0000e0 be db 3b 3d 34 aa 0d 3d 63 e4 55 bd 4a ed 5e bd
       0.04586386 0.034586146 -0.05221976 -0.054425515
0000f0 f8 19 93 bd 0a ad 70 bd 48 fc 6a bd 0b 31 43 3d
       -0.071826875 -0.058758773 -0.0573695 0.047654193
000100 b4 0c 25 3d b0 c7 42 bd 7a 0f c2 3b 70 b0 af 3d
       0.040295318 -0.047553718 0.005922255 0.08578575
000110 7c 71 4e 3d 7e 06 c6 3b c2 f9 18 3a bc 9b 3b bc
       0.050401196 0.0060432544 0.00058355567 -0.011450704
000120 92 70 f0 3c 8a e2 50 3d 05 f3 2a 3c 3d c5 8e bc
       0.029350553 0.050997294 0.010433917 -0.017428035
000130 f0 e5 f4 bc 6e 7c bd 3c 74 29 04 bd 4c f3 1b 3c
       -0.029894799 0.023130622 -0.032266095 0.009518456
000140 76 a8 57 bd 26 51 73 bc c3 f6 88 bd 81 9c 0c bd
       -0.05265089 -0.01485089 -0.06687691 -0.03432894
000150 75 bb e7 3c 3a 93 c2 3c 1a a3 c2 3c 96 1b 63 bb
       0.028287629 0.023751844 0.023759414 -0.0034653894
000160 d7 d4 ee 3c 62 24 4a bd 5e da bb bc ff c6 18 bc
       0.029154224 -0.049351104 -0.022931274 -0.009324788
000170 6d f0 de 3c 50 67 53 3d 26 dd 39 3c f6 93 57 3d
       0.027214253 0.0516122 0.01134423 0.05263134
000180 68 05 59 bd 24 be 4e 3d 73 7d b9 bd 9b 5d 09 3c
       -0.05298367 0.0504743 -0.09057131 0.008384134
000190 05 2c 51 3d 92 9a 14 3d b6 20 2e 3d 60 80 0e bd
       0.05106737 0.036280222 0.042511664 -0.034790397
0001a0 2e 89 9e bc e0 cc 2d bd 72 62 bf bc 1e 04 ff 3a
       -0.019352522 -0.042431712 -0.023362372 0.0019456183
0001b0 4c 4e 17 bd 38 4d 6b 3d 28 33 b4 3d 48 4a 88 3d
       -0.036939904 0.05744669 0.0879882 0.06654793
0001c0 46 ac 6a bb a2 6f cf bc 82 4e 77 3c 3e 26 83 bd
       -0.003580825 -0.025321785 0.015094401 -0.064037785
0001d0 be 90 45 bb 36 07 8d 3d 9a 3d 4a 3d f2 94 2f bc
       -0.0030146088 0.06886141 0.049375154 -0.010716664
0001e0 00 6c 6c 3d 86 1f fb 3c 0c 3d 50 bd 53 e1 95 3a
       0.057720184 0.03065468 -0.05083947 0.001143495
0001f0 c1 5e 4c bd 23 58 2c 3c 5a 1a 27 bd e0 1d b1 bc
       -0.049895052 0.01051906 -0.040796615 -0.02162069
000200 5c 8f 8c 3c da 3a 22 bc 3b d9 0c bd de b3 80 bc
       0.017158203 -0.009901727 -0.034386855 -0.015710767
000210 37 33 79 3c 53 43 82 3d 2c 4c df 3c fa 34 65 bc
       0.0152099645 0.06360497 0.027258001 -0.013989681
000220 c3 61 8d 3d 4e a6 10 3d de 1d 47 3d fa ff 5d bc
       0.06903412 0.03531485 0.048612468 -0.013549799
000230 4a dd 64 3d a9 33 d5 bb e3 7e d3 3a 90 4b 22 bc
       0.0558751 -0.0065064025 0.0016135838 -0.009905711
000240 87 21 ca bc 24 30 02 3d 1b 5f d3 bc 22 02 e7 3c
       -0.02467419 0.03178419 -0.025802186 0.02819926
000250 d7 a2 2a bd 01 8f ef 3c b0 40 5a bd 60 63 b0 bc
       -0.041659202 0.029242994 -0.053284347 -0.02153176
000260 da 15 84 3c 4e b9 7d 3c e9 98 c7 bd 14 fb 9c 3b
       0.0161237 0.015486075 -0.09745962 0.004790673
000270 c4 31 71 bd f4 e2 1a b9 25 c9 51 bc 98 c8 ec 3b
       -0.05888535 -0.00014771131 -0.012804304 0.007226061
000280 90 82 5c bd 99 37 3c 3c fd 77 8e bc 27 10 2c bc
       -0.05383545 0.011487865 -0.0173912 -0.010501898
000290 7b 89 72 bc 61 87 09 ba f2 8c ea 3b fc 03 ae bc
       -0.014803286 -0.0005246308 0.0071579153 -0.021242134
0002a0 76 9f c2 bc fe 16 59 3d 13 b8 c7 bc b8 2f ea bc
       -0.023757678 0.053000443 -0.024379766 -0.028587207
0002b0 4e a7 01 bd 26 22 26 3d c2 65 41 bd 4a bf 78 bd
       -0.031653695 0.04055991 -0.047216184 -0.060729302
0002c0 90 94 32 3b 92 f8 3a 3d 00 c1 7d 3d 08 47 22 bd
       0.0027249195 0.04564721 0.061951637 -0.039618522
0002d0 05 f7 1a bd 20 e4 f2 bc 67 7b 68 3d 5c 8b 1b ba
       -0.037833232 -0.029649794 0.05675831 -0.0005933547
0002e0 da d6 63 bd 46 a5 7d 3d 7a bc 0d 3c 46 36 64 bd
       -0.05562482 0.061925195 0.008650893 -0.05571582
0002f0 cd a5 42 3d 10 f5 9c 3d fa c4 24 3d a8 15 81 bc
       0.0475214 0.076639295 0.040226914 -0.015757397
000300 14 88 a0 3c fb 6b c7 bd 82 17 40 bd e5 95 2a 3d
       0.019596137 -0.097373925 -0.04689742 0.041646857
000310 bd 44 46 bd 4a e1 bb 3c a4 bb 96 3d a0 e5 66 bd
       -0.048405398 0.022934575 0.07360008 -0.05637133
000320 46 4f e7 bd 69 fe 00 3d f0 70 23 bd 51 3b 91 bc
       -0.11294417 0.031492624 -0.039902627 -0.01772848
000330 13 9c 99 3c 2f b3 c7 3b 02 1c 32 3d 4b 0f 53 bd
       0.01875118 0.0060943584 0.04348374 -0.051528256
000340 8e cf 19 3c 16 b6 27 3d 94 dd e4 bc a8 64 ce bc
       0.009387864 0.040945135 -0.027937688 -0.025194481
000350 f7 71 1c 3c 77 9d f4 bd 78 c2 6b 3c 06 11 0d bd
       0.009548656 -0.119440965 0.014389627 -0.034440063
000360 dc 1f d2 bc 6a 8c 25 bd 7c b2 b9 3d 8d 70 31 3b
       -0.025649957 -0.040417112 0.09067246 0.0027075142
000370 00 92 b1 3c aa 92 25 3c a8 a8 d1 3c 45 68 6b bd
       0.021676064 0.010105768 0.025593117 -0.057472486
000380 7e e0 4c 3d db af 53 bb c2 d2 c1 3c f6 6f 23 3d
       0.05001878 -0.0032300863 0.023660067 0.039901696
000390 70 4d 6c 3d 18 6b fd 3c 4a 3c 2e bd 02 90 1f bd
       0.057691038 0.030934855 -0.042537965 -0.038955696
0003a0 c0 66 24 be 34 55 cd 3c b2 d4 22 bc bc bb 9a 3c
       -0.16054821 0.025065042 -0.009938406 0.018888347
0003b0 1a 9a 24 bc 12 03 63 bd e6 66 1c bd b6 4d f2 3a
       -0.010046506 -0.05542285 -0.03818407 0.0018486294
0003c0 c7 11 8b 3d b0 7c 7e 3d d2 6e ba bd 3c af 3a bd
       0.067905 0.06213063 -0.091031685 -0.045577273
0003d0 bb ea 41 3d a6 a4 85 3c 93 5d ea 3b 2a 55 7a bb
       0.047342997 0.016313862 0.007152268 -0.0038197734
0003e0 da bb ad bc 56 42 fd 3b 3c 97 41 3c ee 3c 27 3d
       -0.021207739 0.007728855 0.011815842 0.04082959
0003f0 61 5f 22 bd b2 e9 26 bb a2 11 1c 3d 06 d8 76 bc
       -0.03964174 -0.0025468883 0.038102753 -0.015066152

layer2.bias f4 [256]
000000 a9 2f 08 bd a1 44 30 3d 48 14 6f bd 40 f5 4a bd
       -0.033248577 0.0430342 -0.05836895 -0.049550295
000010 fa a0 63 bd f0 8a eb 3c 29 93 62 bb 46 5f 86 3b
       -0.05557344 0.028752774 -0.0034572578 0.004100713
000020 a2 66 3c 3d 68 0b 97 bc 80 78 87 3d 3c f7 0e 3d
       0.045996316 -0.018438056 0.066147804 0.03490375
000030 b6 d4 6d 3d 12 3d 2b bd 68 62 38 3d 40 63 35 bd
       0.058064185 -0.041806288 0.045015723 -0.044284105
000040 fc fd 2d bd 54 7a 69 3d 74 8f d3 3c cc 33 9e 3c
       -0.042478547 0.057001427 0.02582524 0.019311808
000050 4b 80 8a bc 9a fd 7e bd 60 f5 12 bd 79 c5 a1 3c
       -0.016906878 -0.062253572 -0.03587854 0.019747483
000060 3b 24 62 3d 9e 77 01 3d 84 c8 61 bc a0 d7 21 3d
       0.055210333 0.031608216 -0.013780717 0.039512277
000070 f4 6e cc ba f4 2b ff 3c 4a 02 83 3d 34 c5 1d bd
       -0.0015597031 0.031148888 0.06396921 -0.038518146
000080 a5 65 61 bd 15 3e 03 3d a6 53 74 3d c8 1b 39 3d
       -0.055028576 0.032041628 0.059650086 0.04519251
000090 65 05 07 bc 5d 50 75 bd 2f e5 8d 3c fc 64 95 3c
       -0.008241032 -0.059891094 0.017321197 0.01823663
0000a0 99 b5 20 bd 1c 3a 32 bd ae 7d b6 bc 42 4f 27 3d
       -0.039235685 -0.04351245 -0.022276726 0.04084707
0000b0 f2 f4 18 3d 44 a8 90 bb d8 b7 8b 3d 64 e9 a4 bc
       0.037342973 -0.00441459 0.06822175 -0.02013082
0000c0 92 5d 37 bc 2a 1d 23 bd 2e 4a a3 3d 78 32 c5 3b
       -0.0111917425 -0.039822735 0.07973133 0.0060179792
0000d0 da f3 a4 3c eb fe cf 3b 30 be 45 3d ca 88 5d ba
       0.020135809 0.0063475273 0.04827708 -0.0008450864
0000e0 bc 2d 96 3c d8 55 d0 bc ce b4 19 bd 29 f3 3a bd
       0.018332355 -0.025431558 -0.037525944 -0.04564205
0000f0 94 c2 1e 3d be 78 8d bb cb 86 94 3d 2c 78 0a bd
       0.038759783 -0.004317372 0.07252272 -0.03380601
000100 2c fc 2f 3d ef 9e 25 bd 7a 97 18 bd 1e 6a 85 3d
       0.0429651 -0.040434774 -0.037253834 0.06514381
000110 8d 70 87 3d 64 e7 8f 3a 56 a1 65 bd 92 42 f2 bc
       0.06613264 0.0010978994 -0.056062065 -0.029572759
000120 e0 6c 9a 3c 07 59 a9 bc a8 3f 60 3d bd 0d 86 3c
       0.018850744 -0.020672334 0.054748207 0.016363973
000130 ce 53 a7 bc 14 e0 a9 3c ce 6e 8a 3d 3a 96 11 bc
       -0.020425703 0.020736732 0.067594156 -0.008885914
000140 04 ac 8a 3b dc 7a fb ba 29 eb f9 3c b5 2a 24 3d
       0.0042319316 -0.0019186395 0.03050764 0.04007979
000150 ba 3e 6b bc f0 b4 6c bd 42 33 75 bd cc bf 20 bd
       -0.014358217 -0.057789743 -0.059863336 -0.03924541
000160 d4 a2 1d bd b6 c3 fd 3c 77 87 2f bd 60 ff 01 3c
       -0.038485363 0.030977111 -0.0428538 0.007934421
000170 20 ec 64 3c d2 79 a0 bb 82 46 20 bc c4 71 96 bc
       0.013972312 -0.0048973346 -0.009782435 -0.018364795
000180 64 81 a5 3d 4a fe 37 bd 98 b3 1a 3d 3c 51 1d 3d
       0.0808132 -0.044920243 0.03776893 0.03840755
000190 05 1e bf 3c 6a e2 b8 3c 1b 5a da 3c 98 69 79 bd
       0.023329744 0.0225689 0.026654294 -0.060891718
0001a0 da 71 d9 bc 11 44 8f bc 62 ca 6a 3d 7e da d3 3c
       -0.026543546 -0.017488511 0.057321914 0.025861021
0001b0 f4 57 49 3d 76 52 c3 bc 8a 08 8b bd f4 a4 5b bd
       0.049156144 -0.023843031 -0.06788738 -0.05362411
0001c0 84 52 98 3c 9b c1 82 3c 3f 8e e1 bc 48 0e 0d 3d
       0.018594034 0.015961459 -0.027533649 0.034437448
0001d0 fb 8f 9c 3b 52 4e 67 bc 95 b2 cf bc 52 f1 27 bc
       0.004777906 -0.014117794 -0.02535371 -0.010250406
0001e0 81 a9 82 bd 28 87 0d 3d 92 50 13 bd 00 2c c8 3b
       -0.063799866 0.034552723 -0.03596551 0.006108761
0001f0 54 fd 4a bc 39 f8 81 bc 80 92 4f bd e0 4e 59 3b
       -0.0123895 -0.015865432 -0.050676823 0.0033158585
000200 d4 fa 87 3d da ae d5 bc 7f 76 98 bc 92 b7 ae 39
       0.066396385 -0.026084352 -0.01861119 0.00033324637
000210 96 ca a1 3c 2c 00 ab 3c 29 6a 60 bc 52 d8 1f 3d
       0.01974992 0.020874105 -0.013697186 0.03902466
000220 24 71 9c 3c 70 d0 f2 bc 38 0b 5c 3d 21 02 1e bc
       0.019096918 -0.029640406 0.053721637 -0.009644062
000230 6f 5b c1 3c cf 2f e6 bc ee 0e 0e 3d 52 68 76 3d
       0.02360317 -0.028098969 0.034682207 0.06015808
000240 ed 16 1f 3c 24 de 8c 3d 9a 60 3c bc d9 d6 c9 3c
       0.009710056 0.068783075 -0.011497641 0.02463858
000250 44 f0 19 3c 64 42 7d bd b4 52 32 bd 2c 8e 2f 3d
       0.009395663 -0.061830893 -0.043535903 0.042860195
000260 1a b2 82 3d 8e ae 44 3b 27 48 5c 3d f9 84 2d 3d
       0.063816264 0.003001127 0.053779747 0.04236314
000270 82 00 99 3a bc 23 3a 3d 2a 18 2c 3d a4 be 12 3d
       0.0011673125 0.045444235 0.042015232 0.03582634
000280 16 ff 65 bb 5c 23 a6 bc 3c 54 41 3d be f4 59 3d
       -0.003509467 -0.020280533 0.047199473 0.05321192
000290 0c 5f 88 bb d7 97 38 bd 72 57 2c 3d 08 48 a1 3c
       -0.004161721 -0.04506668 0.04207558 0.019687667
0002a0 48 97 15 bd 68 44 30 bd 91 14 93 3c 81 06 5b bd
       -0.036521226 -0.043033987 0.017954143 -0.053473
0002b0 ca 38 38 bd da c5 f3 bb 52 8c 72 3b fe dd 45 bc
       -0.044976033 -0.007439357 0.0037009907 -0.012076853
0002c0 be a9 21 3d 5d 10 25 bd cc b7 4e bd 38 d0 d0 3c
       0.03946852 -0.04029881 -0.05046825 0.025489911
0002d0 47 c3 29 bc de 53 32 3c f8 c9 26 3d 32 ca f4 3c
       -0.010361499 0.010884253 0.040719956 0.02988157
0002e0 70 cd 3b 3c 5f 8f 86 bd de da 25 3c 1c d4 20 3d
       0.011462554 -0.065703146 0.010122983 0.039264783
0002f0 4d 42 4a bd 60 84 64 3c 90 aa ab 3d 92 33 72 bd
       -0.049379636 0.013947576 0.083821416 -0.059131213
000300 66 b2 46 bd c5 c1 40 bd 5d 68 30 3d 50 de 90 3d
       -0.048509978 -0.047059793 0.04306828 0.07073653
000310 18 d1 6a 3d 6e 10 83 3d 60 fe 42 3d 6c ed c3 3b
       0.057328314 0.06399618 0.047605872 0.0059792306
000320 3a 17 4c bd d6 4b 13 bd 54 e1 32 bd ea 7d 24 bc
       -0.049826838 -0.035960995 -0.04367192 -0.010039786
000330 26 d6 fd bc 7d da 9a bd 80 b5 ed bc 41 7e 92 3c
       -0.030985903 -0.075612046 -0.02901721 0.017882468
000340 b6 6a 36 bd 48 7b 4b 3d 72 fa 78 bd a0 8c 3f bd
       -0.04453536 0.049678117 -0.06078572 -0.04676497
000350 52 78 7c bc e3 6b 01 3d c8 9d 42 bd 9e 2f 10 3c
       -0.015409546 0.03159703 -0.047513753 0.008800415
000360 c5 4c 99 bc f9 33 4d bd 0e 26 cf 3b 45 19 28 3d
       -0.018713364 -0.050098393 0.006321675 0.041039724
000370 b8 c1 2a bd 4d 7c 56 bd 19 25 88 3c ea 70 3b 3d
       -0.04168865 -0.052364636 0.016619252 0.04576198
000380 82 fd 17 bd 0a a0 54 bd 20 92 67 3d 3b a1 de 3c
       -0.037107 -0.051910438 0.05653584 0.02717649
000390 8e 96 f9 bc 5d a7 8c 3c 38 da 3a bd c8 8d 06 bd
       -0.030467298 0.017169649 -0.045618266 -0.032850057
0003a0 f2 67 13 3c 31 d3 11 bd 67 3c 3c bd fa e5 5d 3d
       0.00899695 -0.0356018 -0.04595604 0.0541744
0003b0 bd 77 4a bd 31 f4 40 bb bc b3 e5 3c 32 c9 9b 3b
       -0.049430598 -0.0029442424 0.028039806 0.004754209
0003c0 62 ab 8c 3d 8a de 3a bc 2a 9b 6e 3d de 54 62 3d
       0.06868626 -0.0114055965 0.058253445 0.055256717
0003d0 24 4c ec 3c 68 57 f4 3c ea c9 63 3d ee 4d 88 3c
       0.0288449 0.029826835 0.055612482 0.016638722
0003e0 f0 fa bc bb 96 ee ae bc ea 1f 23 bc 27 ec 6d 3d
       -0.005767219 -0.021354001 -0.009956339 0.05808654
0003f0 f8 f7 91 3c 08 5b 2b bd 65 6f 7e 3b 54 23 57 bd
       0.017818436 -0.04183486 0.003882372 -0.052523926

layer3.weight f4 [256, 256]
000000 4d 16 ec 3c 55 d1 e5 bc a6 1a 68 bd a3 64 2c bc
       0.028819228 -0.028053919 -0.05666604 -0.010522041
000010 94 16 6c bd a0 cb 33 bd d9 ba 16 3d 30 59 5a 3d
       -0.05763872 -0.043895364 0.036799286 0.053307712
000020 23 06 c9 bd 12 67 6c 3d 2b 80 02 3d 27 cb 7b bd
       -0.098156236 0.057715483 0.03186051 -0.061473038
000030 38 c7 3c 3c b8 58 a9 3c 5a 31 04 bd 1e 6f be 3b
       0.011522107 0.020672187 -0.032273628 0.005811586
000040 30 dd cf bc b4 1b 3d 3d 62 4b 34 3d ec 2d a9 3c
       -0.025374025 0.046168998 0.044017203 0.02065178
000050 97 be 53 3d 96 01 14 3d d3 f2 2c bd fc dc 7d 3c
       0.051695433 0.036134325 -0.042223763 0.015494581
000060 a3 0e d4 3c 07 98 fa bc ea 10 7a bd ec c6 69 3d
       0.025885886 -0.03059007 -0.061051287 0.057074472
000070 98 2f 7c bd 5c 38 18 bc a5 e5 95 bb 35 5d 23 3d
       -0.061568826 -0.009290781 -0.004574495 0.03988381
000080 14 0b 91 bc 4f 72 2f bd 26 7f 53 bd b7 60 85 bd
       -0.017705478 -0.042833623 -0.05163493 -0.065125875
000090 b9 59 20 bb ee 15 38 3c 12 5d 0c bc e1 2a 2e bd
       -0.0024467541 0.011235697 -0.008567112 -0.04252136
0000a0 09 10 66 bd d2 72 a2 3b 7a 29 f6 bd 91 2f e9 3c
       -0.056167636 0.0049575353 -0.1201963 0.028465064
0000b0 fa 39 0f 3d f2 bf 60 bb ff e5 3f bd 33 5b b4 3a
       0.0349674 -0.0034294096 -0.0468502 0.001376009
0000c0 30 46 25 bd 84 ef 71 bd f3 c6 eb bd c6 31 0a 3d
       -0.04035014 -0.05906631 -0.11512556 0.033738874
0000d0 ae 97 12 3d 5a c0 5c bc 32 c0 47 bd e6 67 02 bd
       0.035789184 -0.013473595 -0.048767276 -0.031837367
0000e0 a4 a9 0a bd ea ee 28 3d b6 bd e5 bc 8a e0 bd bd
       -0.03385319 0.04124347 -0.028044563 -0.09271343
0000f0 da 01 60 3c b0 f2 1d 3d 10 7d c8 bc 44 b1 4e bd
       0.013672316 0.038561523 -0.024473697 -0.050462022
000100 99 29 48 bc 04 91 e3 bc b2 43 41 3c a2 d5 51 3d
       -0.012216949 -0.02777911 0.011795925 0.051229127
000110 00 f7 f5 3c ac 2a 3b bd 08 38 69 3d 47 a8 87 bc
       0.030025005 -0.045694992 0.0569382 -0.016559733
000120 30 00 ba bc 90 d0 7a 3d c4 90 29 bd 02 1d 1d bd
       -0.022705168 0.061234057 -0.041397825 -0.038357742
000130 bd c5 fc bb 4c e1 50 bd 60 c2 fe bc 57 c2 05 bd
       -0.007714002 -0.05099611 -0.031098545 -0.03265604
000140 ac d7 1d 3b fa bc a1 bc fe b0 61 3d 2e b0 61 3d
       0.002408485 -0.019743431 0.055100434 0.05509966
000150 dc 20 43 3d 4a e2 66 3d 24 eb 58 3b e6 63 2f 3c
       0.04763876 0.05636815 0.003309914 0.01070497
000160 f6 e6 c1 bc 3b 98 64 bb de 9b 99 bb 23 72 06 3d
       -0.023669701 -0.0034880775 -0.0046877703 0.032823693
000170 e9 a6 f9 ba ac 42 b9 3b 87 d8 04 bd 7c 84 a5 bb
       -0.0019046935 0.0056537 -0.03243306 -0.0050511938
000180 6a b9 16 3d 4a 86 4e 3d 72 e4 8b 3c f4 a3 51 3d
       0.03679792 0.050421037 0.017076705 0.05118175
000190 1a 67 10 3c a2 11 c6 bb 62 a5 90 3d 9a 10 53 bd
       0.008813644 -0.0060445825 0.07062794 -0.051529504
0001a0 a4 d5 50 bd 66 76 6e 3d 91 12 6f 3d 4e 12 1b 3d
       -0.050984994 0.058218382 0.058367316 0.037859254
0001b0 3a c9 38 bd e4 ec 16 3d 56 f3 c7 3c 4a da 13 3d
       -0.04511378 0.03684701 0.024408024 0.03609685
0001c0 ef 87 05 3d c8 d4 98 3c e8 17 84 3d 89 8d 02 3d
       0.03260034 0.01865615 0.06449872 0.03187326
0001d0 18 23 fe 3b dd d1 88 3c 0c 98 63 3d 98 c3 ca 3c
       0.0077556483 0.016701633 0.055564925 0.02475147
0001e0 47 6e 05 3d 32 b4 2d bd be 78 d6 3b 50 66 68 3d
       0.03257587 -0.042408176 0.0065451553 0.056738198
0001f0 ac 1b ba 3c 1e 1f 1c bd 92 42 5c bc de d3 71 bc
       0.022718273 -0.038115613 -0.013443606 -0.014759986
000200 58 3c 8b bc b2 81 19 3c f2 7a aa ba 30 b7 6a bc
       -0.016996548 0.009369301 -0.0013006611 -0.014325902
000210 86 46 0d bd 8b df 0f 3d fc 53 10 3d 02 8f 1b bc
       -0.034491085 0.035125297 0.035236344 -0.009494545
000220 66 6a 64 bd 71 9f a5 bc 3a a4 5f bd 20 2c 96 bd
       -0.055765532 -0.02021763 -0.054599978 -0.07332635
000230 45 86 89 3c f8 2b fa 3c 23 eb 1a 3d d0 a4 65 bd
       0.016787658 0.030538544 0.0378219 -0.05606538
000240 fb ea 03 3d 5f e0 3c 3d df 9b 70 3d bd 5c 65 3d
       0.032206517 0.046112414 0.0587424 0.055996645
000250 ca 35 49 3d 68 8a 56 3d 6a 59 d0 3b 00 9b 6a 3b
       0.049123563 0.05237809 0.0063583152 0.0035797954
000260 28 c4 b8 3c e1 33 68 3b a0 0b ab bb 12 80 9d bd
       0.022554472 0.0035431313 -0.0052198917 -0.07690443
000270 52 3d 0d bd 70 49 ff bc f5 c1 00 3b 28 22 20 bc
       -0.034482308 -0.031162947 0.0019646857 -0.0097737685
000280 64 9a 6e 3c 76 a4 35 3b 98 e6 27 3d 7c 1c 20 bd
       0.014563177 0.0027716435 0.040991396 -0.039089665
000290 12 aa 60 bb a4 94 65 bc 22 ff 4f bd d7 2e 8a 3c
       -0.0034281057 -0.0140124895 -0.050780423 0.016868038
0002a0 00 e7 3e bd de 20 b6 3c 4f 3a fd 3d be 4d 88 3d
       -0.046607018 0.02223247 0.12364637 0.06655453
0002b0 75 a1 f8 bb 1e 9e de bc f2 f7 09 3d 2c b4 d0 bc
       -0.0075876066 -0.027175006 0.033683725 -0.025476538
0002c0 d5 45 42 bd 92 66 8c bb 70 be 97 bc 2d b5 61 3c
       -0.04742988 -0.0042846883 -0.018523425 0.013776106
0002d0 ba a2 58 3d 7d 14 5f 3d 1f ed 8d 3d e4 c4 62 3d
       0.052889563 0.0544629 0.06929993 0.05536355
0002e0 e1 d9 22 3c e8 f7 37 3d 1e 67 ba 3c dc be 85 3b
       0.009939642 0.044914156 0.022754248 0.00408159
0002f0 38 4b 4d 3d 74 08 64 3c 28 35 62 3d 72 95 21 3d
       0.050120562 0.013918031 0.055226475 0.039449163
000300 d3 64 9d bd 06 b0 2c bc 7a 6e 8a 3d 86 38 8e bb
       -0.07685246 -0.010540014 0.06759353 -0.004340234
000310 c3 1c 07 bd 4c 83 8f bd 15 0f 82 3d 36 ba 34 3d
       -0.032986414 -0.07007465 0.06350533 0.044122897
000320 7a 7f 46 bd 9e 40 3b 3c b6 51 4b bd 64 ae cb bc
       -0.048461415 0.01142898 -0.049638472 -0.02486343
000330 16 52 a9 3c ee 1d af bd 76 8d c0 bc cd 7b 4b bb
       0.020669024 -0.085506305 -0.023504954 -0.0031049133
000340 62 43 08 3d ff 30 a0 3c f4 70 54 bb e0 21 92 bc
       0.033267386 0.019554613 -0.0032415958 -0.017838418
000350 74 94 af bc a0 6f 6d bd 46 a2 fb bb b6 d9 8e b9
       -0.021433093 -0.057967782 -0.0076792566 -0.00027246558
000360 b2 04 a2 bc fa 49 a6 bb 72 a6 35 bd 16 65 74 3d
       -0.01977763 -0.0050747367 -0.044348188 0.059666716
000370 28 b4 7a bd 3e ed a6 3d c4 ce d0 3c 04 66 83 3d
       -0.061206967 0.08150719 0.025489219 0.06415942
000380 fc ed 56 bc 7a bb 8e bd eb 9c 2c bd 21 08 97 3d
       -0.013118263 -0.06969352 -0.042141836 0.07374597
000390 92 8d a5 3c 1d 2a 22 3d da 3c a6 3d b5 9c e6 3a
       0.020209108 0.039590944 0.08117075 0.001759431
0003a0 58 2b 59 3d e7 e8 5c 3d ba 35 39 3d 5e 33 f9 3c
       0.05301985 0.05393305 0.045217253 0.030420002
0003b0 2c 06 56 3d 34 67 71 bd de e4 2e 3d e8 a5 74 3d
       0.05225198 -0.058936313 0.042698734 0.059728533
0003c0 dc a1 46 3d f6 b9 87 3c c6 6e 66 3d 98 a1 8f 3d
       0.048494205 0.016568165 0.056257986 0.070132434
0003d0 90 5b 59 bd 3d b0 25 3b 7a a4 e2 3c ec 92 b5 bc
       -0.053065836 0.0025282048 0.02766632 -0.022164784
0003e0 01 e0 ba 3c 9e c0 20 bd 54 54 a6 3d 1c ec 8f 3d
       0.022811892 -0.039246194 0.08121553 0.07027456
0003f0 52 4c 18 3d 83 c3 90 3c 98 c5 6a bd e5 b2 58 3d
       0.03718216 0.017671352 -0.057317346 0.052904982

layer3.bias f4 [256]
000000 98 3f f4 3c 92 5b 39 3b 10 56 76 bd c0 8b 4b 3d
       0.02981548 0.002828334 -0.06014067 0.049693823
000010 f6 19 72 3d 82 b6 8f 3d 40 c8 2e bd a6 9a 89 bc
       0.05910679 0.070172325 -0.042671442 -0.016797375
000020 f2 2e 40 3d e4 e1 9f bc 97 72 ac bb 5a 4e d4 3c
       0.04691977 -0.019516893 -0.0052626836 0.025916267
000030 91 b0 2f bd ab 00 67 bd 58 13 31 bd ad c6 94 bc
       -0.042892996 -0.05639712 -0.04323134 -0.018161142
000040 aa 09 55 bd ed d0 40 bd 50 64 8e bc d6 32 ba bc
       -0.05201117 -0.047074247 -0.017381817 -0.022729319
000050 ec 21 fe 3c 82 df ff 3c 0e 11 df bc 9e 0e ec 3c
       0.031022035 0.031234507 -0.027229812 0.028815564
000060 8f 1c 4c bd b2 8f 08 bd 88 98 25 bc 16 2d 7c bb
       -0.049831923 -0.033340164 -0.010107167 -0.0038479022
000070 3e 3c 75 bd c6 ec 9e 3d f8 e3 9f bb b5 ba 9e 3c
       -0.059871905 0.07760005 -0.004879471 0.019376138
000080 98 23 2b bd 6f b9 65 3d a4 7c 1e bd dc 35 e5 3c
       -0.04178199 0.056085046 -0.038693085 0.027979784
000090 75 e4 dd bc 06 f4 a4 bc 9e 98 8a 3b e6 a9 f1 bc
       -0.027086476 -0.02013589 0.004229619 -0.02949996
0000a0 70 5c ed bb 66 f1 1f 3d d5 89 6a 3d 62 e2 0b bd
       -0.0072436854 0.039048575 0.057260353 -0.034151442
0000b0 c6 eb 82 3d f6 61 4d 3d b9 98 42 3b 5f 0f 49 bd
       0.063926265 0.05014225 0.002969308 -0.049086925
0000c0 de 8d e1 bc 98 e4 8b 3d c8 74 4c 3d ac 56 3b 3d
       -0.027533468 0.0683071 0.04991606 0.045736954
0000d0 18 24 50 bd a7 42 7e 3c 48 21 6c 3d 52 6d 13 bd
       -0.05081567 0.015518821 0.057648927 -0.035992928
0000e0 98 a3 0f 3d b4 8b ef bb d9 f3 12 bd 18 ea 40 3d
       0.035068125 -0.007310355 -0.035877082 0.04709825
0000f0 25 a1 2b 3d 08 fd f1 3c 68 cc 8f bc 59 83 67 3c
       0.041901726 0.0295396 -0.017553523 0.014130437
000100 42 a0 ea bc f4 82 37 bd 94 dc 90 3c 80 70 91 3d
       -0.02864087 -0.04480262 0.017683305 0.07101536
000110 e6 70 d9 bc 47 f4 17 bd 95 e2 39 bd 7d 3b 1c 3c
       -0.026543092 -0.037098195 -0.0453821 0.0095356675
000120 56 0a 36 3d fa f1 d2 3b ae a8 37 3d a8 8b 4e 3d
       0.04444345 0.0064375373 0.0448386 0.050426155
000130 83 f7 6a bc 8a 6c d5 3b 06 b3 8a bc 10 de 55 bd
       -0.014341238 0.006513183 -0.016931068 -0.05221373
000140 42 ab 6e 3c 10 9b 43 bd ec d6 da 3b ca 21 11 bb
       0.014567198 -0.0477553 0.0066784527 -0.0022145384
000150 c6 72 eb 3b 4a 19 82 bb bc c2 93 3c 92 c2 42 bd
       0.007185313 -0.0039703 0.018037193 -0.047548838
000160 f8 1f 0b 3d 97 53 f9 bc ae 6b 5a 3c 08 39 24 bd
       0.033966035 -0.030435367 0.013331337 -0.04009345
000170 6a 17 34 3d b8 45 02 3d 76 92 ff bc ce d1 25 3d
       0.043967642 0.03180477 -0.031197768 0.04048329
000180 65 48 80 3d d8 d5 b7 bc b0 95 5a bc 3e e9 5d 3d
       0.06263808 -0.022440836 -0.013341352 0.054177515
000190 7d 2b 00 3d 92 79 34 3d 12 dc dc bc 31 08 bb bb
       0.031291474 0.04406125 -0.026960406 -0.0057077636
0001a0 97 3a 5a 3d ee f4 9a 3c be 41 17 3d f2 6d 65 bd
       0.053278532 0.01891562 0.03692793 -0.056013055
0001b0 24 06 ea bc e9 26 63 3c de 8c 6a 3d 48 eb 99 3d
       -0.028567381 0.013864257 0.057263248 0.075155795
0001c0 80 30 26 bd 81 1d 05 bd ce db 90 bc 4c a0 83 bd
       -0.040573597 -0.03249884 -0.017682936 -0.064270586
0001d0 44 6f 37 bd 4a 78 52 bd fe 43 5c 3d 5a bc 77 3c
       -0.044783846 -0.051384248 0.05377578 0.01512059
0001e0 62 69 71 bc 3f 70 85 bc 56 5b 42 3d 8c f2 db 3a
       -0.014734598 -0.016288875 0.047450386 0.0016780659
0001f0 c4 a4 2e 3d e8 e8 69 bd c6 01 14 bb 7e 5d a9 3c
       0.0426376 -0.057106882 -0.0022584065 0.020674463
000200 54 f8 d9 bc 30 ec 16 3d c6 0e b7 bc 62 63 15 3c
       -0.02660767 0.03684634 -0.022345912 0.009117933
000210 28 30 52 3d 02 ab 20 bd 7a 22 38 3d a3 6e df 3c
       0.051315457 -0.039225586 0.044954754 0.027274435
000220 d9 70 0f 3d 77 2e 40 bd 0f 2f c5 bc 3a 45 36 bb
       0.03501973 -0.046919312 -0.02407029 -0.0027812258
000230 a2 69 15 3d fa 76 0e bd 51 39 1f bd 9e 95 ca bc
       0.036477692 -0.034781434 -0.03887302 -0.024729546
000240 82 91 3e 3d e6 96 8e bc a7 4b f9 bb ec 8d 29 bd
       0.046525486 -0.017405938 -0.0076078954 -0.041395113
000250 fe 51 c1 3c fc 1e 96 3b d6 9f fb 38 1e cf 26 3d
       0.023598667 0.0045813303 0.000119983844 0.040724866
000260 12 76 4e 3d 03 f3 a0 bc 76 b1 49 3d b0 f6 82 3d
       0.05040557 -0.019647127 0.049241506 0.06394708
000270 2a 6f 36 3d c2 a4 e3 bb 08 60 4b bd 51 93 a8 3a
       0.044539608 -0.006947131 -0.04965213 0.0012861287
000280 12 db 2c 3d ca dc 48 bd 8a 8a 37 bc 00 44 98 39
       0.04220111 -0.049038686 -0.011202464 0.00029042363
000290 a4 80 49 3d 16 5b 6e 3d 85 7d 8f bd 39 f2 70 3c
       0.049194947 0.058192335 -0.07006363 0.014706188
0002a0 c0 53 60 bd 79 a5 3a bc 96 a9 3c 3d 02 4a 91 3c
       -0.05476737 -0.011391991 0.046060167 0.017735485
0002b0 62 df ca bc eb 6d 85 bc c9 96 a8 bc 2d 80 68 b9
       -0.02476472 -0.016287765 -0.020579712 -0.00022172993
0002c0 d8 35 24 3d bc ac 3e bd 2e b9 7a 3d 73 7a fe 3c
       0.040090412 -0.04655145 0.061211757 0.031064248
0002d0 55 1a 72 3d d7 54 27 bd e9 c1 f3 bc ea 0e 79 bc
       0.059107143 -0.040852394 -0.02975555 -0.01520131
0002e0 53 ea 16 3d 54 a2 93 3d 18 5f 3f bd 6d 4f 9d 3d
       0.036844563 0.07208696 -0.046721548 0.07681165
0002f0 a7 3d 60 bd b0 8a dd bc b3 78 74 3d 32 ae 29 3d
       -0.054746296 -0.02704367 0.05968542 0.04142589
000300 24 ae 4c bc 78 8a 42 bd 80 77 67 3d 00 de 24 bc
       -0.01249269 -0.047495335 0.05651045 -0.010062695
000310 a2 18 64 3b 58 15 10 bd ba be eb 3c 2a ee 0d 3d
       0.0034804721 -0.035176605 0.028777469 0.03465096
000320 60 b0 c2 bc 26 3d 4d 3c 70 a1 37 3c 03 9e 0f bd
       -0.023765743 0.012526786 0.011207923 -0.0350628
000330 79 f4 0a 3d 6a 04 54 bd 2c 75 3c 3d 1a 7f f4 bb
       0.033924554 -0.051762022 0.04601018 -0.0074614407
000340 70 48 88 bd 70 8a 41 bd cf 5d 6b 3d b2 69 4a 3d
       -0.06654441 -0.047251165 0.05746251 0.049417205
000350 21 70 21 bd 9c 47 d9 3c 92 13 01 3d 06 d1 4c bd
       -0.039413575 0.026523404 0.031512804 -0.050004028
000360 6e 37 4d bc 68 0b 11 3b 38 7d 48 3d 6b 4c 1e 3d
       -0.0125254225 0.0022132043 0.048947543 0.038647097
000370 64 d6 3a bb c5 cc 09 bd 70 61 5c 3c b4 c3 20 3d
       -0.0028509134 -0.03364255 0.013450965 0.039249137
000380 47 9a 95 3d 15 5e 21 3d 01 69 57 3c dd ee 4a 3c
       0.07304817 0.039396364 0.0131475935 0.012386051
000390 5e 05 9e 3c 97 60 53 3c 71 42 19 bd 9e 4e 92 3c
       0.019289669 0.012901447 -0.03741688 0.017859753
0003a0 de 28 02 bd f5 a1 a8 3c 3a 2a be 3b b8 02 dd 3c
       -0.031777255 0.02058504 0.0058033736 0.026978835
0003b0 d1 c5 e3 bb 1c 6c ec 3b d9 6b 9b 3d 48 d6 c5 3c
       -0.006951072 0.007215036 0.0758893 0.024150029
0003c0 6e 2f 79 bd 64 25 80 bd 7e 65 d2 bc 28 f6 fb bc
       -0.060836248 -0.06257132 -0.02568316 -0.030757025
0003d0 62 6f 65 3d 20 27 f4 bc c3 4e 62 bd 04 7f 97 bd
       0.056014426 -0.029803813 -0.055250894 -0.07397273
0003e0 e2 7a 28 3d a5 a5 3b bd e8 55 40 bd d0 ad 77 bd
       0.041132815 -0.045812268 -0.046956927 -0.060468495
0003f0 44 e8 80 3d 06 bc 1a bd 3e 58 b7 3b 0f 08 22 3c
       0.06294301 -0.03777697 0.005595236 0.009889617

layer4.weight f4 [10, 256]
000000 01 bc 63 3c df ff 47 bd 1e 85 1e bd 6e 7b 55 3d
       0.013899804 -0.048828002 -0.03870117 0.052119665
000010 14 15 b7 bc fe 49 05 3d a0 e4 16 3d 94 4d d7 3c
       -0.022348918 0.032541268 0.036839128 0.02628211
000020 f2 f1 73 ba 2c 1b e1 bd d1 f1 5e bd 5a 9f 8c ba
       -0.0009305767 -0.10991511 -0.054429833 -0.0010728643
000030 30 83 23 bc 98 8c 5c 3b 90 dd 86 3d 90 fc ac 3c
       -0.009980008 0.0033653136 0.065852284 0.021116525
000040 6a 6c 10 3c aa 29 2e bd 58 85 c3 bd d2 8f 76 3d
       0.00881491 -0.042520203 -0.09546918 0.06019575
000050 8c 5d 7f bc 26 ba 37 3d 82 51 fb 3b e0 04 06 bc
       -0.015586268 0.04485526 0.0076696286 -0.008179873
000060 7a 53 82 3d f4 48 6d bc d3 95 a1 3d b8 56 9a bc
       0.06363578 -0.014482725 0.07889905 -0.018840179
000070 da a5 f8 bc 06 42 02 3a f0 61 f0 3c a4 11 17 3d
       -0.030352522 0.00049689447 0.029343575 0.036882058
000080 90 30 7f 3d 7c a2 8a bc 00 39 c8 bd dc 1b 0c ba
       0.062302172 -0.016923182 -0.09776497 -0.00053447275
000090 3c 1c ae 3c 61 6a 05 bd b0 e4 7a bd 88 57 a5 bc
       0.021253698 -0.032572154 -0.06125325 -0.02018334
0000a0 b2 1a 80 3c 81 e5 21 bb 4c 85 99 3b e4 24 49 bc
       0.01563773 -0.0024703445 0.0046850797 -0.012276862
0000b0 a2 0a 6a 3c 28 f6 72 3d 0c 6f 40 3d 67 16 14 3c
       0.014284762 0.059316784 0.046980903 0.009038544
0000c0 b4 94 78 bd 5a f7 62 bd cd 81 c2 bc 13 d1 10 3d
       -0.06068869 -0.055411674 -0.023743534 0.03535564
0000d0 eb 0b 17 bd c6 38 6c 3d 20 52 05 3c c8 35 18 3d
       -0.0368766 0.05767133 0.008137256 0.037160665
0000e0 88 54 82 bc 28 7c 42 3d ba 6f 56 bd fa 0d 1b 3d
       -0.015909448 0.047481686 -0.052352645 0.037855126
0000f0 8d 1c 47 3d ea aa 90 bc c6 99 16 3d 58 6f 8a bd
       0.048611213 -0.017659623 0.036767744 -0.067595184
000100 14 64 13 3d dc 38 97 bd c3 10 0b 3b d0 a0 03 3d
       0.035984114 -0.07383892 0.0021219708 0.032135785
000110 8c 40 dd bc ec 8b fb bc 6a 45 2f bd cc 8c 8e 3c
       -0.027008317 -0.030706368 -0.042790808 0.017401122
000120 66 73 82 3d 4f 6f cb 3c 67 a8 fe bc 84 72 8e bc
       0.06369667 0.02483335 -0.03108616 -0.01738859
000130 46 a2 93 bc f4 7f c6 ba d6 eb 65 bd 3f 02 67 39
       -0.018021714 -0.0015144334 -0.056133114 0.00022030713
000140 d4 27 2f 3d d4 37 7a 3d ce 5c 4d 3d 72 58 5a bd
       0.042762592 0.061088398 0.050137334 -0.053307004
000150 04 8b 18 bd 6d 8d b0 3d f4 47 0e 3d 07 81 1f 3d
       -0.03724195 0.08620725 0.03473659 0.03894141
000160 88 43 25 3d 54 9d f7 bb 44 60 4d 3d 7a fa 33 bd
       0.040347606 -0.007556597 0.050140634 -0.043940045
000170 1f 1f 20 3d 8b fd 37 3d 5a 60 d9 3c b8 97 1f 3d
       0.03909218 0.04491953 0.026535202 0.03896305
000180 8f d8 84 bc 04 3b ed 3c be a8 9b 3c 8a 42 26 3d
       -0.016216544 0.028958805 0.019001361 0.0405908
000190 f0 17 31 3d 25 b8 1e bd c3 c7 e2 3c c2 8f 03 3d
       0.04323572 -0.038749833 0.027683144 0.03211952
0001a0 c8 8b 02 3d 50 fe 37 3d 92 27 39 3d 92 87 8a bd
       0.031871587 0.044920266 0.045203753 -0.06764139
0001b0 8c 5c 52 3d ce df 80 bc 1e ee ab bc 1a e8 83 bd
       0.05135779 -0.015731718 -0.020987567 -0.06440754
0001c0 a7 cc ac bc 11 45 33 3b c4 d9 37 3c 66 3e de 3c
       -0.02109368 0.00273544 0.011221353 0.027129363
0001d0 bc c9 8e 3c f6 6b 1b 3d 0c c9 52 3d 46 63 0c 3c
       0.017430179 0.037944756 0.051461264 0.0085685905
0001e0 fe d5 53 3d 3a f2 52 3d 90 2e 7c 3d ec ec 5f 3d
       0.05171775 0.051500537 0.061567843 0.054669306
0001f0 36 f3 2f bc b7 1c 18 bc 35 e2 47 bd 5e 87 4d 3d
       -0.010739138 -0.00928419 -0.048799712 0.050177924
000200 1a b5 f2 bb a0 56 a7 3c f2 97 91 3d f4 f6 64 bc
       -0.007406843 0.020427048 0.071090594 -0.013974894
000210 f2 b9 27 3b b4 19 de bc 16 e6 9a bc 2e 92 14 bc
       0.002559301 -0.027111866 -0.018908542 -0.009068055
000220 fe bc 1e bd 57 30 b4 ba 3b 76 27 bd 6e 3c 5a 3b
       -0.038754456 -0.0013747317 -0.040884238 0.003330018
000230 3a 99 3d bb 24 e1 cb bd 9e 38 70 3c fd 17 d1 bc
       -0.0028930441 -0.099550515 0.014661936 -0.025524134
000240 86 ac 66 3d 70 7a 79 3c 38 41 71 bd cc e8 5d 3c
       0.056316875 0.015226945 -0.058900088 0.013544273
000250 ae 32 48 3c 5d 3d ac 3c 47 3f 2a 3d 66 34 7d bd
       0.012219114 0.021025354 0.041564252 -0.06181755
000260 e0 4c f3 ba b8 47 76 3d 87 1c 85 3d ae fc 53 bd
       -0.0018562339 0.06012699 0.06499582 -0.051754646
000270 f8 d7 a6 3b fc fc 37 3c b2 ce 57 bd f9 55 88 3d
       0.0050916635 0.01122975 -0.052687354 0.06657023
000280 88 4b 86 bc f1 15 17 bd 5c 43 94 bb e6 be 22 3d
       -0.016393438 -0.03688616 -0.0045246314 0.039732836
000290 96 38 47 3d 82 1a 5d bd f6 86 45 3b 2a ed 83 3d
       0.04863795 -0.053980358 0.0030140257 0.0644172
0002a0 f8 21 33 3d 8a 3a 3c 3d 8a a2 f9 3c 32 39 6f 3d
       0.043733567 0.045954265 0.030473012 0.058404155
0002b0 67 2a 92 bc d0 44 e6 3b 14 08 3c 3d 64 a4 53 bd
       -0.017842485 0.007027246 0.04590614 -0.051670447
0002c0 9a 04 7d 3d 40 0c 47 3d 4c 63 0b 3d 02 98 52 3d
       0.061771967 0.048595667 0.034030244 0.051414497
0002d0 82 be c2 3c f9 b5 13 3d 3a 7d 18 bd 9f ce 2c 3d
       0.023772482 0.036062215 -0.0372288 0.042189237
0002e0 2f 70 e9 3c b4 ee 81 3c c6 42 d5 bc 52 04 77 3d
       0.028495876 0.015860893 -0.026032817 0.060306855
0002f0 9e 58 22 3d 36 41 b1 bc e6 ff b0 bb 6c 7d 63 3b
       0.039635293 -0.02163754 -0.005401599 0.0034712208
000300 30 e9 32 bc a2 c9 7a 3c 0a 76 bc 3b 7b 04 3f bd
       -0.010919854 0.015306862 0.005751376 -0.046635132
000310 f8 d5 22 bd 34 72 c3 bc ca 02 af 3d b2 1e 7a b8
       -0.039754838 -0.023858167 0.08545454 -5.9633232e-05
000320 f7 ba 5d 3c 38 83 f9 bd 28 1b b7 bc 09 45 9a 3d
       0.013533345 -0.12183231 -0.022351816 0.07532699
000330 8f 9c 61 bd 36 f7 8c bc a4 f4 3d bd 07 27 a9 bd
       -0.055080947 -0.017207723 -0.046375886 -0.08259397
000340 b4 d4 93 3c 23 40 44 3c 98 76 a3 bc eb 23 83 3d
       0.01804576 0.011978182 -0.01995401 0.06403335
000350 03 65 83 bd 2a 1c d6 bc 99 7b 7f bc 0e f2 6c 3a
       -0.06415751 -0.026136477 -0.015593433 0.00090387545
000360 2a ea 5e 3c 9e b5 89 3d 66 55 07 3c f0 c4 76 3d
       0.013605634 0.06724094 0.008260107 0.060246408
000370 87 1d 29 bd d4 7c 8e bb 02 71 0a bd d6 fa 5f 3a
       -0.041287925 -0.0043483768 -0.03379918 0.00085441524
000380 2e 7d 3e 3d 0e ca 44 bd cf 58 eb ba ae 41 df bc
       0.0465061 -0.048044257 -0.0017955544 -0.027252998
000390 96 85 4b bd 22 d9 31 bd 09 8e 12 bd 65 c4 4f 3d
       -0.049687944 -0.043419965 -0.035779987 0.050724406
0003a0 42 81 53 3d 7e 62 61 bd 27 de a6 3c 60 27 8a bc
       0.05163694 -0.05502557 0.020369602 -0.016864479
0003b0 ee cc 65 3d 2e ab 8c bd 52 9b 47 3c 8c 0c 48 bd
       0.05610364 -0.068685874 0.012183027 -0.04884009
0003c0 4e 9f da 3c ba a5 84 bd f6 9a 47 3c a9 7b 7d bd
       0.02668729 -0.06476922 0.012182942 -0.06188551
0003d0 84 3e 2a 3d 2b b8 e1 bc fb 63 e3 3b 4c 69 b5 ba
       0.041563526 -0.027553638 0.006939409 -0.0013840585
0003e0 82 5e 12 bc 0e ec 83 3c e6 eb c0 bc 5e 49 89 3c
       -0.008933665 0.01610377 -0.023549985 0.016758617
0003f0 d0 8d a8 bd cc 91 51 3d 12 19 5d bc 29 bf 19 bd
       -0.082301736 0.051164433 -0.013494747 -0.03753582

layer4.bias f4 [10]
000000 1c db 35 bd 70 0e 0d bd 22 18 32 3c 78 0d 55 3c
       -0.044398412 -0.034437597 0.0108700115 0.0130036995
000010 44 46 ba 3b a8 78 69 3d 8c 8e bb 3c 7b 0a 4f 3c
       0.005684646 0.056999832 0.02289512 0.012636776
000020 c1 d6 5f 3c db 31 3f bd
       0.013662041 -0.046678405
